1/checkpoints/origin/2020-11-16T11-49-49-16-classify/classify_fold0_origin_0.933077.pth (torch, 14565 bytes, 6 tensors)

linear1.weight f4 [50, 6]
0	0x3e12168a	0.1426641
1	0xbe926a0d	-0.28596535
2	0xbe81fe79	-0.2538946
3	0x3e87ec24	0.26547348
4	0xbdfbb042	-0.12289478
5	0x3e97b768	0.29632115
6	0xbe094f7d	-0.13409229
7	0x3e866f9f	0.26257035
8	0x3d62ae80	0.055342197
9	0x3e43fc0f	0.19139121
10	0xbc9822b7	-0.01857124
11	0xbe34c37f	-0.17652701
12	0xbec97d05	-0.39353195
13	0x3ec75532	0.38932186
14	0x3e9b7fd5	0.30370966
15	0x3e68bb46	0.22727689
16	0xbda82695	-0.08210484
17	0x3e5f64d0	0.218158
18	0x3dfb1ac5	0.12260965
19	0xbddb0a30	-0.106953025
20	0x3e33a38a	0.17542854
21	0xbe8bd8b0	-0.27313757
22	0x3e891b46	0.2677862
23	0xbdf26916	-0.1183645
24	0xbe73cabb	-0.23807804
25	0x3da175be	0.07883786
26	0x3eb291da	0.348769
27	0xbea5b756	-0.32366437
28	0xbda9debf	-0.082944386
29	0x3d656f51	0.056014363
30	0xbea63a23	-0.3246623
31	0x3dd3cc04	0.10341647
32	0x3ecab0a9	0.39587906
33	0xbe6b4418	-0.22975194
34	0xbdd3d22a	-0.1034282
35	0x3ead7e71	0.3388553
36	0xbe1330a8	-0.1437403
37	0xbeb16214	-0.3464514
38	0xbe9a5576	-0.30143327
39	0x3df46c93	0.119347714
40	0xbe940a0f	-0.28913924
41	0xbebf7682	-0.37395102
42	0xbdcfc1bc	-0.10144374
43	0x3d739c0a	0.059474982
44	0x3ec3c188	0.3823359
45	0x3e9b3c30	0.30319357
46	0x3ed6c7af	0.41949221
47	0x3e07c1bb	0.13257496
48	0xbeb4f44b	-0.3534263
49	0xbde44359	-0.11145658
50	0x3e7f03db	0.24903814
51	0x3e95d914	0.2926718
52	0x3ec29f50	0.3801217
53	0xbdbad821	-0.091232546
54	0xbea2c995	-0.3179442
55	0xbeb5a62f	-0.3547835
56	0x3d2a07a9	0.04151121
57	0x3e91c417	0.28469917
58	0xbd20ad29	-0.03922764
59	0xbeb8ab04	-0.36067975
60	0xbe4747ff	-0.19461058
61	0x3871aed9	5.7621717e-05
62	0xbec5eab2	-0.3865562
63	0xbde50a34	-0.11183587
64	0xbcd9e346	-0.02659763
65	0x3e21b123	0.15790229
66	0xbe4bdaa9	-0.19907631
67	0xbd2dbfb9	-0.04241917
68	0xbeba688f	-0.36407897
69	0xbe056eac	-0.13030499
70	0x3e7b3c13	0.24534635
71	0xbd2fa641	-0.04288316
72	0xbdfaa2f8	-0.12238115
73	0x3c914cd7	0.017736835
74	0x3e99487c	0.29938114
75	0xbe217a6a	-0.15769354
76	0x3e949cb0	0.29025793
77	0xbe77d1b4	-0.24201089
78	0xbdf9811e	-0.1218283
79	0xbecef1d0	-0.40418863
80	0x3e64d45a	0.2234663
81	0xbecdb15e	-0.40174383
82	0x3e62be81	0.22142984
83	0xbec9a3a0	-0.39382648
84	0xbe7355c8	-0.23763192
85	0xbea6e892	-0.32599312
86	0xbeb61cf0	-0.35568953
87	0xbebe6eb2	-0.3719383
88	0xbeb426b8	-0.3518579
89	0xbdf6c3f6	-0.12049095
90	0xbec1fc3f	-0.3788776
91	0x3e705def	0.23473333
92	0x3e505236	0.20343861
93	0x3ec35a70	0.38154936
94	0xbe817da2	-0.25291163
95	0x3ec6fecf	0.3886628
96	0xbd37d555	-0.044881184
97	0x3eb1401f	0.34619233
98	0x3e94bcd8	0.29050326
99	0xbbeefd8f	-0.00729341
100	0x3e950a9d	0.2910966
101	0xbec03c56	-0.37546033
102	0xbea47828	-0.32122922
103	0x3e313d88	0.17308629
104	0x3da6e2d6	0.08148734
105	0x3e675633	0.22591476
106	0xbe67c4c5	-0.22633655
107	0x3e92add6	0.2864825
108	0xbe1c6f84	-0.15276915
109	0x3eb3773a	0.350519
110	0x3e959ffa	0.29223615
111	0x3dac3603	0.084087394
112	0x3e022f7e	0.1271343
113	0xbddcfb2d	-0.107900955
114	0x3e6fee49	0.23430742
115	0xbd42c64c	-0.047552392
116	0x3da4bf3a	0.08044286
117	0x3ead20e3	0.33814153
118	0x3d3dbd06	0.046322845
119	0xbe8993a0	-0.2687044
120	0xbd33286d	-0.043739725
121	0xbb30dda3	-0.0026987575
122	0x3df78a60	0.1208694
123	0x3d68a81e	0.056800954
124	0xbecdace7	-0.40170977
125	0xbe0037f7	-0.12521349
126	0x3ce32934	0.027729608
127	0xbe43e3b1	-0.19129826
128	0x3e3b57d9	0.1829523
129	0x3e972592	0.2952085
130	0x3e73fea4	0.23827606
131	0xbe6637ea	-0.22482267
132	0xbe92c6d8	-0.2866733
133	0xbea3f9e8	-0.320266
134	0x3e32b3a8	0.17451346
135	0xbe108352	-0.14112595
136	0x3e555d7d	0.20836444
137	0x3ec44efc	0.3834151
138	0xbece1e70	-0.40257597
139	0x3e1dd0c0	0.15411663
140	0x3ec7354d	0.38907853
141	0x3ea07df0	0.31346083
142	0xbe3df4d1	-0.18550421
143	0xb94fa275	-0.00019801578
144	0xbdc25742	-0.09489299
145	0xbea6aa68	-0.32551885
146	0xbd67d209	-0.05659679
147	0xbc768ea8	-0.01504866
148	0x3e3b8701	0.18313219
149	0xbca86efb	-0.020560732
150	0xbe9a598e	-0.3014645
151	0x3df2bce7	0.118524365
152	0xbe8872ab	-0.26649985
153	0x3d9d61e6	0.07684688
154	0xbdbabf6f	-0.09118544
155	0xbe8ae596	-0.27128285
156	0x3eb35942	0.35029036
157	0x3d9280a3	0.07153442
158	0xbeb789d2	-0.35847336
159	0xbdc1aebf	-0.09457158
160	0xbd693a10	-0.05694014
161	0xbe1359d9	-0.14389743
162	0x3e68c1d9	0.22730197
163	0x3e858d96	0.26084584
164	0x3ea225ba	0.31669408
165	0xbe079e12	-0.13243893
166	0x3e6b6cbe	0.229907
167	0x3e0c036e	0.13673183
168	0xbe5bd933	-0.21469574
169	0x3e15a00d	0.14611836
170	0xbecb94a7	-0.3976185
171	0xbea76d98	-0.327008
172	0xbe9f1b96	-0.31075734
173	0x3e0f2546	0.13979062
174	0xbdb1a303	-0.0867367
175	0x3df0fbf6	0.11766808
176	0x3e2160e9	0.15759625
177	0x3cc4a81a	0.024005938
178	0x3e83194d	0.2560524
179	0x3c3893da	0.011265719
180	0x3da64ef8	0.08120531
181	0x3ea47f3f	0.3212833
182	0x3e0fbd59	0.14037074
183	0x3d5cf313	0.05394275
184	0xbdec7a34	-0.11546746
185	0x3ea6dad7	0.32588837
186	0xbedd3e07	-0.43211386
187	0x3dc0919a	0.09402771
188	0x3e5196a7	0.20467626
189	0x3d7dc5de	0.06195628
190	0xbe2c3de5	-0.16820486
191	0x3e9e2656	0.30888623
192	0x3eaddf62	0.3395949
193	0xbd917321	-0.07102037
194	0x3e881b3a	0.26583272
195	0x3c501d26	0.012702262
196	0x3e969e20	0.29417515
197	0x3e9a8881	0.3018227
198	0x3e21921c	0.15778393
199	0xbe20e4cf	-0.15712284
200	0xbe32a1e9	-0.17444576
201	0x3e4b70bc	0.19867224
202	0x3ec40e64	0.3829223
203	0x3e865227	0.26234552
204	0x3e472dbf	0.19451044
205	0xbe844eed	-0.25841466
206	0x3d05d86a	0.03267709
207	0xbed2fd89	-0.41209057
208	0x3eb9d0d0	0.36292124
209	0x3d294360	0.04132402
210	0xbc89777a	-0.016780604
211	0x3ed37422	0.4129954
212	0xbe9dd94d	-0.3082985
213	0x3e45f280	0.19330788
214	0x3e360691	0.17775942
215	0x3d3f6729	0.04672924
216	0xbdc0de53	-0.09417405
217	0xbecf4b7f	-0.40487286
218	0x3e2fa7c9	0.17153849
219	0xbe8d6653	-0.2761713
220	0x3ea0c4b4	0.31400073
221	0xbe82a9c1	-0.25520137
222	0xbce24e5c	-0.027625255
223	0x3e8af896	0.2714278
224	0xbdfbafe7	-0.1228941
225	0x3bb681c2	0.0055696676
226	0xbbd58132	-0.0065156454
227	0xbc93c8c0	-0.018040061
228	0xbeb34255	-0.35011545
229	0x3e2e9a4c	0.17051047
230	0x3de7dc22	0.11321284
231	0x3eb0d540	0.34537697
232	0xbe3c746d	-0.18403788
233	0xbd29b54e	-0.04143267
234	0xbe8596ab	-0.26091513
235	0xbecc2f55	-0.3987986
236	0x3e9e4f48	0.30919862
237	0xbdd154f7	-0.10221284
238	0xbe45d86a	-0.19320837
239	0xbd912537	-0.07087176
240	0xbe5dd7f3	-0.2166441
241	0x3eb071b4	0.3446175
242	0x3c915213	0.017739331
243	0x3eafd8fa	0.34345227
244	0xbcdf7297	-0.02727632
245	0x3d3b30e0	0.045700908
246	0x3d3591f4	0.044328645
247	0x3e84ad6a	0.25913554
248	0x3e81e2ce	0.2536835
249	0x3ecc381a	0.39886552
250	0x3cfdb316	0.030969184
251	0xbe7735ab	-0.24141566
252	0xbe988036	-0.29785317
253	0xbe29dd17	-0.16588245
254	0xbd6b023a	-0.05737517
255	0xbe4c7856	-0.1996778

linear1.bias f4 [50]
0	0x3d31e3b1	0.043430034
1	0xbe23d4b9	-0.15999116
2	0x3e51bd11	0.2048228
3	0xbdb9d5a7	-0.09073954
4	0x3df9f943	0.12205746
5	0x3e4c1edd	0.19933648
6	0xbd7a741c	-0.061145887
7	0x3eeb5884	0.4596597
8	0x3e08f167	0.13373338
9	0xbe710520	-0.23537111
10	0xbe9e239d	-0.30886546
11	0xbd412fd0	-0.04716474
12	0xbd01dc94	-0.0317045
13	0x3e049303	0.12946706
14	0x3c2cbddd	0.010543314
15	0x3d7eb41a	0.062183477
16	0xbeac0e47	-0.33604643
17	0x3c08d661	0.008351893
18	0xbdde662f	-0.10859334
19	0xbe0e86d1	-0.13918616
20	0xbeb19bf0	-0.34689283
21	0x3e92a417	0.28640816
22	0xbe042f62	-0.129087
23	0xbe052313	-0.13001661
24	0xbeafc7e2	-0.34332186
25	0x3e345afc	0.17612833
26	0xbd7c5429	-0.0616037
27	0xbe4202a8	-0.18946326
28	0xbecca078	-0.39966178
29	0xbdcc2ab0	-0.099690795
30	0xbeb80b2e	-0.3594603
31	0x3e45f64b	0.19332235
32	0x3dbdd958	0.09269971
33	0x3eacde95	0.33763567
34	0xbe27c0f2	-0.16382197
35	0x3e73298b	0.23746316
36	0xbe88f1ea	-0.26747066
37	0x3eb52fe1	0.3538809
38	0xbea602c5	-0.32423988
39	0x3b22e921	0.0024858194
40	0xbe831dc9	-0.25608662
41	0xbcff9995	-0.031201163
42	0xbeb0edd8	-0.3455646
43	0x3e28e291	0.16492678
44	0xbd9610af	-0.07327401
45	0x3e4f13c2	0.20222381
46	0xbe7eb8fa	-0.2487525
47	0x3dc10696	0.09425084
48	0x3e6b4d61	0.22978736
49	0xbe81d18b	-0.2535518

linear2.weight f4 [50, 50]
0	0x3e119f77	0.14220987
1	0xbd6c4061	-0.057678584
2	0xbd284b3f	-0.041087385
3	0x3cf57bac	0.029966198
4	0xbe0b01e4	-0.1357494
5	0xbc1ccc28	-0.009570159
6	0x3d3be12d	0.04586904
7	0xbcd672c6	-0.026177775
8	0x3cbb89be	0.022892829
9	0xbdf376ba	-0.1188788
10	0x3da7ed2d	0.081995346
11	0x3e009e70	0.12560439
12	0x3df40790	0.11915505
13	0x3cd26bf4	0.025686242
14	0xbdfd3bf8	-0.12364954
15	0x3dd9b535	0.106302656
16	0xbe1067da	-0.14102116
17	0x3d2d4bd9	0.042308662
18	0x3d189c3c	0.03725837
19	0xbddb3bff	-0.10704803
20	0x3d472545	0.048619527
21	0x3dad2381	0.084540375
22	0xbd332461	-0.043735866
23	0xbc5a3698	-0.01331868
24	0x3d793a1b	0.06084643
25	0xbdf8d082	-0.12149145
26	0x3e2f9535	0.17146762
27	0x3d48fab3	0.04906721
28	0xbd7fb6e8	-0.062430292
29	0xbdbba35c	-0.09162018
30	0x3d964ebd	0.07339237
31	0xbdbf1395	-0.09329907
32	0x3e07a138	0.13245094
33	0xbc9249f7	-0.017857535
34	0x3e20ea6b	0.15714423
35	0x3d3da120	0.04629624
36	0xbdd83a72	-0.105580226
37	0x3dc9e324	0.09857777
38	0x3d4c6857	0.049904194
39	0xbca4717a	-0.020073641
40	0x3ce6553d	0.028116817
41	0xbd3668b4	-0.044533446
42	0xbd173d23	-0.03692354
43	0xbd64f6a2	-0.05589927
44	0xbd723d57	-0.05914053
45	0x3daf74a3	0.085671686
46	0x3e06362c	0.13106602
47	0xbd87a167	-0.06622582
48	0x3de929f4	0.11384955
49	0x3ddbda53	0.107350014
50	0xbdf6f55e	-0.12058519
51	0x3dde6380	0.10858822
52	0x3daf7b48	0.08568436
53	0x3cc9b612	0.02462295
54	0x3d7b55cf	0.06136113
55	0x3db2c229	0.08728439
56	0xb9223ee3	-0.00015472951
57	0x3bdc2221	0.0067179357
58	0x3d2dadb6	0.04240199
59	0x3dcd4374	0.10022631
60	0xbdc9c377	-0.09851735
61	0x3de6d796	0.112715885
62	0x3df5fef3	0.12011518
63	0xbcc2afd5	-0.023765484
64	0x3d8b94cb	0.068154894
65	0x3d1eb985	0.038751144
66	0x3d55d36b	0.052203577
67	0xbda3a7ad	-0.07990966
68	0xbdc8ed7b	-0.09810921
69	0xbd17b582	-0.037038334
70	0xbd948daa	-0.07253583
71	0xbd9bc074	-0.07605067
72	0xbd085faa	-0.033294357
73	0x3e0626d0	0.13100743
74	0x3e0f0cef	0.13969778
75	0x3cc090df	0.02350658
76	0xbd90f571	-0.07078064
77	0x3d82927c	0.06375596
78	0x3cb7c2af	0.0224317
79	0x3bd78c17	0.0065779793
80	0xbd51c9c0	-0.051217794
81	0xbe037e82	-0.12841228
82	0xbe0c1399	-0.13679351
83	0x3de14ce6	0.11000995
84	0x3c38da1a	0.011282468
85	0x3d91c4f0	0.07117641
86	0x3d53a161	0.051667575
87	0xbc15bf54	-0.009139854
88	0xbdce360b	-0.10068902
89	0xbd9d668b	-0.07685574
90	0xbe09aca9	-0.13444771
91	0x3d7dca31	0.061960403
92	0x3d8a50d8	0.06753701
93	0xba544132	-0.0008096873
94	0xbd9482bf	-0.072515
95	0xbd8eeb76	-0.06978504
96	0xbce8f052	-0.028434906
97	0xbd185444	-0.037189737
98	0x3dfe485f	0.124161474
99	0x3e0d6777	0.13809
100	0x3ddbe3b4	0.1073679
101	0xbdf7a5fa	-0.120922044
102	0x3d48a78b	0.048987906
103	0xbd4dc26b	-0.05023424
104	0xbdd79bd7	-0.10527771
105	0xbde12c10	-0.109947324
106	0x3d92aa44	0.07161382
107	0x3d1fc39b	0.039004903
108	0xbdb5059b	-0.0883896
109	0x3db55bc7	0.08855396
110	0x3d84e0ce	0.064881906
111	0xbd7ffce0	-0.06249702
112	0x3e1041dc	0.14087623
113	0xbdcf59b2	-0.1012453
114	0xbd75ccd1	-0.06000978
115	0xbe07e0dd	-0.13269372
116	0xbd89e585	-0.067332305
117	0x3dd0da12	0.101978436
118	0xbde6c61d	-0.11268256
119	0xbdad177c	-0.08451745
120	0x3da32b78	0.079672754
121	0xbd69aea2	-0.05705131
122	0xbc90cd82	-0.017676119
123	0xbd24a93c	-0.040200457
124	0x3d09b2b0	0.033617675
125	0x3d8bac2c	0.068199486
126	0x3e0236e8	0.12716258
127	0xbdc5379d	-0.09629748
128	0xbda18b20	-0.07887864
129	0xbdd5944d	-0.10428677
130	0xbdb261fe	-0.08710097
131	0x3c1c4d56	0.009539923
132	0xbda50877	-0.08058255
133	0x3c92ae73	0.01790545
134	0x3d84e2f6	0.06488602
135	0x3db05301	0.08609582
136	0xbe10ce4b	-0.14141195
137	0xbcb322b5	-0.021867136
138	0xbdbd1a5d	-0.09233544
139	0x3bbb8a6e	0.005723289
140	0x3d236c74	0.03989835
141	0xbcb0e793	-0.021594798
142	0xbc8c96bf	-0.017161725
143	0xbc82a18e	-0.015946176
144	0xbe03c93e	-0.12869737
145	0xbc87d6e9	-0.01658197
146	0x3b83fd3e	0.0040279916
147	0xbdb93059	-0.09042425
148	0x3df18737	0.11793368
149	0x3ccc9864	0.02497501
150	0xbda15313	-0.07877173
151	0xbd1f5c4d	-0.038906384
152	0xbb8a02ec	-0.004211774
153	0x3dbdd964	0.092699796
154	0x3dddeba2	0.10835959
155	0x3c4e171a	0.01257875
156	0x3d4d550c	0.050129935
157	0xbde87706	-0.11350827
158	0xbdc6d1b6	-0.09707968
159	0x3d505c7c	0.05086945
160	0xbc8fdcbd	-0.01756131
161	0xbe0d2381	-0.13783075
162	0x3de5aa55	0.11214129
163	0xbd629fbe	-0.055328123
164	0xbc56d9ab	-0.0131134195
165	0xbc2aa4e5	-0.0104152905
166	0x3da91bea	0.08257277
167	0xbd237bcf	-0.039912995
168	0xbd8f5821	-0.06999231
169	0xbdc30244	-0.095219165
170	0x3d950469	0.07276232
171	0x3c97a1d2	0.01850978
172	0x3d3c043a	0.04590247
173	0xbdbd4be0	-0.09242988
174	0x3a89b06d	0.001050485
175	0xbd85d4ab	-0.06534704
176	0xbe2fb98b	-0.17160623
177	0xbc6f1c40	-0.014594138
178	0xbbdc7256	-0.006727497
179	0x3c99445e	0.018709358
180	0x3e006940	0.1254015
181	0xbdd8ef77	-0.10592549
182	0x3dceaf39	0.10092015
183	0xbe2c4240	-0.16822147
184	0x3d507714	0.05089481
185	0xbdfafccd	-0.12255249
186	0x3df3e315	0.11908547
187	0x3dc877e6	0.09788494
188	0xbd7e4e06	-0.062086128
189	0x3e0dd747	0.13851653
190	0x3e201b47	0.15635405
191	0xbd133e38	-0.03594801
192	0xbde8a602	-0.113597885
193	0x3d853f18	0.06506175
194	0x3dc42e15	0.09579102
195	0xbdb6a543	-0.0891824
196	0x3d99ade4	0.0750387
197	0xbdf4c952	-0.11952461
198	0xbdee2ed9	-0.11630029
199	0xbc72f433	-0.014828729
200	0xbdeaf07e	-0.114716515
201	0x3ddb955c	0.107218474
202	0x3caf314a	0.021385808
203	0xbe1127c8	-0.14175332
204	0xbcdd22b4	-0.026994087
205	0x3d47f666	0.04881897
206	0x3e0b435f	0.13599919
207	0xbcaf3ad4	-0.021390356
208	0xbda6da51	-0.08147109
209	0xbd73a065	-0.059479136
210	0x3dfce076	0.123475
211	0xbda64143	-0.081179164
212	0xbd50eab3	-0.051005077
213	0xbde9358a	-0.11387165
214	0xbdeee513	-0.11664786
215	0xbe1601c9	-0.14649118
216	0x3ddf4790	0.10902321
217	0xbde0fb9e	-0.10985492
218	0xbd8c2a55	-0.06844012
219	0xbd4f0c12	-0.05054862
220	0x3d4c5b6e	0.04989188
221	0x3c90d008	0.017677322
222	0x3d20e213	0.0392781
223	0x3dd7c4f8	0.10535616
224	0x3de2e9e7	0.110797696
225	0x3d8f7a4f	0.070057504
226	0x3da4df0c	0.08050355
227	0x3c94b0f5	0.018150786
228	0x3c3c7300	0.0115020275
229	0xbd540d67	-0.051770594
230	0xbcb82d5c	-0.022482567
231	0x3ae05c0a	0.0017117274
232	0xbd248bbd	-0.040172327
233	0xbd271b93	-0.04079778
234	0xbdd47f61	-0.10375858
235	0xbde746e9	-0.11292822
236	0xbd48b7a2	-0.04900325
237	0xbd370e5e	-0.044691436
238	0xbcb2ada5	-0.021811316
239	0xbd25e820	-0.040504575
240	0x3c906e55	0.017630735
241	0x3dd8a05b	0.105774604
242	0xbda0bdb8	-0.07848686
243	0x3e0a384f	0.13498043
244	0xbe12593d	-0.14291854
245	0xbe1561de	-0.14588115
246	0xbce3f480	-0.027826548
247	0xbd1555f4	-0.036458924
248	0x3d8fbac7	0.07018047
249	0xbc7bbf13	-0.01536538
250	0xbd94aeb4	-0.072598845
251	0x3d99f69b	0.075177394
252	0x3e04cedb	0.12969534
253	0xbdb50be7	-0.08840161
254	0x3e09286d	0.13394327
255	0xbd8e03d0	-0.06934321

linear2.bias f4 [50]
0	0x3ddd6e6d	0.10812078
1	0xbe1a39c4	-0.15061098
2	0xbdbb69d5	-0.09151045
3	0x3c494614	0.012284774
4	0xbdf3bd77	-0.11901372
5	0x3d7801d2	0.06054861
6	0xbd648aac	-0.05579631
7	0x3e14a3df	0.14515637
8	0x3d9b1d12	0.07573904
9	0xbd938554	-0.07203165
10	0xbdfa55e3	-0.12223413
11	0xbde9dc3c	-0.114189595
12	0x3d1f0961	0.038827304
13	0x3b22fb8b	0.002486917
14	0x3dd8f594	0.10593715
15	0x3dc93fb0	0.098266006
16	0x3e04bb0b	0.12961976
17	0xbb9a11f4	-0.004701847
18	0xbd1fe4a3	-0.039036404
19	0x3e46cc62	0.19413903
20	0xbdde09cb	-0.108417116
21	0x3e3464bc	0.17616552
22	0xbd652e4d	-0.05595236
23	0xbd5c92b1	-0.053850833
24	0xbcddfa2b	-0.027096828
25	0xbd43d0d7	-0.047806587
26	0x3d9bc105	0.07605175
27	0x3df02c65	0.117272176
28	0xbd3757e2	-0.044761546
29	0x3d4bdeb1	0.049772922
30	0x3d346af6	0.04404732
31	0xbdeb0bac	-0.114768356
32	0x3e0b0d90	0.13579392
33	0xbc93ac05	-0.018026361
34	0xbe10091f	-0.1406598
35	0x3e0d3c0e	0.1379244
36	0x3e24ad74	0.16081792
37	0x3d8d4c29	0.06899292
38	0x3d001fae	0.031280212
39	0x3cf39194	0.029732503
40	0x3e1b5eec	0.15172929
41	0xbdb394e8	-0.08768636
42	0x3e38ed72	0.18059328
43	0x3cd2a996	0.02571563
44	0xbd8e593d	-0.069506146
45	0xbdc0900a	-0.09402473
46	0x3cc52e9a	0.024070073
47	0xbd9fa12b	-0.07794412
48	0x3d8b29f1	0.06795109
49	0x3d3e34aa	0.046436943

linear3.weight f4 [2, 50]
0	0x3d3252f0	0.043536127
1	0x3da8e480	0.08246708
2	0x3dfe10e5	0.12405566
3	0xbd74fb08	-0.059809715
4	0x3da7bda1	0.08190466
5	0x3c8beaa8	0.017079666
6	0xbdc30500	-0.09522438
7	0x3d7af9fb	0.061273556
8	0xbe10c0f1	-0.14136101
9	0xbd90eaa0	-0.07076001
10	0xbd8c44ff	-0.068490975
11	0x3d9db87a	0.07701202
12	0xbddef0e4	-0.1088579
13	0x3d493658	0.049124092
14	0x3d80afe1	0.06283546
15	0x3e00ad45	0.12566097
16	0xbd7588c2	-0.059944876
17	0xbde72266	-0.11285858
18	0x3e1b1331	0.1514404
19	0x3d0d7bec	0.03454201
20	0xbdffacf2	-0.124841586
21	0xbb73d841	-0.0037207755
22	0xbd72e944	-0.05930449
23	0x3dd77cac	0.10521826
24	0xbdced1b2	-0.1009859
25	0x3c5927e4	0.01325414
26	0xbe03661b	-0.12831919
27	0x3e07757f	0.13228415
28	0x3d8d1da1	0.06890417
29	0x3de36409	0.111030646
30	0xbdc35dee	-0.095394
31	0xbda582c6	-0.08081584
32	0x3e0bafd2	0.13641289
33	0x3de84ca8	0.11342746
34	0xbc2f20bd	-0.010688958
35	0x3dfba006	0.122863814
36	0x3e13b2f8	0.1442374
37	0xbd4543f3	-0.048160505
38	0x3d5ae0c3	0.053437006
39	0x3d179b1e	0.037013166
40	0x3e065516	0.13118395
41	0x3d11aee0	0.035567164
42	0x3d049aa0	0.032374024
43	0xbd5883ec	-0.052860186
44	0x3e1996e1	0.14998962
45	0xbd9881f5	-0.07446662
46	0xbd746a3c	-0.059671625
47	0xbca4e198	-0.020127103
48	0x3dd41477	0.10355466
49	0xbdfe1836	-0.124069616
50	0xbda263f0	-0.07929218
51	0x3e0a96a2	0.13534024
52	0xbd87cb87	-0.06630617
53	0x3d90e334	0.070745856
54	0x3d83bc60	0.06432414
55	0x3d04c99f	0.032418843
56	0x3c886ae7	0.016652538
57	0x3c301d6a	0.0107492
58	0x3c4e9fd0	0.012611344
59	0xbe0ab5d3	-0.13545923
60	0x3d146c87	0.036236312
61	0x3dc911f4	0.098178774
62	0xbe013c4d	-0.12620659
63	0x3d9760a5	0.0739148
64	0xbdb2201f	-0.08697533
65	0x3cad0220	0.021119177
66	0x3d86b446	0.06577353
67	0xbd738796	-0.059455477
68	0x3c9bf7c5	0.019039044
69	0xbda73b9b	-0.08165666
70	0xbe03cce4	-0.12871128
71	0xbd22ca27	-0.03974357
72	0x3e0cb02f	0.13739084
73	0x3dc35a5a	0.095387176
74	0xbd7f7b86	-0.06237366
75	0xbd16b52a	-0.036793865
76	0xbc1d56ef	-0.009603246
77	0xbdf15775	-0.11784259
78	0xbceda892	-0.029011045
79	0x3d8639f2	0.06554021
80	0x3d8b99ec	0.06816468
81	0xbd7f542d	-0.062336136
82	0x3c16b56e	0.00919853
83	0xbd9d8c71	-0.07692803
84	0x3d969d09	0.07354171
85	0xbdce9035	-0.10086099
86	0x3d49f2cd	0.04930382
87	0x3c8cd621	0.017191948
88	0xbd6cc128	-0.057801396
89	0xbdd9a737	-0.10627597
90	0x3d42ca15	0.047556
91	0x3d687f35	0.05676194
92	0xbdfe1a1d	-0.124073245
93	0x3d93ce7a	0.07217117
94	0x3db22e27	0.08700209
95	0x3bebf378	0.0072006546
96	0x3cd1ddbe	0.02561843
97	0xbdb63789	-0.08897311
98	0x3c44045a	0.011963928
99	0x3dd58cec	0.10427269

linear3.bias f4 [2]
0	0x3dec040d	0.1152421
1	0xbdf31073	-0.11868372
