1/checkpoints/origin/2020-11-16T11-49-49-16-classify/classify_fold0_origin_0.953077.pth (torch, 14565 bytes, 6 tensors)

linear1.weight f4 [50, 6]
0	0x3e334e4d	0.17510338
1	0xbe8e0c59	-0.27743796
2	0xbe477626	-0.19478664
3	0x3e98eb86	0.2986719
4	0xbda2d7ba	-0.07951303
5	0x3eab1720	0.3341608
6	0xbe009363	-0.12556224
7	0x3e82b3c0	0.25527763
8	0x3d7e4150	0.062074006
9	0x3e5a7a5f	0.21335743
10	0xbd15fdda	-0.036619045
11	0xbe1f7542	-0.15572074
12	0xbecb87c0	-0.39752007
13	0x3ec79b08	0.38985467
14	0x3e9a90af	0.3018851
15	0x3e74477f	0.23855399
16	0xbdcc1b59	-0.09966154
17	0x3e614620	0.21999407
18	0x3dfa8813	0.12232985
19	0xbddea8ed	-0.10872064
20	0x3e33dacf	0.17563938
21	0xbe880640	-0.26567268
22	0x3e85b3e8	0.2611382
23	0xbde94176	-0.11389439
24	0xbe7a91dd	-0.24469705
25	0x3d9670fa	0.07345767
26	0x3eb03f42	0.34423262
27	0xbe9f514c	-0.31116712
28	0xbdd01c34	-0.10161629
29	0x3d6b2c06	0.05741503
30	0xbea7f1b2	-0.32801586
31	0x3dd1850b	0.10230454
32	0x3ec8ffae	0.39257568
33	0xbe68df90	-0.22741532
34	0xbded84e3	-0.11597612
35	0x3eacf4f9	0.3378065
36	0xbe1330a8	-0.1437403
37	0xbeb16214	-0.3464514
38	0xbe9a5576	-0.30143327
39	0x3df46c93	0.119347714
40	0xbe940a0f	-0.28913924
41	0xbebf7682	-0.37395102
42	0xbdcbbedf	-0.09948515
43	0x3d76cb09	0.060252223
44	0x3ec2c7d0	0.3804307
45	0x3e95657d	0.29178992
46	0x3edd2431	0.43191674
47	0x3e038afb	0.12845986
48	0xbeb56ce3	-0.35434636
49	0xbdf4becc	-0.11950454
50	0x3e7d851e	0.24757811
51	0x3e98eb0c	0.29866827
52	0x3ec06d7c	0.3758353
53	0xbdb746e3	-0.089490674
54	0xbea2c998	-0.3179443
55	0xbeb5a632	-0.3547836
56	0x3d2a077a	0.041511036
57	0x3e91c414	0.28469908
58	0xbd20ad58	-0.039227813
59	0xbeb8ab07	-0.36067984
60	0xbe4747ff	-0.19461058
61	0x3871aed9	5.7621717e-05
62	0xbec5eab2	-0.3865562
63	0xbde50a34	-0.11183587
64	0xbcd9e346	-0.02659763
65	0x3e21b123	0.15790229
66	0xbe4bdaa9	-0.19907631
67	0xbd2dbfb9	-0.04241917
68	0xbeba688f	-0.36407897
69	0xbe056eac	-0.13030499
70	0x3e7b3c13	0.24534635
71	0xbd2fa641	-0.04288316
72	0xbdf8367f	-0.12119769
73	0x3c91ab54	0.01778189
74	0x3e9825a4	0.29716218
75	0xbe34b2a3	-0.1764627
76	0x3e9c5454	0.30533087
77	0xbe7eb6c7	-0.24874412
78	0xbe003805	-0.1252137
79	0xbee6648f	-0.44998595
80	0x3e5b943c	0.21443266
81	0xbed690fd	-0.41907492
82	0x3e704b6e	0.23466274
83	0xbecebbad	-0.4037756
84	0xbe7355c8	-0.23763192
85	0xbea6e892	-0.32599312
86	0xbeb61cf0	-0.35568953
87	0xbebe6eb2	-0.3719383
88	0xbeb426b8	-0.3518579
89	0xbdf6c3f6	-0.12049095
90	0xbec40e02	-0.38291937
91	0x3e6dce26	0.2322317
92	0x3e500b9b	0.20316927
93	0x3eca4386	0.3950464
94	0xbe8a9f86	-0.27074832
95	0x3ec8e465	0.3923675
96	0xbd406709	-0.046973262
97	0x3eafaa06	0.34309405
98	0x3e94730c	0.28994024
99	0xbbedf1fe	-0.0072615137
100	0x3e8ed800	0.2789917
101	0xbec07a49	-0.37593296
102	0xbea8af94	-0.32946455
103	0x3e2c3e18	0.16820562
104	0x3d9dca2a	0.07704575
105	0x3e79870c	0.24367923
106	0xbe840724	-0.25786698
107	0x3e947a47	0.2899954
108	0xbe1cdb21	-0.15317966
109	0x3eb034ad	0.34415188
110	0x3e92fb33	0.28707275
111	0x3da1eddb	0.079066955
112	0x3e089bb6	0.13340649
113	0xbde5282f	-0.11189305
114	0x3e7029c5	0.23453434
115	0xbd587ae9	-0.05285159
116	0x3d9db4c4	0.07700494
117	0x3ea33a04	0.318802
118	0x3d73212e	0.059357814
119	0xbe8d20b3	-0.2756401
120	0xbd3b13af	-0.04567307
121	0xbbb550f1	-0.0055333306
122	0x3df5169a	0.119672015
123	0x3d86380c	0.06553659
124	0xbed77ef3	-0.42089042
125	0xbdf1296b	-0.11775478
126	0x3cd91a41	0.026501777
127	0xbe4592db	-0.19294302
128	0x3e3b8356	0.1831182
129	0x3e9c9d41	0.30588725
130	0x3e68c45f	0.2273116
131	0xbe616d7e	-0.22014424
132	0xbe94e137	-0.29078075
133	0xbe9a0543	-0.3008214
134	0x3e324eb1	0.17412831
135	0xbe04e0bb	-0.12976353
136	0x3e49e37d	0.19715686
137	0x3ec3f109	0.38269833
138	0xbecf477b	-0.40484223
139	0x3e1b324d	0.15155907
140	0x3ec7b6bc	0.39006603
141	0x3eaa8da4	0.33311188
142	0xbe4de919	-0.20108451
143	0x3badfa35	0.005309368
144	0xbdc25742	-0.09489299
145	0xbea6aa68	-0.32551885
146	0xbd67d209	-0.05659679
147	0xbc768ea8	-0.01504866
148	0x3e3b8701	0.18313219
149	0xbca86efb	-0.020560732
150	0xbe9a598e	-0.3014645
151	0x3df2bce7	0.118524365
152	0xbe8872ab	-0.26649985
153	0x3d9d61e6	0.07684688
154	0xbdbabf6f	-0.09118544
155	0xbe8ae596	-0.27128285
156	0x3eb9c636	0.36284035
157	0x3d4e16aa	0.050314583
158	0xbeb3ad90	-0.35093355
159	0xbdc251c9	-0.094882555
160	0xbd1f5dd4	-0.03890784
161	0xbe0eab68	-0.13932574
162	0x3e695acd	0.22788544
163	0x3e83698d	0.25666466
164	0x3ea03451	0.31289914
165	0xbe1e404d	-0.15454216
166	0x3e7e4376	0.24830422
167	0x3e03180d	0.12802143
168	0xbe5bd933	-0.21469574
169	0x3e15a00d	0.14611836
170	0xbecb94a7	-0.3976185
171	0xbea76d98	-0.327008
172	0xbe9f1b96	-0.31075734
173	0x3e0f2546	0.13979062
174	0xbdb7132e	-0.08939205
175	0x3deb2855	0.11482302
176	0x3e1c96a2	0.15291837
177	0x3cc12d8a	0.023581285
178	0x3e82fe66	0.25584716
179	0x3becc275	0.0072253295
180	0x3da3b901	0.07994271
181	0x3ea3a515	0.31961885
182	0x3e0dc884	0.13846022
183	0x3d7eade4	0.062177554
184	0xbe0073bc	-0.12544149
185	0x3ea8a87c	0.32941043
186	0xbeded802	-0.43524176
187	0x3dbb1658	0.09135121
188	0x3e528b2f	0.20560907
189	0x3daa0453	0.08301606
190	0xbe3f70f6	-0.18695435
191	0x3ea16cbe	0.31528276
192	0x3eae9655	0.3409907
193	0xbd93a07b	-0.072083436
194	0x3e861436	0.26187295
195	0x3bd84495	0.0065999725
196	0x3e9deedf	0.30846307
197	0x3e988ad0	0.29793406
198	0x3e327d64	0.17430645
199	0xbe37cde9	-0.17949642
200	0xbe23f3b9	-0.16010942
201	0x3e43fc88	0.19139302
202	0x3ece889f	0.4033861
203	0x3e8a1b93	0.26974162
204	0x3e4718c4	0.19443041
205	0xbe95bd81	-0.29246143
206	0x3cf174f1	0.029474707
207	0xbed87293	-0.42274913
208	0x3ec08906	0.3760454
209	0x3d12666a	0.0357422
210	0xbc08f1e5	-0.008358453
211	0x3ed960f4	0.42456782
212	0xbe9c62e3	-0.30544195
213	0x3e023ad3	0.12717752
214	0x3e4d5c33	0.20054702
215	0x3cb27cf6	0.021788102
216	0xbdbc468a	-0.09193142
217	0xbee877c7	-0.45403883
218	0x3e2a4146	0.16626462
219	0xbe956354	-0.29177344
220	0x3ea73dcb	0.32664332
221	0xbe842b03	-0.25814065
222	0xbcf4fb97	-0.029905124
223	0x3e8e01f6	0.2773587
224	0xbe01ed69	-0.12688221
225	0xbd74d1b3	-0.059770297
226	0x3bd1c3bc	0.006401507
227	0xbd55df0a	-0.05221466
228	0xbeb6ebe6	-0.3572685
229	0x3e2c9758	0.16854608
230	0x3de5d47a	0.11222167
231	0x3ebc9e2e	0.36839432
232	0xbe5ad9f9	-0.21372212
233	0xbd1548f4	-0.036446527
234	0xbe8773ee	-0.26455635
235	0xbecccc80	-0.3999977
236	0x3e9b590d	0.30341378
237	0xbdcee214	-0.10101715
238	0xbe4eba27	-0.20188199
239	0xbd9342e0	-0.0719049
240	0xbe6069b8	-0.21915329
241	0x3eb10207	0.3457186
242	0x3c4d0952	0.012514429
243	0x3eb16313	0.346459
244	0xbcd8afd3	-0.026451027
245	0x3d30ff6a	0.04321233
246	0x3d385f61	0.045012835
247	0x3e83f737	0.25774547
248	0x3e7fbbf9	0.2497405
249	0x3eca3317	0.39492103
250	0x3d218d57	0.039441433
251	0xbe79cd26	-0.24394664
252	0xbe988036	-0.29785317
253	0xbe29dd17	-0.16588245
254	0xbd6b023a	-0.05737517
255	0xbe4c7856	-0.1996778

linear1.bias f4 [50]
0	0x3db1a5e0	0.08674216
1	0xbe367a1f	-0.17820023
2	0x3e3f93bf	0.18708704
3	0xbdc79331	-0.097448714
4	0x3dd36502	0.10322
5	0x3e3f1948	0.18661988
6	0xbd7a741c	-0.061145887
7	0x3ef1c726	0.4722225
8	0x3e046be6	0.12931785
9	0xbe710529	-0.23537125
10	0xbe9e239d	-0.30886546
11	0xbd412fd0	-0.04716474
12	0xbc871b2b	-0.016492447
13	0x3e1249ac	0.14285916
14	0x3c2cbddd	0.010543314
15	0x3d34909d	0.044083226
16	0xbeb25b7a	-0.34835416
17	0xbcbf1bc3	-0.023328668
18	0xbdd13f06	-0.10217099
19	0xbe010a45	-0.12601574
20	0xbebb86fc	-0.36626422
21	0x3e8cf436	0.27530068
22	0xbe0fbfc3	-0.14037995
23	0xbe1555f3	-0.14583568
24	0xbeafc7e2	-0.34332186
25	0x3e345afc	0.17612833
26	0xbd32929b	-0.043596845
27	0xbe2ef063	-0.17083888
28	0xbecca078	-0.39966178
29	0xbdcc419c	-0.099734515
30	0xbebd2a1e	-0.36946195
31	0x3e328860	0.17434835
32	0x3ddbaa3e	0.107258305
33	0x3eb75950	0.35810328
34	0xbe1a3826	-0.15060481
35	0x3e856e5c	0.2606076
36	0xbe82668d	-0.25468865
37	0x3ebbfdab	0.3671697
38	0xbeb5559c	-0.35416877
39	0xbbca0990	-0.0061656907
40	0xbe82944a	-0.2550376
41	0xbcb85300	-0.022500515
42	0xbeb0edd8	-0.3455646
43	0x3e410d6b	0.18852775
44	0xbd9b391d	-0.07579253
45	0x3e5d8485	0.21632583
46	0xbe73de0d	-0.23815174
47	0x3d9748f6	0.07386963
48	0x3e7b2888	0.2452718
49	0xbe8a96d9	-0.27068213

linear2.weight f4 [50, 50]
0	0x3e2ebc61	0.17064048
1	0xbd6a3c4e	-0.057186417
2	0xbd320826	-0.043464802
3	0x3cf96557	0.03044383
4	0xbe0cc970	-0.13748717
5	0xbc42f5c9	-0.01189942
6	0x3d3be12d	0.04586904
7	0xbce761ff	-0.02824497
8	0x3c9d23ba	0.019182075
9	0xbdf376cf	-0.11887895
10	0x3da7ed2d	0.081995346
11	0x3e009e70	0.12560439
12	0x3df1c0e7	0.11804371
13	0x3d03baad	0.03216045
14	0xbdfd3bf8	-0.12364954
15	0x3dd1671d	0.102247454
16	0xbe109951	-0.14120986
17	0x3d1509b9	0.036386225
18	0x3d129409	0.03578571
19	0xbddcd227	-0.10782271
20	0x3d39e122	0.04538072
21	0x3da97a58	0.08275288
22	0xbd2df81b	-0.04247294
23	0xbc861d83	-0.016371494
24	0x3d793a1b	0.06084643
25	0xbdf8d082	-0.12149145
26	0x3e3970c7	0.18109427
27	0x3d45f085	0.04832508
28	0xbd7fb6e8	-0.062430292
29	0xbdbeec95	-0.09322468
30	0x3d9335f7	0.07188027
31	0xbdc7779f	-0.09739613
32	0x3e067895	0.13131936
33	0x3c64de8d	0.013969076
34	0x3e2b4d6e	0.16728756
35	0x3d9be837	0.07612651
36	0xbdc8b3ac	-0.09799895
37	0x3de5f156	0.11227672
38	0x3d34a2a9	0.044100437
39	0xbc9f85d2	-0.01947299
40	0x3cf1e711	0.029529126
41	0xbd3ca06a	-0.04605142
42	0xbd173d23	-0.03692354
43	0xbd47f5d5	-0.048818428
44	0xbd79538f	-0.060870703
45	0x3dafec81	0.085900314
46	0x3e221ae0	0.15830564
47	0xbd704398	-0.058658212
48	0x3de7d851	0.11320556
49	0x3dd60a50	0.10451186
50	0xbdf6f55e	-0.12058519
51	0x3dde30e2	0.108491674
52	0x3db0dc4e	0.0863577
53	0x3cce0c6e	0.025152411
54	0x3d7f3622	0.062307484
55	0x3db411f3	0.08792486
56	0xb9223ee3	-0.00015472951
57	0x3befccae	0.007318101
58	0x3d33b75a	0.04387603
59	0x3dcd4389	0.10022647
60	0xbdc9c377	-0.09851735
61	0x3de6d796	0.112715885
62	0x3df7b68b	0.12095364
63	0xbcd4ff67	-0.026000692
64	0x3d8b94cb	0.068154894
65	0x3d224c1a	0.039623357
66	0x3d57a6f3	0.05264945
67	0xbda03c89	-0.07824046
68	0xbdc750ab	-0.09732183
69	0xbd15b45c	-0.036548957
70	0xbd9156d5	-0.0709664
71	0xbd99606d	-0.07489095
72	0xbd0fd496	-0.035114847
73	0x3e07443a	0.1320962
74	0x3e0f0cef	0.13969778
75	0x3cc090df	0.02350658
76	0xbd52ec60	-0.051494956
77	0x3d83304f	0.064056985
78	0x3cb7c2af	0.0224317
79	0x3bf6b038	0.007528331
80	0xbd503f70	-0.05084175
81	0xbe023467	-0.12715302
82	0xbe0bc569	-0.13649525
83	0x3de8a630	0.11359823
84	0x3abf6f6a	0.0014605348
85	0x3d487e64	0.04894866
86	0x3d421491	0.047382895
87	0xbca19c7b	-0.019727936
88	0xbdc939c4	-0.09825471
89	0xbd9d8683	-0.07691672
90	0xbe0b15ef	-0.13582586
91	0x3d8081d5	0.062747635
92	0x3d8a50d8	0.06753701
93	0xbc5d09c0	-0.013491094
94	0xbd936ba4	-0.07198265
95	0xbd8e6924	-0.06953648
96	0xbbf4e860	-0.0074739903
97	0xbd3394ae	-0.043842964
98	0x3dfc6feb	0.12326034
99	0x3e0e3c1d	0.13890119
100	0x3ddbe3b4	0.1073679
101	0xbdf7a5fa	-0.120922044
102	0x3d48a78b	0.048987906
103	0xbd4dc26b	-0.05023424
104	0xbdd79bd7	-0.10527771
105	0xbde12c10	-0.109947324
106	0x3d92aa44	0.07161382
107	0x3d1fc39b	0.039004903
108	0xbdb5059b	-0.0883896
109	0x3db55bc7	0.08855396
110	0x3d84e0ce	0.064881906
111	0xbd7ffce0	-0.06249702
112	0x3e1041dc	0.14087623
113	0xbdcf59b2	-0.1012453
114	0xbd75ccd1	-0.06000978
115	0xbe07e0dd	-0.13269372
116	0xbd89e585	-0.067332305
117	0x3dd0da12	0.101978436
118	0xbde6c61d	-0.11268256
119	0xbdad177c	-0.08451745
120	0x3da32b78	0.079672754
121	0xbd69aea2	-0.05705131
122	0xbc90cd82	-0.017676119
123	0xbd24a93c	-0.040200457
124	0x3d09b2b0	0.033617675
125	0x3d8bac2c	0.068199486
126	0x3e0236e8	0.12716258
127	0xbdc5379d	-0.09629748
128	0xbda18b20	-0.07887864
129	0xbdd5944d	-0.10428677
130	0xbdb261fe	-0.08710097
131	0x3c1c4d56	0.009539923
132	0xbda50877	-0.08058255
133	0x3c92ae73	0.01790545
134	0x3d84e2f6	0.06488602
135	0x3db05301	0.08609582
136	0xbe10ce4b	-0.14141195
137	0xbcb322b5	-0.021867136
138	0xbdbd1a5d	-0.09233544
139	0x3bbb8a6e	0.005723289
140	0x3d236c74	0.03989835
141	0xbcb0e793	-0.021594798
142	0xbc8c96bf	-0.017161725
143	0xbc82a18e	-0.015946176
144	0xbe03c93e	-0.12869737
145	0xbc87d6e9	-0.01658197
146	0x3b83fd3e	0.0040279916
147	0xbdb93059	-0.09042425
148	0x3df18737	0.11793368
149	0x3ccc9864	0.02497501
150	0xbdb7ad36	-0.08968584
151	0xbcd59895	-0.026073733
152	0x3970f4f6	0.00022979439
153	0x3dbbd354	0.09171167
154	0x3de183a2	0.11011435
155	0x3c72d548	0.014821358
156	0x3d4d550c	0.050129935
157	0xbde43691	-0.1114322
158	0xbdc2a186	-0.095034644
159	0x3d505cab	0.050869625
160	0xbc8fdcbd	-0.01756131
161	0xbe0d2381	-0.13783075
162	0x3de81d19	0.11333675
163	0xbd7cc035	-0.06170674
164	0xbc56d9ab	-0.0131134195
165	0xbba7f8cc	-0.0051260944
166	0x3daeb62f	0.085308425
167	0xbd01d610	-0.031698287
168	0xbd87c95f	-0.06630205
169	0xbdc1cb9c	-0.094626635
170	0x3d99d823	0.07511928
171	0x3c96af5b	0.018394163
172	0x3d34d5cf	0.044149216
173	0xbdb66cd8	-0.08907479
174	0x3a89b06d	0.001050485
175	0xbd85d4ab	-0.06534704
176	0xbe31ebea	-0.1737515
177	0xbc529a1c	-0.012854125
178	0xbbdc7256	-0.006727497
179	0x3cafafd8	0.021446154
180	0x3e03e397	0.12879787
181	0xbdd0c075	-0.10192958
182	0x3dd02cbe	0.10164784
183	0xbe3c63a5	-0.18397386
184	0x3d33464f	0.043768223
185	0xbe0a84fc	-0.13527292
186	0x3de53d42	0.111933246
187	0x3dc91d95	0.098200954
188	0xbd53f1d3	-0.051744293
189	0x3e0c6e6b	0.13713996
190	0x3e28caa2	0.16483548
191	0xbd0636df	-0.032767173
192	0xbde8a602	-0.113597885
193	0x3d779298	0.060442537
194	0x3dc485ac	0.095958084
195	0xbdb2d0d3	-0.08731236
196	0x3d8b479b	0.06800767
197	0xbdda85e3	-0.10670068
198	0xbde88918	-0.113542736
199	0xbc416d4a	-0.011805842
200	0xbdeaf07e	-0.114716515
201	0x3ddb955c	0.107218474
202	0x3caf313d	0.021385783
203	0xbe1127c8	-0.14175332
204	0xbcdd22c1	-0.026994111
205	0x3d47f661	0.04881895
206	0x3e0b435f	0.13599919
207	0xbcaf3ae1	-0.02139038
208	0xbda6da51	-0.08147109
209	0xbd73a065	-0.059479136
210	0x3dfce076	0.123475
211	0xbda64143	-0.081179164
212	0xbd50eab9	-0.0510051
213	0xbde9358a	-0.11387165
214	0xbdeee513	-0.11664786
215	0xbe1601c9	-0.14649118
216	0x3ddf4790	0.10902321
217	0xbde0fb9e	-0.10985492
218	0xbd8c2a55	-0.06844012
219	0xbd4f0c17	-0.05054864
220	0x3d4c5b68	0.04989186
221	0x3c90cffb	0.017677298
222	0x3d20e213	0.0392781
223	0x3dd7c4f8	0.10535616
224	0x3de2e9e7	0.110797696
225	0x3d8f7a4f	0.070057504
226	0x3da4df0c	0.08050355
227	0x3c94b0e8	0.018150762
228	0x3c3c7300	0.0115020275
229	0xbd540d6c	-0.051770613
230	0xbcb82d69	-0.02248259
231	0x3ae05afb	0.0017116958
232	0xbd248bc2	-0.040172346
233	0xbd271b93	-0.04079778
234	0xbdd47f61	-0.10375858
235	0xbde746e9	-0.11292822
236	0xbd48b7a2	-0.04900325
237	0xbd370e63	-0.044691455
238	0xbcb2adb2	-0.02181134
239	0xbd25e820	-0.040504575
240	0x3c906e48	0.017630711
241	0x3dd8a05b	0.105774604
242	0xbda0bdb8	-0.07848686
243	0x3e0a384f	0.13498043
244	0xbe12593d	-0.14291854
245	0xbe1561de	-0.14588115
246	0xbce3f480	-0.027826548
247	0xbd1555f9	-0.036458943
248	0x3d8fbac7	0.07018047
249	0xbc7bbf31	-0.015365408
250	0xbd94aeb4	-0.072598845
251	0x3d93b65b	0.07212516
252	0x3e042f99	0.12908782
253	0xbdb4734a	-0.08811052
254	0x3e098685	0.13430221
255	0xbd8dd889	-0.069260664

linear2.bias f4 [50]
0	0x3dfbe23b	0.122990094
1	0xbe20a43f	-0.15687655
2	0xbdbb69d5	-0.09151045
3	0x3ba0bfcc	0.0049056765
4	0xbdf3bd77	-0.11901372
5	0x3d45c524	0.04828371
6	0xbd8d6797	-0.06904524
7	0x3e34c566	0.17653427
8	0x3d677daf	0.056516346
9	0xbd938554	-0.07203165
10	0xbdfa55e3	-0.12223413
11	0xbdf25a49	-0.11833627
12	0x3d2b02f8	0.041750878
13	0x3b22fb8b	0.002486917
14	0x3df68244	0.12036565
15	0x3de590a4	0.11209229
16	0x3e04bb0b	0.12961976
17	0xbc8387b0	-0.016055912
18	0xbcfc5497	-0.030802054
19	0x3e5e6f31	0.21722104
20	0xbdde27db	-0.108474456
21	0x3e44ecd8	0.19230974
22	0xbd8c87e5	-0.06861857
23	0xbd5fdf95	-0.054656584
24	0xbd36f2b9	-0.044665072
25	0xbd43d0d7	-0.047806587
26	0x3d7f7012	0.062362738
27	0x3e07d3be	0.13264367
28	0xbcde93a1	-0.027170004
29	0x3d3a4000	0.04547119
30	0x3d346af6	0.04404732
31	0xbdf0859a	-0.117442325
32	0x3e135160	0.14386511
33	0xbbcba424	-0.0062146354
34	0xbe1fcdd6	-0.15605864
35	0x3e1ba773	0.15200596
36	0x3e2f6bcb	0.17130964
37	0x3d656ce7	0.05601206
38	0x3d37f074	0.04490705
39	0x3d39466a	0.045233168
40	0x3e27d177	0.16388498
41	0xbdc2a8f1	-0.09504879
42	0x3e482bc3	0.19547944
43	0x3c3097f5	0.010778417
44	0xbd87ae4c	-0.06625041
45	0xbdc0900a	-0.09402473
46	0x3cc52e86	0.024070036
47	0xbd72e822	-0.05930341
48	0x3da31a9e	0.07964061
49	0x3d062d2b	0.03275792

linear3.weight f4 [2, 50]
0	0x3d1e114a	0.038590707
1	0x3da7d22d	0.08194385
2	0x3dfe10e5	0.12405566
3	0xbd5845d7	-0.05280098
4	0x3da7bda1	0.08190466
5	0x3c7618e1	0.01502058
6	0xbdc006e4	-0.09376314
7	0x3d8bd27f	0.06827258
8	0xbe107d0f	-0.14110206
9	0xbd90eaa0	-0.07076001
10	0xbd8c44ff	-0.068490975
11	0x3d814458	0.06311864
12	0xbde12eb0	-0.10995233
13	0x3d493658	0.049124092
14	0x3d821119	0.06350917
15	0x3dfdc22e	0.123905525
16	0xbd7588c2	-0.059944876
17	0xbde66fbf	-0.112517826
18	0x3e1b2994	0.1515258
19	0x3cfcc8f3	0.030857539
20	0xbdff6226	-0.12469892
21	0x3aaa9ad2	0.0013016111
22	0xbd789df0	-0.060697496
23	0x3dd7a898	0.105302036
24	0xbdc81bac	-0.09770903
25	0x3c5927c9	0.013254114
26	0xbe03804b	-0.12841909
27	0x3e0b379f	0.13595437
28	0x3d918b83	0.07106688
29	0x3de40f6b	0.11135753
30	0xbdc35dee	-0.095394
31	0xbd97c48f	-0.074105375
32	0x3e0a6c03	0.13517766
33	0x3df31694	0.11869541
34	0xbc5ccfe7	-0.013477302
35	0x3df8a40d	0.12140665
36	0x3e188f9c	0.14898533
37	0xbd451f88	-0.048125774
38	0x3d53540c	0.051593825
39	0x3d152951	0.036416356
40	0x3e04e0c8	0.12976372
41	0x3d06f8b1	0.032952014
42	0x3d044c79	0.032299493
43	0xbd6354f9	-0.055500958
44	0x3e1844ad	0.14869948
45	0xbd9881f5	-0.07446662
46	0xbd746a35	-0.0596716
47	0xbc5e8261	-0.013580889
48	0x3dd982f9	0.10620684
49	0xbdfb186a	-0.12260516
50	0xbd9d7147	-0.076876216
51	0x3e09e2f5	0.13465483
52	0xbd87cb87	-0.06630617
53	0x3d84ec3e	0.06490372
54	0x3d83bc60	0.06432414
55	0x3d023d11	0.03179652
56	0x3c8e89d6	0.01739971
57	0x3b8bd950	0.004267849
58	0x3c94780b	0.018123647
59	0xbe0ab5d3	-0.13545923
60	0x3d146c87	0.036236312
61	0x3dd12c6d	0.10213552
62	0xbdfdd830	-0.1239475
63	0x3d9760a5	0.0739148
64	0xbdb3e24e	-0.087833986
65	0x3ca409c7	0.020024193
66	0x3d86b446	0.06577353
67	0xbd6ac458	-0.057316154
68	0x3c83867c	0.016055338
69	0xbda37da9	-0.07982952
70	0xbe0257b4	-0.12728769
71	0xbd3e9400	-0.046527863
72	0x3e0e90ef	0.13922475
73	0x3dc2d403	0.09513094
74	0xbd62f563	-0.0554098
75	0xbd16b52a	-0.036793865
76	0xbbf0824d	-0.007339752
77	0xbdfab61a	-0.12241764
78	0xbd09d880	-0.033653736
79	0x3d854808	0.065078795
80	0x3d8b99ec	0.06816468
81	0xbd88f248	-0.066868365
82	0x3bfbdb95	0.0076860883
83	0xbdae0414	-0.084968716
84	0x3d9b33b4	0.07578221
85	0xbdcb375e	-0.0992267
86	0x3d2607b1	0.04053468
87	0x3c91fbf3	0.017820334
88	0xbd644645	-0.055731077
89	0xbdda1843	-0.10649159
90	0x3d41fd2f	0.047360595
91	0x3d6d0269	0.057863627
92	0xbdfdaca1	-0.12386442
93	0x3d9aad61	0.07552601
94	0x3dab9488	0.083779395
95	0x3bebf378	0.0072006546
96	0x3cd1ddaf	0.025618402
97	0xbdb72577	-0.08942693
98	0x3bb5e5ba	0.005551067
99	0x3dd42753	0.10359063

linear3.bias f4 [2]
0	0x3e04825b	0.12940352
1	0xbe0741b1	-0.13208653
