1/checkpoints/origin/2020-11-16T11-49-49-16-classify/classify_fold0_origin_0.903077.pth (torch, 14565 bytes, 6 tensors)

linear1.weight f4 [50, 6]
0.11457875 -0.2985377 -0.2900358 0.23459499 -0.15548275 0.26577568 -0.13938154 0.2674172
0.04870782 0.17273307 0.00035498428 -0.19201215 -0.38599142 0.38891694 0.30512312 0.21754503
-0.05780885 0.21511504 0.12806487 -0.10605613 0.17751934 -0.2750697 0.28098044 -0.11700909
-0.22801185 0.08068358 0.35182157 -0.32245108 -0.057557028 0.05795248 -0.32105014 0.106442556
0.3960259 -0.24094503 -0.090222314 0.33630216 -0.1437403 -0.3464514 -0.30143327 0.119347714
-0.28913924 -0.37395102 -0.11125649 0.059229344 0.3842726 0.30906227 0.39255962 0.13365275
-0.35603246 -0.101204865 0.25144088 0.30502903 0.37170088 -0.08786423 -0.31443888 -0.3512783
0.04501664 0.28820345 -0.035722464 -0.35717455 -0.19461058 5.7621717e-05 -0.3865562 -0.11183587
-0.02659763 0.15790229 -0.19907631 -0.04241917 -0.36407897 -0.13030499 0.24534635 -0.04288316
-0.13299777 0.017283054 0.2997442 -0.14980675 0.26441437 -0.24110444 -0.12515192 -0.38807136
0.22498496 -0.38674375 0.20115748 -0.39021748 -0.23763192 -0.32599312 -0.35568953 -0.3719383
-0.3518579 -0.12049095 -0.36791036 0.24030693 0.2039371 0.36844018 -0.21976088 0.38451144
-0.040119726 0.35325143 0.29116753 -0.010937285 0.31543398 -0.37677288 -0.31803522 0.17313951
0.08650311 0.2359711 -0.22474019 0.29192328 -0.15795271 0.35154423 0.29288438 0.08856768
0.106996454 -0.10624952 0.22314079 -0.04218992 0.08058219 0.35025126 0.019517943 -0.26746824
-0.03670925 0.000954377 0.12556759 0.05340084 -0.3773591 -0.12459403 0.03362596 -0.19646409
0.183369 0.29653633 0.25292015 -0.2229354 -0.27805424 -0.3356117 0.17431226 -0.15865196
0.22999085 0.38226265 -0.39127046 0.15813503 0.3896736 0.29479384 -0.15843678 -0.0028714642
-0.09489299 -0.32551885 -0.05659679 -0.01504866 0.18313219 -0.020560732 -0.3014645 0.118524365
-0.26649985 0.07684688 -0.09118544 -0.27128285 0.33332524 0.04931443 -0.376032 -0.10924072
-0.080845006 -0.15849476 0.21515955 0.26453596 0.32062316 -0.11606974 0.19721791 0.1428396
-0.21469574 0.14611836 -0.3976185 -0.327008 -0.31075734 0.13979062 -0.08581575 0.11428587
0.15889557 0.027354762 0.2557486 0.015070615 0.08789533 0.31923938 0.14242089 0.053955507
-0.099155925 0.32749602 -0.41818976 0.09711897 0.2054457 0.047080696 -0.13710406 0.30669075
0.3325085 -0.075029515 0.26768225 0.023543308 0.2674688 0.30588564 0.109849505 -0.21101283
-0.2267911 0.15202564 0.33408582 0.21608135 0.19296561 -0.24275889 0.034630373 -0.41137174
0.35321835 0.041923385 -0.05002538 0.3913837 -0.32642356 0.20955731 0.13772017 0.033096503
-0.100946255 -0.38013276 0.17573091 -0.26371577 0.2876366 -0.25115535 -0.029396433 0.26441506
-0.12405479 0.035792135 -0.017122455 -0.0021945434 -0.33912522 0.17083901 0.11184661 0.32660276
-0.1503228 -0.047171846 -0.2569298 -0.40445167 0.31253195 -0.09408085 -0.18618439 -0.06824386
-0.20948265 0.3407477 0.025295585 0.35403264 -0.03039572 0.05362736 0.036180366 0.25640658
0.25515524 0.4060313 -0.0002597638 -0.23819847 -0.29785317 -0.16588245 -0.05737517 -0.1996778
00000000: 44a8 ea3d efd9 98be 937f 94be ab39 703e
00000010: df36 1fbe c013 883e 09ba 0ebe e8ea 883e
00000020: da81 473d f0e0 303e 2f1d ba39 d59e 44be
00000030: aba0 c5be 1f20 c73e 1939 9c3e 20c4 5e3e
00000040: f9c8 6cbd 1e47 5c3e 7023 033e f533 d9bd
00000050: a1c7 353e f0d5 8cbe abdc 8f3e 76a2 efbd
00000060: f07b 69be 6f3d a53d f521 b43e 4f18 a5be
00000070: ebc0 6bbd 945f 6d3d af60 a4be 8efe d93d
00000080: e8c3 ca3e 4bba 76be 7ac6 b8bd cc2f ac3e
00000090: a830 13be 1462 b1be 7655 9abe 936c f43d
000000a0: 0f0a 94be 8276 bfbe 71da e3bd 789a 723d
000000b0: 61bf c43e 693d 9e3e 93fd c83e 44dc 083e
000000c0: e349 b6be 7f44 cfbd dcbc 803e c42c 9c3e
000000d0: 944f be3e 29f2 b3bd 22fe a0be c0da b3be
000000e0: 5e63 383d 678f 933e b851 12bd 95df b6be
000000f0: ff47 47be d9ae 7138 b2ea c5be 340a e5bd
00000100: 46e3 d9bc 23b1 213e a9da 4bbe b9bf 2dbd
00000110: 8f68 babe ac6e 05be 133c 7b3e 41a6 2fbd
00000120: 9130 08be 3195 8d3c 1278 993e f166 19be
00000130: 5261 873e 15e4 76be d327 00be 4ab1 c6be
00000140: 7562 663e 4703 c6be 3afc 4d3e 96ca c7be
00000150: c855 73be 92e8 a6be f01c b6be b26e bebe
00000160: b826 b4be f6c3 f6bd bf5e bcbe 0513 763e
00000170: e3d4 503e 31a4 bc3e ff08 61be afde c43e
00000180: 9554 24bd 5fdd b43e e913 953e 4c32 33bc
00000190: 9080 a13e 60e8 c0be 83d5 a2be 7c4b 313e
000001a0: 8b28 b13d 68a2 713e 4b22 66be f876 953e
000001b0: 5bbe 21be 9bfd b33e f1f4 953e f962 b53d
000001c0: f520 db3d 5999 d9bd 057f 643e 56cf 2cbd
000001d0: 4608 a53d 2254 b33e 18e4 9f3c 99f1 88be
000001e0: 705c 16bd 282f 7a3a ca94 003e d7ba 5a3d
000001f0: 3635 c1be 282b ffbd 60bb 093d e22d 49be
00000200: 15c5 3b3e 9cd3 973e c07e 813e 2d49 64be
00000210: 205d 8ebe 4cd5 abbe ea7e 323e a975 22be
00000220: b982 6b3e eeb7 c33e 9a54 c8be 26ee 213e
00000230: 4c83 c73e 38ef 963e 403d 22be 2d2f 3cbb
00000240: 4257 c2bd 68aa a6be 09d2 67bd a88e 76bc
00000250: 0187 3b3e fb6e a8bc 8e59 9abe e7bc f23d
00000260: ab72 88be e661 9d3d 6fbf babd 96e5 8abe
00000270: 9ba9 aa3e eefd 493d 4487 c0be 99b9 dfbd
00000280: 1192 a5bd 734c 22be c952 5c3e 4271 873e
00000290: b828 a43e f9b5 edbd 7ef3 493e 8b44 123e
000002a0: 33d9 5bbe 0da0 153e a794 cbbe 986d a7be
000002b0: 961b 9fbe 4625 0f3e 2bc0 afbd b60e ea3d
000002c0: 85b5 223e 1817 e03c 7bf1 823e beea 763c
000002d0: 7702 b43d 5873 a33e c8d6 113e 7300 5d3d
000002e0: 4312 cbbd 8fad a73e f81c d6be 4fe6 c63d
000002f0: 5c60 523e b0d7 403d 0265 0cbe 9206 9d3e
00000300: 8e3e aa3e 13a9 99bd a60d 893e e5dd c03c
00000310: acf1 883e 0b9d 9c3e c7f8 e03d bf13 58be
00000320: ed3b 68be 9cac 1b3e 4c0d ab3e 6e44 5d3e
00000330: c798 453e c995 78be 94d8 0d3d 519f d2be
00000340: 09d9 b43e dbb7 2b3d 6ae7 4cbd 7263 c83e
00000350: fd20 a7be 3196 563e 8406 0d3e 3390 073d
00000360: e9bc cebd c3a0 c2be cef2 333e c105 87be
00000370: 1b45 933e 6f97 80be cad0 f0bc 6961 873e
00000380: 7010 febd c69a 123d 6444 8cbc 54d2 0fbb
00000390: d2a1 adbe 6cf0 2e3e d60f e53d 7a38 a73e
000003a0: 38ee 19be 4437 41bd 4e8c 83be 4a14 cfbe
000003b0: 3004 a03e 76ad c0bd 1fa7 3ebe 70c3 8bbd
000003c0: 9f82 56be 7c76 ae3e b038 cf3c c443 b53e
000003d0: 7200 f9bc 5da8 5b3d dd31 143d b947 833e
000003e0: b5a3 823e 56e3 cf3e e830 88b9 4dea 73be
000003f0: 3680 98be 17dd 29be 3a02 6bbd 5678 4cbe

linear1.bias f4 [50]
0.010877843 -0.14094378 0.22923586 -0.07751041 0.14753869 0.21261576 -0.061145887 0.43266955
0.1253195 -0.23186629 -0.30886546 -0.04716474 -0.05761809 0.109071955 0.010543314 0.09551034
-0.31161594 0.009916431 -0.12881276 -0.16606125 -0.3224623 0.30111453 -0.10739027 -0.10281104
-0.34332186 0.17612833 -0.085508354 -0.22227786 -0.39966178 -0.10006861 -0.34313127 0.22456157
0.06582658 0.2887959 -0.17354305 0.1972836 -0.29393765 0.34310082 -0.2903485 0.009505355
-0.2593385 -0.06257219 -0.3455646 0.124826305 -0.069360174 0.16909277 -0.307489 0.10038289
0.19730985 -0.22418366
00000000: fb38 323c 9153 10be cebc 6a3e c7bd 9ebd
00000010: 6214 173e f2b7 593e 1c74 7abd dd86 dd3e
00000020: c153 003e 5b6e 6dbe 9d23 9ebe d02f 41bd
00000030: f200 6cbd 1e61 df3d ddbd 2c3c ed9a c33d
00000040: 208c 9fbe 8778 223c 7ee7 03be f60b 2abe
00000050: c719 a5be af2b 9a3e 6eef dbbd 988e d2bd
00000060: e2c7 afbe fc5a 343e 011f afbd cf9c 63be
00000070: 78a0 ccbe c5f0 ccbd e7ae afbe 78f3 653e
00000080: 16d0 863d 0edd 933e 45b5 31be b604 4a3e
00000090: ff7e 96be e9aa af3e 8fa8 94be 59bc 1b3c
000000a0: 04c8 84be d925 80bd d8ed b0be efa4 ff3d
000000b0: b50c 8ebd a826 2d3e 336f 9dbe 8b95 cd3d
000000c0: 980b 4a3e 6790 65be

linear2.weight f4 [50, 50]
0.10936662 -0.058231976 -0.03830716 0.025280422 -0.13456018 -0.007575808 0.04586904 -0.026091373
0.028170701 -0.115373805 0.081995346 0.12560439 0.11930332 0.019766796 -0.12364954 0.111413084
-0.14262615 0.0505751 0.037772406 -0.11139667 0.052054122 0.08343704 -0.043100227 -0.009820717
0.06084643 -0.12149145 0.14750628 0.046212558 -0.062430292 -0.09141636 0.07191301 -0.08752488
0.12906495 -0.065188855 0.14199418 0.01185146 -0.11238528 0.08090118 0.05914183 -0.019217439
0.029780297 -0.04531229 -0.03692354 -0.06824725 -0.06025365 0.08071653 0.077364296 -0.07458815
0.10818128 0.11023338 -0.12058519 0.1116047 0.08483566 0.024732098 0.06084796 0.086360075
-0.00015472951 0.005286894 0.0397004 0.09672218 -0.09851735 0.112715885 0.11989764 -0.021332592
0.068154894 0.036709294 0.052816745 -0.08243226 -0.09836005 -0.039183926 -0.074155115 -0.07871647
-0.034959674 0.12951574 0.13969778 0.02350658 -0.063571446 0.06345907 0.0224317 0.005915022
-0.051826738 -0.13031742 -0.1381274 0.11000995 0.019800562 0.090327024 0.053938203 -0.00011440477
-0.10269963 -0.07887531 -0.13372499 0.06113052 0.06753701 0.0058671217 -0.07397184 -0.069263846
-0.02739498 -0.029784318 0.12261738 0.1366518 0.1073679 -0.120922044 0.048987906 -0.05023424
-0.10527771 -0.109947324 0.07161382 0.039004903 -0.0883896 0.08855396 0.064881906 -0.06249702
0.14087623 -0.1012453 -0.06000978 -0.13269372 -0.067332305 0.101978436 -0.11268256 -0.08451745
0.079672754 -0.05705131 -0.017676119 -0.040200457 0.033617675 0.068199486 0.12716258 -0.09629748
-0.07887864 -0.10428677 -0.08710097 0.009539923 -0.08058255 0.01790545 0.06488602 0.08609582
-0.14141195 -0.021867136 -0.09233544 0.005723289 0.03989835 -0.021594798 -0.017161725 -0.015946176
-0.12869737 -0.01658197 0.0040279916 -0.09042425 0.11793368 0.02497501 -0.05915364 -0.05328413
-0.009914075 0.09722448 0.10655252 0.010143369 0.050129935 -0.11398607 -0.10094792 0.047364336
-0.01756131 -0.13783075 0.11147498 -0.049524415 -0.0131134195 -0.017677922 0.08104622 -0.05162605
-0.073502965 -0.09166085 0.06980857 0.0211621 0.045899156 -0.09688942 0.001050485 -0.06534704
-0.15714663 -0.013374155 -0.006727497 0.016699292 0.12437825 -0.11246822 0.10392976 -0.13417843
0.06251383 -0.10430023 0.12566501 0.10950945 -0.07705655 0.13856257 0.14141463 -0.037345517
-0.113597885 0.074478224 0.09809373 -0.08714151 0.11190056 -0.13106173 -0.113870114 -0.018523725
-0.114716515 0.10780345 0.021970093 -0.14116849 -0.02640752 0.049403388 0.13599919 -0.020805655
-0.08087862 -0.059479136 0.123475 -0.081179164 -0.05041658 -0.11387165 -0.11664786 -0.14590798
0.10960822 -0.10927099 -0.06785522 -0.0499656 0.05048275 0.018248284 0.0392781 0.10594292
0.110797696 0.070057504 0.08050355 0.018732661 0.0115020275 -0.05118567 -0.02190208 0.0022960564
-0.03959372 -0.04079778 -0.10375858 -0.11270868 -0.04900325 -0.044119395 -0.021224061 -0.040504575
0.018213952 0.10635981 -0.07848686 0.13498043 -0.1423346 -0.14529888 -0.027826548 -0.035872187
0.07074991 -0.014781056 -0.072598845 0.079589576 0.1293543 -0.089658946 0.1333102 -0.070366226
00000000: 9bfb df3d a784 6ebd f8e7 1cbd e318 cf3c
00000010: 25ca 09be 7c3e f8bb 2de1 3b3d 93bd d5bc
00000020: 3ec6 e63c 1a49 ecbd 2ded a73d 709e 003e
00000030: 4d55 f43d faed a13c f83b fdbd 8b2c e43d
00000040: 970c 12be d627 4f3d 3db7 1a3d f023 e4bd
00000050: b436 553d 0ae1 aa3d dd89 30bd 13e7 20bc
00000060: 1b3a 793d 82d0 f8bd e30b 173e 6149 3d3d
00000070: e8b6 7fbd 8038 bbbd 2147 933d 3f40 b3bd
00000080: 9a29 043e bc81 85bd ec66 113e a02c 423c
00000090: 412a e6bd 85af a53d b43e 723d e46d 9dbc
000000a0: cff5 f33c 6199 39bd 233d 17bd 37c5 8bbd
000000b0: 88cc 76bd b54e a53d 2c71 9e3d acc1 98bd
000000c0: 268e dd3d 0ac2 e13d 5ef5 f6bd 0191 e43d
000000d0: 52be ad3d f89a ca3c b63b 793d 8ddd b03d
000000e0: e33e 22b9 ae3d ad3b e39c 223d 4716 c63d
000000f0: 77c3 c9bd 96d7 e63d e58c f53d b0c1 aebc
00000100: cb94 8b3d 7c5c 163d 5f56 583d 3fd2 a8bd
00000110: fe70 c9bd 537f 20bd a3de 97bd 1a36 a1bd
00000120: e031 0fbd c69f 043e ef0c 0f3e df90 c03c
00000130: bf31 82bd d4f6 813d afc2 b73c cdd2 c13b
00000140: 4648 54bd ee71 05be 4571 0dbe e64c e13d
00000150: ca34 a23c 60fd b83d 4eee 5c3d 98ec efb8
00000160: 2f54 d2bd 6189 a1bd 34ef 08be ff63 7a3d
00000170: d850 8a3d fc40 c03b 8c7e 97bd 34da 8dbd
00000180: 706b e0bc 3efe f3bc d21e fb3d 73ee 0b3e
00000190: b4e3 db3d faa5 f7bd 8ba7 483d 6bc2 4dbd
000001a0: d79b d7bd 102c e1bd 44aa 923d 9bc3 1f3d
000001b0: 9b05 b5bd c75b b53d cee0 843d e0fc 7fbd
000001c0: dc41 103e b259 cfbd d1cc 75bd dde0 07be
000001d0: 85e5 89bd 12da d03d 1dc6 e6bd 7c17 adbd
000001e0: 782b a33d a2ae 69bd 82cd 90bc 3ca9 24bd
000001f0: b0b2 093d 2cac 8b3d e836 023e 9d37 c5bd
00000200: 208b a1bd 4d94 d5bd fe61 b2bd 564d 1c3c
00000210: 7708 a5bd 73ae 923c f6e2 843d 0153 b03d
00000220: 4bce 10be b522 b3bc 5d1a bdbd 6e8a bb3b
00000230: 746c 233d 93e7 b0bc bf96 8cbc 8ea1 82bc
00000240: 3ec9 03be e9d6 87bc 3efd 833b 5930 b9bd
00000250: 3787 f13d 6498 cc3c 164b 72bd 7640 5abd
00000260: a56e 22bc a11d c73d 3538 da3d 6030 263c
00000270: 0c55 4d3d 8771 e9bd c8bd cebd 1b01 423d
00000280: bddc 8fbc 8123 0dbe ff4c e43d 1dda 4abd
00000290: abd9 56bc 4ad1 90bc 90fb a53d d675 53bd
000002a0: b988 96bd afb8 bbbd ccf7 8e3d 245c ad3c
000002b0: c100 3c3d f66d c6bd 6db0 893a abd4 85bd
000002c0: 0ceb 20be 461f 5bbc 5672 dcbb f4cc 883c
000002d0: 06ba fe3d bd55 e6bd 20d9 d43d 1266 09be
000002e0: 4007 803d 5c9b d5bd 54ae 003e 7e46 e03d
000002f0: d3cf 9dbd 59e3 0d3e ffce 103e 9df7 18bd
00000300: 02a6 e8bd 0a88 983d 5ee5 c83d 3f77 b2bd
00000310: 1f2c e53d 0c35 06be bc34 e9bd 11bf 97bc
00000320: 7ef0 eabd 0ec8 dc3d a0fa b33c 798e 10be
00000330: 9554 d8bc 355b 4a3d 5f43 0b3e 9f70 aabc
00000340: b1a3 a5bd 65a0 73bd 76e0 fc3d 4341 a6bd
00000350: 9e81 4ebd 8a35 e9bd 13e5 eebd e768 15be
00000360: 467a e03d 78c9 dfbd adf7 8abd bba8 4cbd
00000370: 00c7 4e3d 6d7d 953c 13e2 203d 9af8 d83d
00000380: e7e9 e23d 4f7a 8f3d 0cdf a43d 3d75 993c
00000390: 0073 3c3c 11a8 51bd fe6b b3bc 6f79 163b
000003a0: 062d 22bd 931b 27bd 617f d4bd cfd3 e6bd
000003b0: a2b7 48bd 8ab6 34bd 15de adbc 20e8 25bd
000003c0: 6d35 953c 2cd3 d93d b8bd a0bd 4f38 0a3e
000003d0: 29c0 11be 3bc9 14be 80f4 e3bc b7ee 12bd
000003e0: 54e5 903d 3e2c 72bc b4ae 94bd dcff a23d
000003f0: 7475 043e 1c9f b7bd 7882 083e 2b1c 90bd

linear2.bias f4 [50]
0.07942723 -0.14190459 -0.09151045 0.031539105 -0.11851357 0.06618221 -0.031701557 0.117477424
0.1024941 -0.07203165 -0.12223413 -0.11669977 0.030333657 0.002486917 0.07875084 0.07273775
0.12961976 0.015576839 -0.06181479 0.14102949 -0.11164848 0.14291021 -0.031444084 -0.045005694
-0.005542519 -0.04755827 0.101582825 0.08908768 -0.076788686 0.048588507 0.04404732 -0.10749386
0.09405294 -0.0432939 -0.11587763 0.111223154 0.14427532 0.09254016 0.0047279955 0.0010294373
0.12924513 -0.07331334 0.15236352 0.053562324 -0.07623115 -0.09402473 0.024879357 -0.10742093
0.04661427 0.06995276
00000000: beaa a23d 704f 11be d569 bbbd 262f 013d
00000010: 3eb7 f2bd 8a8a 873d 7ed9 01bd 0198 f03d
00000020: 6de8 d13d 5485 93bd e355 fabd 4a00 efbd
00000030: 4a7e f83c 8bfb 223b 1f48 a13d 88f7 943d
00000040: 0bbb 043e 0036 7f3c 8131 7dbd 096a 103e
00000050: f5a7 e4bd 0e57 123e 83cb 00bd e457 38bd
00000060: 059e b5bb 76cc 42bd a80a d03d 9a73 b63d
00000070: 6343 9dbd be04 473d f66a 343d be25 dcbd
00000080: d49e c03d f254 31bd 4051 edbd f7c8 e33d
00000090: e9bc 133e b285 bd3d 4ded 9a3b 2fee 863a
000000a0: d658 043e 4e25 96bd 2f05 1c3e 2b64 5b3d
000000b0: 141f 9cbd 0a90 c0bd cbcf cb3c 81ff dbbd
000000c0: 9bee 3e3d 6543 8f3d

linear3.weight f4 [2, 50]
0.039250933 0.08499619 0.12405566 -0.06985059 0.08228585 0.024026928 -0.1010529 0.051631883
-0.13816512 -0.07076001 -0.068490975 0.091743656 -0.11088432 0.049124092 0.059571497 0.12456522
-0.059944876 -0.11515357 0.14547506 0.007022541 -0.12758526 -0.012433255 -0.058113772 0.09977422
-0.105203554 0.013752551 -0.12784389 0.120538324 0.058842205 0.106943436 -0.095394 -0.09034624
0.13809533 0.1033901 -0.005893638 0.12227627 0.13811094 -0.052507445 0.052815847 0.0275213
0.1318821 0.034178045 0.024669973 -0.04842192 0.1462686 -0.07446662 -0.060340993 -0.03565276
0.09694646 -0.12271053 -0.07725454 0.13513124 -0.06630617 0.07963592 0.0641484 0.029756509
0.020086834 0.020065272 0.0070716133 -0.13545923 0.036236312 0.08946817 -0.12592615 0.0739148
-0.08517354 0.02226432 0.06577353 -0.060432468 0.0235083 -0.055015896 -0.12791696 -0.03250684
0.13589261 0.10197899 -0.0603709 -0.03699796 -0.010704042 -0.10828842 -0.02036402 0.068501614
0.06816468 -0.059236463 0.022118479 -0.06756961 0.0687495 -0.100926474 0.058170915 0.019066365
-0.058490288 -0.099802464 0.04730989 0.057760566 -0.11868653 0.067972675 0.091676004 0.0072006546
0.026259597 -0.078116626 0.026697943 0.10367476
00000000: 96c5 203d 7c12 ae3d e510 fe3d d30d 8fbd
00000010: 7c85 a83d 1fd4 c43c d3f4 cebd f47b 533d
00000020: 287b 0dbe a0ea 90bd ff44 8cbd 19e4 bb3d
00000030: 5217 e3bd 5836 493d 3e01 743d 0d1c ff3d
00000040: c288 75bd a3d5 ebbd 6af7 143e 581d e63b
00000050: b6a5 02be dab4 4bbc b508 6ebd 6d56 cc3d
00000060: f674 d7bd 6152 613c 82e9 02be ccdc f63d
00000070: 8604 713d 2905 db3d ee5d c3bd 7307 b9bd
00000080: dd68 0d3e 30be d33d 6b1f c1bb fb6b fa3d
00000090: f46c 0d3e 0c12 57bd 6e55 583d 5974 e13c
000000a0: 1a0c 073e 47fe 0b3d af18 ca3c 1056 46bd
000000b0: 70c7 153e f581 98bd 1e28 77bd a108 12bd
000000c0: de8b c63d a94f fbbd a137 9ebd d85f 0a3e
000000d0: 87cb 87bd 2818 a33d 3d60 833d ecc3 f33c
000000e0: 258d a43c ed5f a43c feb8 e73b d3b5 0abe
000000f0: 876c 143d 173b b73d c9f2 00be a560 973d
00000100: 776f aebd aa63 b63c 46b4 863d 0988 77bd
00000110: 7a94 c03c 5958 61bd aafc 02be e425 05bd
00000120: 6f27 0b3e 5cda d03d 7a47 77bd 2c8b 17bd
00000130: 0260 2fbc 52c6 ddbd 72d2 a6bc 934a 8c3d
00000140: ec99 8b3d efa1 72bd d031 b53c f061 8abd
00000150: 8acc 8c3d 8ab2 cebd a044 6e3d 1131 9c3c
00000160: 8393 6fbd 3c65 ccbd 04c8 413d 5896 6c3d
00000170: ec11 f3bd 4235 8b3d a1c0 bb3d 78f3 eb3b
00000180: 5e1e d73c 9cfb 9fbd a5b5 da3c 6f53 d43d

linear3.bias f4 [2]
0.08902495 -0.09323942
00000000: b752 b63d 4ff4 bebd
