1/checkpoints/origin/2020-11-16T11-49-49-16-classify/classify_fold0_origin_0.946923.pth (torch, 14565 bytes, 6 tensors)

linear1.weight f4 [50, 6]
0	0x3e184f04	0.14873892
1	0xbe917eb0	-0.28416967
2	0xbe7a0d68	-0.24419177
3	0x3e8b2f4a	0.27184516
4	0xbdebb66f	-0.11509406
5	0x3e9b4cd3	0.3033205
6	0xbe08d512	-0.1336253
7	0x3e866e3b	0.26255974
8	0x3d67bcff	0.056576725
9	0x3e44b844	0.19210917
10	0xbca4a47b	-0.020097962
11	0xbe333235	-0.17499621
12	0xbeca58f6	-0.39520997
13	0x3ec7d08c	0.39026296
14	0x3e9b4548	0.30326295
15	0x3e68be2f	0.227288
16	0xbdab72f9	-0.08371539
17	0x3e5df506	0.216755
18	0x3dfbba32	0.12291373
19	0xbdda5201	-0.10660172
20	0x3e34b062	0.1764541
21	0xbe8b6360	-0.27224255
22	0x3e88e05f	0.26733682
23	0xbdf01b8f	-0.117240064
24	0xbe7405a8	-0.23830283
25	0x3da0e992	0.0785705
26	0x3eb241c4	0.348158
27	0xbea44c99	-0.3208969
28	0xbdb0a817	-0.086258106
29	0x3d6b9c08	0.05752185
30	0xbea6c691	-0.3257337
31	0x3dd48f25	0.10378865
32	0x3ecaa626	0.39579886
33	0xbe6c1ddf	-0.2305827
34	0xbdd44f83	-0.10366728
35	0x3eacc573	0.33744392
36	0xbe1330a8	-0.1437403
37	0xbeb16214	-0.3464514
38	0xbe9a5576	-0.30143327
39	0x3df46c93	0.119347714
40	0xbe940a0f	-0.28913924
41	0xbebf7682	-0.37395102
42	0xbdcea179	-0.10089392
43	0x3d7135e4	0.058889285
44	0x3ec3877a	0.38189298
45	0x3e9acce7	0.30234453
46	0x3ed7e0b9	0.42163637
47	0x3e0744ed	0.13209887
48	0xbeb47aa1	-0.35249808
49	0xbde55ef1	-0.11199749
50	0x3e7f708f	0.24945281
51	0x3e962710	0.29326677
52	0x3ec3304f	0.38122794
53	0xbdb979e0	-0.09056449
54	0xbea2c998	-0.3179443
55	0xbeb5a632	-0.3547836
56	0x3d2a077a	0.041511036
57	0x3e91c414	0.28469908
58	0xbd20ad58	-0.039227813
59	0xbeb8ab07	-0.36067984
60	0xbe4747ff	-0.19461058
61	0x3871aed9	5.7621717e-05
62	0xbec5eab2	-0.3865562
63	0xbde50a34	-0.11183587
64	0xbcd9e346	-0.02659763
65	0x3e21b123	0.15790229
66	0xbe4bdaa9	-0.19907631
67	0xbd2dbfb9	-0.04241917
68	0xbeba688f	-0.36407897
69	0xbe056eac	-0.13030499
70	0x3e7b3c13	0.24534635
71	0xbd2fa641	-0.04288316
72	0xbdf9cac2	-0.12196876
73	0x3c8b30bc	0.016991012
74	0x3e98fe72	0.29881626
75	0xbe237d6f	-0.15965818
76	0x3e95eaf7	0.29280826
77	0xbe78d615	-0.24300416
78	0xbdf69b33	-0.12041321
79	0xbed2cf91	-0.41173986
80	0x3e630f96	0.22173914
81	0xbecdb6f8	-0.40178657
82	0x3e63deb9	0.2225293
83	0xbec93811	-0.39300588
84	0xbe7355c8	-0.23763192
85	0xbea6e892	-0.32599312
86	0xbeb61cf0	-0.35568953
87	0xbebe6eb2	-0.3719383
88	0xbeb426b8	-0.3518579
89	0xbdf6c3f6	-0.12049095
90	0xbec26351	-0.37966397
91	0x3e71365d	0.23555894
92	0x3e50e3b1	0.20399357
93	0x3ec3a82a	0.38214236
94	0xbe825d38	-0.25461745
95	0x3ec6fbac	0.38863885
96	0xbd3aefda	-0.045638897
97	0x3eb17bdf	0.3466482
98	0x3e94e9e7	0.29084703
99	0xbbf8f280	-0.0075972676
100	0x3e943f40	0.28954506
101	0xbec0b17e	-0.37635416
102	0xbea55903	-0.32294473
103	0x3e306291	0.172251
104	0x3da54e7c	0.0807161
105	0x3e684a96	0.22684702
106	0xbe6ca778	-0.2311076
107	0x3e9292ce	0.28627628
108	0xbe1c2a95	-0.15250619
109	0x3eb23781	0.3480797
110	0x3e94ecb2	0.29086834
111	0x3dabddd0	0.08391917
112	0x3e02eef7	0.1278647
113	0xbddcda5b	-0.107838355
114	0x3e706a51	0.23478056
115	0xbd4e3489	-0.05034307
116	0x3da2f09c	0.07956049
117	0x3eac4c15	0.33651796
118	0x3d462d28	0.048382908
119	0xbe89ea50	-0.2693658
120	0xbd34786e	-0.044060163
121	0xbb08ba44	-0.0020862976
122	0x3df86d73	0.12130251
123	0x3d6a8a0a	0.05726055
124	0xbeced80b	-0.40399203
125	0xbdff2797	-0.12458723
126	0x3ce564a5	0.028002093
127	0xbe460dd4	-0.19341213
128	0x3e3b7d98	0.18309629
129	0x3e97fb5e	0.29683965
130	0x3e720776	0.23635659
131	0xbe649299	-0.22321548
132	0xbe9377f9	-0.2880247
133	0xbea23ab2	-0.31685406
134	0x3e32f98f	0.17478012
135	0xbe105fe9	-0.14099087
136	0x3e546d3c	0.20744795
137	0x3ec3bb6c	0.3822893
138	0xbece30b4	-0.40271533
139	0x3e1e71ac	0.1547305
140	0x3ec7c29b	0.3901566
141	0x3ea12dc3	0.31480226
142	0xbe3f107c	-0.18658632
143	0x39ce005a	0.00039291644
144	0xbdc25742	-0.09489299
145	0xbea6aa68	-0.32551885
146	0xbd67d209	-0.05659679
147	0xbc768ea8	-0.01504866
148	0x3e3b8701	0.18313219
149	0xbca86efb	-0.020560732
150	0xbe9a598e	-0.3014645
151	0x3df2bce7	0.118524365
152	0xbe8872ab	-0.26649985
153	0x3d9d61e6	0.07684688
154	0xbdbabf6f	-0.09118544
155	0xbe8ae596	-0.27128285
156	0x3eb5a2e1	0.3547583
157	0x3d8c11b4	0.06839314
158	0xbeb59d8d	-0.35471764
159	0xbdbda6d8	-0.092603385
160	0xbd4fc04c	-0.050720498
161	0xbe1066ea	-0.14101759
162	0x3e696cab	0.2279536
163	0x3e843e67	0.2582886
164	0x3ea1ad1b	0.31577381
165	0xbe08e732	-0.13369444
166	0x3e6df1bb	0.23236744
167	0x3e0b587f	0.13607977
168	0xbe5bd933	-0.21469574
169	0x3e15a00d	0.14611836
170	0xbecb94a7	-0.3976185
171	0xbea76d98	-0.327008
172	0xbe9f1b96	-0.31075734
173	0x3e0f2546	0.13979062
174	0xbdb2124e	-0.086948976
175	0x3dee7cea	0.11644919
176	0x3e209428	0.15681517
177	0x3cc88d73	0.02448151
178	0x3e81a6b6	0.25322503
179	0x3c486785	0.012231712
180	0x3da61721	0.0810988
181	0x3ea47e63	0.32127675
182	0x3e0f702d	0.14007635
183	0x3d61399d	0.054986585
184	0xbdf0760c	-0.11741266
185	0x3ea756d5	0.32683435
186	0xbedd657f	-0.43241498
187	0x3dc1adde	0.09456991
188	0x3e529024	0.20562798
189	0x3d82b0ed	0.06381402
190	0xbe2e54e9	-0.17024578
191	0x3e9e9f52	0.30980927
192	0x3eae5917	0.34052345
193	0xbd944bfb	-0.072410546
194	0x3e87634a	0.2644294
195	0x3c52bf46	0.012862986
196	0x3e975a8c	0.2956127
197	0x3e9ab9ab	0.30219778
198	0x3e2ab26f	0.1666963
199	0xbe1fef01	-0.15618517
200	0xbe266f2c	-0.16253346
201	0x3e51c62a	0.2048575
202	0x3ec8f63d	0.39250365
203	0x3e8a1c5f	0.2697477
204	0x3e479a66	0.19492492
205	0xbe871e7e	-0.2639045
206	0x3d04f4eb	0.032460134
207	0xbed34514	-0.4126364
208	0x3ebae95b	0.3650616
209	0x3d284069	0.04107705
210	0xbc8832cf	-0.01662579
211	0x3ed47b6d	0.41500416
212	0xbe9e1fe4	-0.30883706
213	0x3e3568e8	0.177158
214	0x3e3a1e90	0.18175721
215	0x3d1ddf52	0.038543053
216	0xbdbbca20	-0.09169412
217	0xbed30da6	-0.4122135
218	0x3e2f7e4c	0.17138022
219	0xbe8d81d2	-0.27638108
220	0x3ea21699	0.31657866
221	0xbe81ec4f	-0.25375602
222	0xbd01680c	-0.031593367
223	0x3e8acdc0	0.271101
224	0xbe0115d2	-0.1260598
225	0xbc3ca1b9	-0.011513167
226	0xbbd52224	-0.006504314
227	0xbced4f0e	-0.02896836
228	0xbeb3ebd6	-0.35140866
229	0x3e2fea3f	0.17179202
230	0x3de8b518	0.11362666
231	0x3eb204cd	0.34769288
232	0xbe41143b	-0.18855374
233	0xbd26da55	-0.04073556
234	0xbe85237d	-0.26003638
235	0xbecb828a	-0.3974803
236	0x3e9e1aa6	0.30879706
237	0xbdce7484	-0.10080817
238	0xbe47801f	-0.19482468
239	0xbd8e583a	-0.06950422
240	0xbe5f8eea	-0.21831861
241	0x3eb04686	0.34428805
242	0x3c7e46d1	0.015519814
243	0x3eb0133a	0.3438967
244	0xbcf36ed2	-0.02971593
245	0x3d380325	0.044924874
246	0x3d380d4c	0.044934556
247	0x3e83fe30	0.25779867
248	0x3e8159a1	0.25263694
249	0x3ecc2c40	0.3987751
250	0x3d03adc1	0.032148127
251	0xbe76f961	-0.24118568
252	0xbe988036	-0.29785317
253	0xbe29dd17	-0.16588245
254	0xbd6b023a	-0.05737517
255	0xbe4c7856	-0.1996778

linear1.bias f4 [50]
0	0x3d51cf3c	0.051223025
1	0xbe256ae0	-0.16154051
2	0x3e50106b	0.20318763
3	0xbdbac780	-0.09120083
4	0x3df31fea	0.118713215
5	0x3e4bdabf	0.19907664
6	0xbd7a741c	-0.061145887
7	0x3eec74ba	0.46182805
8	0x3e0a0cd6	0.13481459
9	0xbe710529	-0.23537125
10	0xbe9e239d	-0.30886546
11	0xbd412fd0	-0.04716474
12	0xbcee9e53	-0.02912823
13	0x3e05b933	0.13058929
14	0x3c2cbddd	0.010543314
15	0x3d77845a	0.060428955
16	0xbeacde07	-0.33763143
17	0x3b696cdf	0.003561787
18	0xbddcd9d6	-0.107837364
19	0xbe0c64df	-0.13710354
20	0xbeb2cb15	-0.34920564
21	0x3e91a43d	0.28445616
22	0xbe05224f	-0.13001369
23	0xbe064a70	-0.13114333
24	0xbeafc7e2	-0.34332186
25	0x3e345afc	0.17612833
26	0xbd62d946	-0.05538299
27	0xbe3f7366	-0.18696365
28	0xbecca078	-0.39966178
29	0xbdd1e726	-0.10249166
30	0xbeb90a95	-0.36140886
31	0x3e43d434	0.19123918
32	0x3dc0e5c5	0.09418825
33	0x3eb1c634	0.3472153
34	0xbe258e1a	-0.16167489
35	0x3e775727	0.2415434
36	0xbe879dbd	-0.26487532
37	0x3eb53c7e	0.35397714
38	0xbea858db	-0.3288029
39	0x3a644866	0.0008708298
40	0xbe845752	-0.2584787
41	0xbcf595bb	-0.029978624
42	0xbeb0edd8	-0.3455646
43	0x3e2e444d	0.17018242
44	0xbd977baa	-0.07396634
45	0x3e516c91	0.20451571
46	0xbe70a102	-0.2349892
47	0x3dbfff73	0.09374895
48	0x3e6ded03	0.23234944
49	0xbe82a8b2	-0.2551933

linear2.weight f4 [50, 50]
0	0x3e1783c0	0.14796352
1	0xbd713d2b	-0.058896225
2	0xbd2d24bf	-0.042271372
3	0x3cf2663d	0.029589767
4	0xbe0c146b	-0.13679664
5	0xbc2dcc6b	-0.010607819
6	0x3d3be12d	0.04586904
7	0xbcdd25e6	-0.02699561
8	0x3cb14ba6	0.021642517
9	0xbdf376cf	-0.11887895
10	0x3da7ed2d	0.081995346
11	0x3e009e70	0.12560439
12	0x3df1e11e	0.11810516
13	0x3cd393d7	0.025827331
14	0xbdfd3bf8	-0.12364954
15	0x3dd736d3	0.10508504
16	0xbe116e3c	-0.14202207
17	0x3d271b25	0.04079737
18	0x3d141511	0.036152903
19	0xbddb8dd0	-0.10720408
20	0x3d42357e	0.047414295
21	0x3dac232f	0.08405148
22	0xbd31f5a1	-0.04344714
23	0xbc6e47e3	-0.014543506
24	0x3d793a1b	0.06084643
25	0xbdf8d082	-0.12149145
26	0x3e32c0c6	0.1745635
27	0x3d4672cf	0.048449334
28	0xbd7fb6e8	-0.062430292
29	0xbdbdaeae	-0.09261833
30	0x3d94da74	0.07268229
31	0xbdc1c4cf	-0.094613664
32	0x3e075194	0.13214713
33	0xbbf895da	-0.007586223
34	0x3e230c45	0.15922649
35	0x3d5db7d7	0.0541304
36	0xbdd71c15	-0.10503403
37	0x3dcf0efa	0.101102784
38	0x3d4430f0	0.047898233
39	0xbca57ea7	-0.020201994
40	0x3ce12039	0.027481185
41	0xbd3a3630	-0.045461833
42	0xbd173d23	-0.03692354
43	0xbd5b019c	-0.05346833
44	0xbd747c9a	-0.05968914
45	0x3dae4fad	0.08511291
46	0x3e11eec4	0.14251238
47	0xbd8684d3	-0.06568303
48	0x3de97200	0.11398697
49	0x3dd99f18	0.10626048
50	0xbdf6f55e	-0.12058519
51	0x3de0f47c	0.10984132
52	0x3db0f6b4	0.08640805
53	0x3ccf6e6d	0.02532121
54	0x3d7ec267	0.062197115
55	0x3db41a40	0.08794069
56	0xb9223ee3	-0.00015472951
57	0x3bef4154	0.007301489
58	0x3d322042	0.043487795
59	0x3dcd4389	0.10022647
60	0xbdc9c377	-0.09851735
61	0x3de6d796	0.112715885
62	0x3df82ca4	0.121178895
63	0xbcb4fbc2	-0.022092704
64	0x3d8b94cb	0.068154894
65	0x3d20d914	0.03926952
66	0x3d59cc44	0.05317332
67	0xbda28016	-0.07934587
68	0xbdc72a21	-0.09724832
69	0xbd15cfce	-0.03657513
70	0xbd92aae0	-0.07161498
71	0xbd9a2ee6	-0.075284764
72	0xbd080016	-0.033203207
73	0x3e07048b	0.13185327
74	0x3e0f0cef	0.13969778
75	0x3cc090df	0.02350658
76	0xbd925d19	-0.07146663
77	0x3d83888a	0.06422527
78	0x3cb7c2af	0.0224317
79	0x3bf13efb	0.007362244
80	0xbd50a875	-0.050941903
81	0xbe02b960	-0.12766027
82	0xbe0bdff6	-0.13659653
83	0x3dcda9e1	0.100421675
84	0x3c1f9d66	0.009742117
85	0x3d8aa023	0.06768825
86	0x3d585a70	0.052820623
87	0xbc28fa59	-0.010313594
88	0xbdcb5c33	-0.09929695
89	0xbd9bd089	-0.07608134
90	0xbe09622f	-0.1341636
91	0x3d8072fe	0.06271933
92	0x3d8a50d8	0.06753701
93	0xbb9c5c68	-0.004771758
94	0xbd939170	-0.072054744
95	0xbd8dc356	-0.06922023
96	0xbcd4fe41	-0.026000144
97	0xbd18f8f4	-0.037346795
98	0x3dfcf5f5	0.123516
99	0x3e0e147c	0.13875002
100	0x3ddbe3b4	0.1073679
101	0xbdf7a5fa	-0.120922044
102	0x3d48a78b	0.048987906
103	0xbd4dc26b	-0.05023424
104	0xbdd79bd7	-0.10527771
105	0xbde12c10	-0.109947324
106	0x3d92aa44	0.07161382
107	0x3d1fc39b	0.039004903
108	0xbdb5059b	-0.0883896
109	0x3db55bc7	0.08855396
110	0x3d84e0ce	0.064881906
111	0xbd7ffce0	-0.06249702
112	0x3e1041dc	0.14087623
113	0xbdcf59b2	-0.1012453
114	0xbd75ccd1	-0.06000978
115	0xbe07e0dd	-0.13269372
116	0xbd89e585	-0.067332305
117	0x3dd0da12	0.101978436
118	0xbde6c61d	-0.11268256
119	0xbdad177c	-0.08451745
120	0x3da32b78	0.079672754
121	0xbd69aea2	-0.05705131
122	0xbc90cd82	-0.017676119
123	0xbd24a93c	-0.040200457
124	0x3d09b2b0	0.033617675
125	0x3d8bac2c	0.068199486
126	0x3e0236e8	0.12716258
127	0xbdc5379d	-0.09629748
128	0xbda18b20	-0.07887864
129	0xbdd5944d	-0.10428677
130	0xbdb261fe	-0.08710097
131	0x3c1c4d56	0.009539923
132	0xbda50877	-0.08058255
133	0x3c92ae73	0.01790545
134	0x3d84e2f6	0.06488602
135	0x3db05301	0.08609582
136	0xbe10ce4b	-0.14141195
137	0xbcb322b5	-0.021867136
138	0xbdbd1a5d	-0.09233544
139	0x3bbb8a6e	0.005723289
140	0x3d236c74	0.03989835
141	0xbcb0e793	-0.021594798
142	0xbc8c96bf	-0.017161725
143	0xbc82a18e	-0.015946176
144	0xbe03c93e	-0.12869737
145	0xbc87d6e9	-0.01658197
146	0x3b83fd3e	0.0040279916
147	0xbdb93059	-0.09042425
148	0x3df18737	0.11793368
149	0x3ccc9864	0.02497501
150	0xbda4c7f6	-0.08045952
151	0xbd0eb11b	-0.03483687
152	0xbb49cca6	-0.0030792146
153	0x3dbd9463	0.09256818
154	0x3ddf2a64	0.10896757
155	0x3c578ee3	0.013156625
156	0x3d4d550c	0.050129935
157	0xbde7b674	-0.11314097
158	0xbdc58d4b	-0.0964609
159	0x3d505cab	0.050869625
160	0xbc8fdcbd	-0.01756131
161	0xbe0d2381	-0.13783075
162	0x3de6dcaf	0.11272561
163	0xbd64215a	-0.05569587
164	0xbc56d9ab	-0.0131134195
165	0xbc1974f8	-0.009366266
166	0x3dab2eda	0.083585456
167	0xbd1cce37	-0.0382826
168	0xbd8d311e	-0.06894134
169	0xbdc34a30	-0.095356345
170	0x3d9666b2	0.07343806
171	0x3c96b277	0.018395646
172	0x3d3a901e	0.045547597
173	0xbdbb8492	-0.09156145
174	0x3a89b06d	0.001050485
175	0xbd85d4ab	-0.06534704
176	0xbe309161	-0.17242958
177	0xbc69ef53	-0.014278251
178	0xbbdc7256	-0.006727497
179	0x3c9f4b8d	0.019445205
180	0x3e00fcf3	0.12596492
181	0xbdd6fcbc	-0.10497424
182	0x3dce6cca	0.100793436
183	0xbe3206a2	-0.17385343
184	0x3d4ab1cf	0.049485978
185	0xbdfcc4da	-0.12342234
186	0x3df28143	0.11841061
187	0x3dc8f025	0.09811429
188	0xbd734303	-0.05939008
189	0x3e0dc8bf	0.1384611
190	0x3e22a5a1	0.15883495
191	0xbd103763	-0.03520907
192	0xbde8a602	-0.113597885
193	0x3d822473	0.063546084
194	0x3dc3fc48	0.09569603
195	0xbdb5c84f	-0.088760965
196	0x3d8e496e	0.06947599
197	0xbdeaff77	-0.11474507
198	0xbdee4dad	-0.11635909
199	0xbc676d35	-0.014125158
200	0xbdeaf07e	-0.114716515
201	0x3ddb955c	0.107218474
202	0x3caf313d	0.021385783
203	0xbe1127c8	-0.14175332
204	0xbcdd22c1	-0.026994111
205	0x3d47f661	0.04881895
206	0x3e0b435f	0.13599919
207	0xbcaf3ae1	-0.02139038
208	0xbda6da51	-0.08147109
209	0xbd73a065	-0.059479136
210	0x3dfce076	0.123475
211	0xbda64143	-0.081179164
212	0xbd50eab9	-0.0510051
213	0xbde9358a	-0.11387165
214	0xbdeee513	-0.11664786
215	0xbe1601c9	-0.14649118
216	0x3ddf4790	0.10902321
217	0xbde0fb9e	-0.10985492
218	0xbd8c2a55	-0.06844012
219	0xbd4f0c17	-0.05054864
220	0x3d4c5b68	0.04989186
221	0x3c90cffb	0.017677298
222	0x3d20e213	0.0392781
223	0x3dd7c4f8	0.10535616
224	0x3de2e9e7	0.110797696
225	0x3d8f7a4f	0.070057504
226	0x3da4df0c	0.08050355
227	0x3c94b0e8	0.018150762
228	0x3c3c7300	0.0115020275
229	0xbd540d6c	-0.051770613
230	0xbcb82d69	-0.02248259
231	0x3ae05b01	0.0017116965
232	0xbd248bc2	-0.040172346
233	0xbd271b93	-0.04079778
234	0xbdd47f61	-0.10375858
235	0xbde746e9	-0.11292822
236	0xbd48b7a2	-0.04900325
237	0xbd370e63	-0.044691455
238	0xbcb2adb2	-0.02181134
239	0xbd25e820	-0.040504575
240	0x3c906e48	0.017630711
241	0x3dd8a05b	0.105774604
242	0xbda0bdb8	-0.07848686
243	0x3e0a384f	0.13498043
244	0xbe12593d	-0.14291854
245	0xbe1561de	-0.14588115
246	0xbce3f480	-0.027826548
247	0xbd1555f9	-0.036458943
248	0x3d8fbac7	0.07018047
249	0xbc7bbf31	-0.015365408
250	0xbd94aeb4	-0.072598845
251	0x3d9bf1b3	0.0761446
252	0x3e05ad5a	0.1305441
253	0xbdb2c702	-0.08729364
254	0x3e0a528d	0.13508053
255	0xbd8c1fa3	-0.06841972

linear2.bias f4 [50]
0	0x3de1af76	0.11019795
1	0xbe19560d	-0.14974232
2	0xbdbb69d5	-0.09151045
3	0x3c35b093	0.011089462
4	0xbdf3bd77	-0.11901372
5	0x3d7b1142	0.061295755
6	0xbd6c9d9f	-0.057767507
7	0x3e1a7e4d	0.15087242
8	0x3d95c712	0.0731336
9	0xbd938554	-0.07203165
10	0xbdfa55e3	-0.12223413
11	0xbde30eb0	-0.11086786
12	0x3d1df9f2	0.038568445
13	0x3b22fb8b	0.002486917
14	0x3ddd1933	0.10795822
15	0x3dcdcdca	0.10049017
16	0x3e04bb0b	0.12961976
17	0xbbe30f39	-0.006929305
18	0xbd1a153a	-0.0376179
19	0x3e49884a	0.19680896
20	0xbddf6fa7	-0.10909968
21	0x3e376ebf	0.1791334
22	0xbd6a993a	-0.057275034
23	0xbd5fc263	-0.05462874
24	0xbd02bcb5	-0.031918246
25	0xbd43d0d7	-0.047806587
26	0x3d979fd2	0.0740353
27	0x3df4ab9b	0.11946794
28	0xbd2cb81a	-0.04216776
29	0x3d3aed3b	0.045636397
30	0x3d346af6	0.04404732
31	0xbded3d82	-0.11583997
32	0x3e0e2507	0.13881312
33	0xbc80e1b2	-0.01573262
34	0xbe1112ed	-0.14167376
35	0x3e0f4dce	0.13994524
36	0x3e26cd76	0.16289315
37	0x3d896f9b	0.0671074
38	0x3d082983	0.033242714
39	0x3d0261be	0.031831495
40	0x3e1d8521	0.15382816
41	0xbdb5155a	-0.08841963
42	0x3e3afdcf	0.18260883
43	0x3cc7e59f	0.024401484
44	0xbd9025ca	-0.07038458
45	0xbdc0900a	-0.09402473
46	0x3cc52e86	0.024070036
47	0xbd9d4c1a	-0.07680531
48	0x3d8e49e6	0.06947689
49	0x3d37b737	0.04485246

linear3.weight f4 [2, 50]
0	0x3d2e9dea	0.042631067
1	0x3da7639f	0.08173298
2	0x3dfe10e5	0.12405566
3	0xbd6fcd85	-0.058545608
4	0x3da7bda1	0.08190466
5	0x3c838fdc	0.016059808
6	0xbdc3bf6b	-0.095579945
7	0x3d80a15e	0.06280778
8	0xbe114101	-0.14184953
9	0xbd90eaa0	-0.07076001
10	0xbd8c44ff	-0.068490975
11	0x3d970264	0.07373503
12	0xbde06448	-0.10956627
13	0x3d493658	0.049124092
14	0x3d80c3bc	0.06287333
15	0x3e006dda	0.12541905
16	0xbd7588c2	-0.059944876
17	0xbde79631	-0.113079436
18	0x3e1bae34	0.15203172
19	0x3d08220d	0.0332356
20	0xbe002c84	-0.12516981
21	0xbb14cebb	-0.0022706229
22	0xbd75cc06	-0.060009025
23	0x3dd7a717	0.10529917
24	0xbdcf88bf	-0.10133504
25	0x3c5927c9	0.013254114
26	0xbe040d57	-0.12895714
27	0x3e084d53	0.13310747
28	0x3d8e5943	0.06950619
29	0x3de3b215	0.11117951
30	0xbdc35dee	-0.095394
31	0xbda22e45	-0.079189815
32	0x3e0a239b	0.13490145
33	0x3deb98a3	0.115037225
34	0xbc3b09ba	-0.011415893
35	0x3dfa56b4	0.122235686
36	0x3e150bb2	0.14555243
37	0xbd45edd7	-0.048322525
38	0x3d58922f	0.052873787
39	0x3d17f279	0.037096474
40	0x3e05c9ee	0.13065311
41	0x3d0ece2f	0.0348646
42	0x3d033107	0.032029178
43	0xbd5cdf95	-0.053924162
44	0x3e192116	0.14954028
45	0xbd9881f5	-0.07446662
46	0xbd746a35	-0.0596716
47	0xbc967d43	-0.018370276
48	0x3dd43ec3	0.10363533
49	0xbdfe62fd	-0.12421224
50	0xbda2d085	-0.07949928
51	0x3e0bd527	0.1365553
52	0xbd87cb87	-0.06630617
53	0x3d8f0039	0.06982464
54	0x3d83bc60	0.06432414
55	0x3d0872d6	0.03331264
56	0x3c8d59fb	0.01725482
57	0x3c1363c9	0.008995959
58	0x3c69b8db	0.014265264
59	0xbe0ab5d3	-0.13545923
60	0x3d146c87	0.036236312
61	0x3dcad25f	0.09903406
62	0xbe00c308	-0.12574399
63	0x3d9760a5	0.0739148
64	0xbdb176b2	-0.086652175
65	0x3cacd5ba	0.021098007
66	0x3d86b446	0.06577353
67	0xbd71b06c	-0.05900614
68	0x3c947fcb	0.018127343
69	0xbda89aea	-0.082326725
70	0xbe03329e	-0.12812278
71	0xbd27ad4f	-0.040936764
72	0x3e0dafbc	0.13836569
73	0x3dc2d8a7	0.095139794
74	0xbd6e707f	-0.058212753
75	0xbd16b52a	-0.036793865
76	0xbc0b7473	-0.00851165
77	0xbdf2589b	-0.118333064
78	0xbcf62381	-0.030046226
79	0x3d85b298	0.06528205
80	0x3d8b99ec	0.06816468
81	0xbd80e73f	-0.06294107
82	0x3c263c50	0.010146216
83	0xbd9f4f09	-0.07778747
84	0x3d9882b9	0.07446808
85	0xbdcce1f0	-0.10004032
86	0x3d473a53	0.048639607
87	0x3c8e6ea7	0.017386748
88	0xbd694e59	-0.056959484
89	0xbddb721c	-0.10715124
90	0x3d451ec7	0.048125055
91	0x3d6b088c	0.057381198
92	0xbdfdd624	-0.1239436
93	0x3d9699e5	0.07353572
94	0x3db12416	0.08649461
95	0x3bebf378	0.0072006546
96	0x3cd1ddaf	0.025618402
97	0xbdb326ad	-0.08747611
98	0x3c3d85c5	0.011567538
99	0x3dd6e953	0.10493722

linear3.bias f4 [2]
0	0x3df08886	0.1174479
1	0xbdf69abc	-0.12041232
