1/checkpoints/origin/2020-11-16T11-49-49-16-classify/classify_fold0_origin_0.960000.pth (torch, 14565 bytes, 6 tensors)

linear1.weight f4 [50, 6]
000000 f9 f1 4e 3e 27 d9 67 be 25 71 2f be 4d d3 93 3e
       0.20209493 -0.22641431 -0.17133005 0.28872147
000010 c3 97 87 3e 5c 77 b3 3e b4 ec 30 be 1a a6 30 3e
       0.26482973 0.35052 -0.17277795 0.17250863
000020 fc 03 32 3d cc 31 8d 3e e6 d6 10 be 82 80 fa bd
       0.04346083 0.27577055 -0.14144477 -0.12231542
000030 e2 8d e2 be c5 2a a9 3e de dc 8b 3e df b5 8e 3e
       -0.44248873 0.33040443 0.27316946 0.27873132
000040 2d b6 0d be 35 ad 56 3e ef 8c ce 3d bd 99 05 be
       -0.13839026 0.2096451 0.10085475 -0.13046928
000050 ca e9 11 3e 5a c0 76 be 86 54 2e 3e 56 5d db bd
       0.1424934 -0.24096814 0.1702443 -0.10711162
000060 0f 40 9c be 69 f1 1b 3d eb d4 98 3e 2c c6 88 be
       -0.30517623 0.038072024 0.29849944 -0.26713693
000070 ae 30 8d be b9 1b 7c 3d c3 29 b3 be b4 c6 80 3d
       -0.27576202 0.061549876 -0.349928 0.062878996
000080 6f 3f b1 3e 8d b3 4c be f6 93 7f bd 2b 5e 9d 3e
       0.34618708 -0.19990368 -0.062396966 0.30735907
000090 c2 94 2a be 96 b5 b2 be 5b a3 a5 be ef dc c4 3d
       -0.16658309 -0.34904164 -0.32351193 0.09612452
0000a0 5f 40 94 be 08 4c c9 be f3 65 03 be 1c b8 0f 3d
       -0.2895536 -0.3931582 -0.1283186 0.03508769
0000b0 a1 b4 ac 3e 1b 30 7d 3e 46 f0 c3 3e 92 4e d5 3d
       0.3373156 0.24725382 0.38269252 0.10415377
0000c0 1d 96 c8 be 20 5e 03 be 41 e7 56 3e fe 98 af 3e
       -0.39177027 -0.12828875 0.20986654 0.3429641
0000d0 49 21 a9 3e d0 f3 ea bd 70 c2 a2 be 24 a6 b5 be
       0.33033207 -0.11472285 -0.3178897 -0.35478318
0000e0 5c 09 2a 3d 04 7f 95 3e 36 ad 20 bd 26 a8 b8 be
       0.041512832 0.29198468 -0.039227687 -0.36065787
0000f0 ff 47 47 be d9 ae 71 38 b2 ea c5 be 34 0a e5 bd
       -0.19461058 5.7621717e-05 -0.3865562 -0.11183587
000100 46 e3 d9 bc 23 b1 21 3e a9 da 4b be b9 bf 2d bd
       -0.02659763 0.15790229 -0.19907631 -0.04241917
000110 8f 68 ba be ac 6e 05 be 13 3c 7b 3e 41 a6 2f bd
       -0.36407897 -0.13030499 0.24534635 -0.04288316
000120 ad 79 0e be 9f 82 3b 3b ad ea 8a 3e 97 e9 78 be
       -0.13913603 0.0028611792 0.27132168 -0.24307857
000130 54 48 91 3e 84 02 8d be 7c 8a ce bd b7 c4 27 bf
       0.28375494 -0.27540982 -0.100850075 -0.6553454
000140 ab 5d 46 3e 02 28 fc be e0 81 8b 3e 9a bb da be
       0.19371669 -0.49249274 0.27247524 -0.42721254
000150 c8 55 73 be 92 e8 a6 be f0 1c b6 be b2 6e be be
       -0.23763192 -0.32599312 -0.35568953 -0.3719383
000160 b8 26 b4 be f6 c3 f6 bd a0 7b ca be af 53 57 3e
       -0.3518579 -0.12049095 -0.39547443 0.21028017
000170 d6 8f 45 3e ce 69 f4 3e 4c 6b a4 be 27 2b d5 3e
       0.1929315 0.47736973 -0.3211311 0.41634485
000180 05 45 13 bd 98 35 98 3e a7 08 83 3e ea 3d b3 ba
       -0.035954494 0.2972839 0.2559254 -0.0013675068
000190 d1 91 ac 3e 98 ad c4 be 1a 92 ca be d9 4c 09 3e
       0.33705 -0.38413692 -0.39564592 0.13408221
0001a0 e8 42 95 3d 8e e8 b8 3e 84 78 e3 be a9 60 aa 3e
       0.07288152 0.36114925 -0.44427884 0.3327687
0001b0 7b 7a 3a be 89 f8 9c 3e 6e 22 82 3e 6f ad 56 3d
       -0.18210785 0.30658367 0.25416893 0.052411493
0001c0 f2 68 67 3d 8d d8 08 be 8f f0 62 3e 03 29 81 bd
       0.056496568 -0.13363858 0.22162078 -0.063066505
0001d0 b6 db 65 3d d3 f0 81 3e 6c e3 3b 3d 74 6b 9b be
       0.056117736 0.25379047 0.045871183 -0.30355418
0001e0 d6 0a a9 bd 69 5c e8 bc 02 aa c5 3d 8b b6 07 3e
       -0.0825402 -0.028364377 0.09651567 0.13253228
0001f0 4d b7 0b bf 0c af c7 bd e5 bd 66 3c cb 42 3a be
       -0.5457657 -0.097501844 0.01408336 -0.18189542
000200 38 a7 31 3e 94 34 b1 3e 02 a5 54 3e 85 54 61 be
       0.17348945 0.34610426 0.2076607 -0.22004898
000210 0f 74 b0 be d9 4d 86 be 76 7c 11 3e 29 b6 da bd
       -0.34463546 -0.26231268 0.14207634 -0.106792755
000220 97 4c 0a 3e fd c0 b8 3e 41 90 d5 be 82 54 0c 3e
       0.13505779 0.36084738 -0.4171162 0.13704112
000230 b6 72 c2 3e aa 36 d7 3e 44 e7 70 be d6 e8 b6 3c
       0.37978142 0.42033893 -0.23525721 0.022327822
000240 42 57 c2 bd 68 aa a6 be 09 d2 67 bd a8 8e 76 bc
       -0.09489299 -0.32551885 -0.05659679 -0.01504866
000250 01 87 3b 3e fb 6e a8 bc 8e 59 9a be e7 bc f2 3d
       0.18313219 -0.020560732 -0.3014645 0.118524365
000260 ab 72 88 be e6 61 9d 3d 6f bf ba bd 96 e5 8a be
       -0.26649985 0.07684688 -0.09118544 -0.27128285
000270 5e aa da 3e ae c2 a7 bc ae de b9 be 43 f5 4d be
       0.42708105 -0.020478573 -0.36302704 -0.20113091
000280 d4 15 82 3d 81 ec 3d be 10 b4 6c 3e 59 76 6b 3e
       0.0635182 -0.1854725 0.23115563 0.22994365
000290 93 3c 91 3e ae 22 66 be 81 f6 87 3e 00 dd da 3d
       0.28366527 -0.22474167 0.26555255 0.10686684
0002a0 33 d9 5b be 0d a0 15 3e a7 94 cb be 98 6d a7 be
       -0.21469574 0.14611836 -0.3976185 -0.327008
0002b0 96 1b 9f be 46 25 0f 3e 66 b0 cd bd 74 83 83 3d
       -0.31075734 0.13979062 -0.10043411 0.06421557
0002c0 6a f7 bb 3d f6 e1 bb 3c 2b 8e 72 3e 75 39 f8 b9
       0.0917805 0.022934895 0.23687045 -0.00047345055
0002d0 fe 18 5e 3d f7 01 8e 3e 8c bf ed 3d 6e df ca 3d
       0.054223053 0.27735874 0.116088 0.09905897
0002e0 75 19 53 be 1e 17 af 3e f0 cf ef be ac 38 99 3d
       -0.2061518 0.34197325 -0.4683833 0.074815124
0002f0 79 2d 4b 3e 47 43 2a 3e b0 18 85 be cb 72 a8 3e
       0.19841565 0.16627227 -0.25995398 0.3290008
000300 f1 ca a5 3e 6a 85 a0 bd a4 c6 73 3e d9 58 27 bd
       0.32381395 -0.07837947 0.23806244 -0.040856216
000310 19 fb ab 3e 7f bd 85 3e 1a 8c 60 3e 21 27 6f be
       0.3359001 0.26121137 0.21928445 -0.2335477
000320 36 5e 44 be b1 fc 11 3d 61 b9 02 3f 6e e7 83 3e
       -0.19176564 0.035641376 0.51064116 0.25762504
000330 97 82 5c 3e 36 fd ee be 05 5f ca 3c 5b 77 ef be
       0.21534191 -0.4667756 0.024703512 -0.46770748
000340 2c d5 b4 3e f5 88 38 3d 44 8a 9c bd 50 d0 e1 3e
       0.35318887 0.045052487 -0.076435596 0.44104242
000350 0a 21 ab be 51 07 1f bf 31 1f 88 3e 56 99 86 be
       -0.33423644 -0.6212054 0.26586297 -0.2628886
000360 0d 43 5b bd d9 c5 1b bf 8c 0e 27 3e 40 c3 b2 be
       -0.05353074 -0.60848767 0.16314143 -0.3491459
000370 41 e5 ad 3e d4 d3 81 be cb d0 ab bd 96 f6 95 3e
       0.3396397 -0.25356925 -0.083894335 0.29289693
000380 b8 d6 18 be f9 6b 3d bf 26 6a 95 3d 28 3b 90 be
       -0.14925659 -0.7399288 0.07295637 -0.28170133
000390 68 06 d7 be e4 4f 1c 3e 1e f8 c8 3d e8 aa ec 3e
       -0.41997075 0.15264851 0.098129496 0.4622414
0003a0 ce a7 c7 be 6d cb 9b bc 30 02 91 be 10 04 df be
       -0.38995212 -0.0190179 -0.2832198 -0.43557787
0003b0 15 01 88 3e 98 fc 08 be 11 03 94 be db 80 b9 bd
       0.26563326 -0.13377607 -0.2890859 -0.0905778
0003c0 ed 38 91 be ae 96 ac 3e 91 76 c1 bc 80 be 90 3e
       -0.28363743 0.3370871 -0.023616107 0.2827034
0003d0 30 8e 56 bc 8f d8 0f bd 81 c6 36 3a 64 f0 72 3e
       -0.013095424 -0.035118636 0.00069723284 0.23724514
0003e0 94 16 56 3e 0c 26 b7 3e 01 b6 fe 3c 9d ae 96 be
       0.2090705 0.35771215 0.031092646 -0.29430094
0003f0 36 80 98 be 17 dd 29 be 3a 02 6b bd 56 78 4c be
       -0.29785317 -0.16588245 -0.05737517 -0.1996778

linear1.bias f4 [50]
000000 bf 2e dd 3e 9c 46 91 be 10 b2 16 3e 7b c9 42 be
       0.43199727 -0.28374183 0.14716363 -0.19022171
000010 81 7e 96 bd a3 69 74 3e af 29 7b bd 1c 69 d9 3e
       -0.073483475 0.23868422 -0.06131905 0.42463005
000020 65 e9 a5 3d 22 05 71 be 9d 23 9e be d0 2f 41 bd
       0.08101157 -0.23537114 -0.30886546 -0.04716474
000030 09 8c 14 bd 8d 30 3a 3e dd bd 2c 3c 20 aa 13 bc
       -0.03626636 0.18182583 0.010543314 -0.009012729
000040 b6 20 95 be 5a 7a 5a be b5 d0 35 be 62 33 0d be
       -0.2912652 -0.21335736 -0.17755397 -0.13789132
000050 7c ec fc be 4b b7 81 3e 05 f3 4f be 5c 22 3b be
       -0.49399173 0.25335154 -0.20307548 -0.18274826
000060 e2 c7 af be fc 5a 34 3e a8 60 6d 3d 17 fb 1a be
       -0.34332186 0.17612833 0.057953507 -0.15134846
000070 78 a0 cc be 32 2d f1 bd b3 33 e7 be ce 05 ca 3d
       -0.39966178 -0.117761984 -0.4515663 0.098643884
000080 2b 3e 0c 3e 85 7f ee 3e 73 77 30 be 8d e9 a8 3e
       0.1369559 0.46581665 -0.17233066 0.32990685
000090 d0 6f 76 be 48 09 e0 3e 70 88 08 bf 87 fd bd bd
       -0.2406609 0.4375708 -0.5333319 -0.09276872
0000a0 c9 22 74 be b2 81 e7 bc d8 ed b0 be 50 f0 43 3e
       -0.23841394 -0.028260086 -0.3455646 0.1913464
0000b0 83 a6 cb bd 43 0f 42 3e 49 8b b1 be b6 e6 23 3d
       -0.09943869 0.18951134 -0.3467658 0.040014945
0000c0 6d ff 76 3e 06 61 af be
       0.24120875 -0.3425371

linear2.weight f4 [50, 50]
000000 26 40 90 3e 67 0f 75 bd c0 05 3d bd 7f 4e ee 3c
       0.2817394 -0.059829142 -0.04614806 0.029090164
000010 89 31 0d be 5c 0e 67 bc 25 3f 8c 3d bd c2 15 bd
       -0.13788427 -0.014102545 0.06847981 -0.03656267
000020 88 6e 01 3c ca 62 ee bd 2d ed a7 3d 70 9e 00 3e
       0.007899888 -0.11639936 0.081995346 0.12560439
000030 e5 60 e3 3d 9a 63 0a 3d f8 3b fd bd 80 24 cd 3d
       0.111024655 0.033786394 -0.12364954 0.100167274
000040 87 77 13 be 6b 0e ae 3c 0b d2 fe 3c 33 62 01 be
       -0.14401065 0.02124711 0.031106016 -0.12635116
000050 f3 9d 4b 3d d8 09 91 3d 85 7e ee bc b5 3d a6 bc
       0.04971118 0.07081956 -0.029113064 -0.020293096
000060 1b 3a 79 3d 82 d0 f8 bd 99 ff 76 3e d5 ed 31 3d
       0.06084643 -0.12149145 0.2412094 0.043439705
000070 e8 b6 7f bd 3c d8 c9 bd e0 2f 92 3d c6 2a cc bd
       -0.062430292 -0.098556966 0.07138038 -0.09969096
000080 bc 75 fd 3d 96 bb 2a 3e 8f 23 3b 3e 52 52 43 3e
       0.12375972 0.16673121 0.18275283 0.19074371
000090 3f 01 b9 bd 49 34 22 3e b7 55 be 3c 49 ac 58 bc
       -0.09033441 0.15840258 0.023234231 -0.01322467
0000a0 b3 0f 10 3d 01 d9 5a bd 23 3d 17 bd ce 79 f6 bc
       0.035171222 -0.053429607 -0.03692354 -0.030087378
0000b0 4f 39 88 bd a9 1f a8 3d 7f c6 31 3e 2c 10 2b bd
       -0.06651556 0.08209164 0.17360877 -0.04176347
0000c0 fd 4e d3 3d 1e 77 cf 3d 91 27 a6 bd 9b 01 c8 3d
       0.103178 0.10130142 -0.081130154 0.09765931
0000d0 13 2a a0 3d cf 1c 5f 3c 62 b6 5e 3d 52 0d a5 3d
       0.07820525 0.013617708 0.054373153 0.08059181
0000e0 4b 19 bc 3c a5 97 dd 39 3d c5 2a 3d 05 11 f1 3d
       0.02296128 0.0004226539 0.041692007 0.11770824
0000f0 77 c3 c9 bd 96 d7 e6 3d 83 e1 df 3d b9 97 65 bd
       -0.09851735 0.112715885 0.10931685 -0.056052897
000100 cb 94 8b 3d 93 de 16 3d 8c 62 1a 3d 11 cb 8c bd
       0.068154894 0.036833357 0.037691638 -0.06874669
000110 24 aa db bd 82 12 2f bd d4 6b 96 bd 0b e7 a4 bd
       -0.10725811 -0.04274226 -0.07344785 -0.080518804
000120 97 71 20 bd 6f 6a 00 3e ef 0c 0f 3e df 90 c0 3c
       -0.039170828 0.12540601 0.13969778 0.02350658
000130 c1 88 8d bb e9 fa 5c 3d af c2 b7 3c 2d 6e 0f 3a
       -0.004319281 0.053950224 0.0224317 0.00054714346
000140 f5 cc 6d bd ed 2e 04 be 7c b5 11 be 65 f1 0c 3e
       -0.05805679 -0.12908526 -0.14229387 0.1376396
000150 fc f9 43 bd 28 a4 75 bd f7 34 7a 3c ce 68 98 bd
       -0.047845826 -0.059971005 0.015271417 -0.07441865
000160 e4 b7 c0 bd 78 40 aa bd e6 be 1f be 06 42 5b 3d
       -0.09410074 -0.08313078 -0.15600166 0.05352976
000170 d8 50 8a 3d 28 d2 62 bd 92 a9 9e bd e0 77 a8 bd
       0.06753701 -0.055376202 -0.07747187 -0.08225989
000180 1f fd 04 bd 73 66 96 bd 03 75 f2 3d c3 5f 08 3e
       -0.032467958 -0.073437594 0.118387245 0.1331778
000190 b4 e3 db 3d fa a5 f7 bd 8b a7 48 3d 6b c2 4d bd
       0.1073679 -0.120922044 0.048987906 -0.05023424
0001a0 d7 9b d7 bd 10 2c e1 bd 44 aa 92 3d 9b c3 1f 3d
       -0.10527771 -0.109947324 0.07161382 0.039004903
0001b0 9b 05 b5 bd c7 5b b5 3d ce e0 84 3d e0 fc 7f bd
       -0.0883896 0.08855396 0.064881906 -0.06249702
0001c0 dc 41 10 3e b2 59 cf bd d1 cc 75 bd dd e0 07 be
       0.14087623 -0.1012453 -0.06000978 -0.13269372
0001d0 85 e5 89 bd 12 da d0 3d 1d c6 e6 bd 7c 17 ad bd
       -0.067332305 0.101978436 -0.11268256 -0.08451745
0001e0 78 2b a3 3d a2 ae 69 bd 82 cd 90 bc 3c a9 24 bd
       0.079672754 -0.05705131 -0.017676119 -0.040200457
0001f0 b0 b2 09 3d 2c ac 8b 3d e8 36 02 3e 9d 37 c5 bd
       0.033617675 0.068199486 0.12716258 -0.09629748
000200 20 8b a1 bd 4d 94 d5 bd fe 61 b2 bd 56 4d 1c 3c
       -0.07887864 -0.10428677 -0.08710097 0.009539923
000210 77 08 a5 bd 73 ae 92 3c f6 e2 84 3d 01 53 b0 3d
       -0.08058255 0.01790545 0.06488602 0.08609582
000220 4b ce 10 be b5 22 b3 bc 5d 1a bd bd 6e 8a bb 3b
       -0.14141195 -0.021867136 -0.09233544 0.005723289
000230 74 6c 23 3d 93 e7 b0 bc bf 96 8c bc 8e a1 82 bc
       0.03989835 -0.021594798 -0.017161725 -0.015946176
000240 3e c9 03 be e9 d6 87 bc 3e fd 83 3b 59 30 b9 bd
       -0.12869737 -0.01658197 0.0040279916 -0.09042425
000250 37 87 f1 3d 64 98 cc 3c 9f 48 01 be a4 72 4d bc
       0.11793368 0.02497501 -0.12625359 -0.0125395395
000260 78 93 b6 3b 4b 1a ae 3d de 3f dd 3d 5d a5 79 3c
       0.005571779 0.08501109 0.10803197 0.01523718
000270 0c 55 4d 3d bb 55 db bd 06 f9 bf bd ab 5c 50 3d
       0.050129935 -0.10709711 -0.09373669 0.050869625
000280 bd dc 8f bc 81 23 0d be 72 3c e9 3d 73 15 b1 bd
       -0.01756131 -0.13783075 0.11388482 -0.08646669
000290 ab d9 56 bc 9b 4a a9 3a c1 77 b4 3d 57 20 cd ba
       -0.0131134195 0.0012915911 0.08811904 -0.0015649897
0002a0 80 14 78 bd 1e dd b4 bd ed a2 8e 3d 16 88 7a 3c
       -0.060566425 -0.08831237 0.069646694 0.0152912345
0002b0 91 5e f0 3c 67 9b b1 bd 6d b0 89 3a ab d4 85 bd
       0.029341968 -0.08672219 0.001050485 -0.06534704
0002c0 ec 82 32 be 97 68 0d bc 56 72 dc bb ee 49 cd 3c
       -0.17432755 -0.008630893 -0.006727497 0.025059666
0002d0 13 1a 09 3e 9e 02 c8 bd 96 76 d6 3d ee 6d 64 be
       0.13388853 -0.09766124 0.10471837 -0.2230756
0002e0 29 f0 7a 3c 06 5a 88 be 54 6e aa 3d fd 0c 4e 3d
       0.015316048 -0.26631182 0.08321825 0.050305355
0002f0 9a e9 89 bc f7 c1 fd 3d 18 ab 28 3e 1f c3 d6 bc
       -0.016835023 0.123905115 0.16471517 -0.026216088
000300 02 a6 e8 bd 2d cd 1a 3d 67 bb c0 3d 98 1c a9 bd
       -0.113597885 0.037793327 0.09410744 -0.08257407
000310 fb 31 88 3d 0f e2 ec bd b4 1e c9 bd d2 11 1f bc
       0.06650158 -0.11566555 -0.09820309 -0.009708839
000320 7e f0 ea bd 5c 95 db 3d 3d 31 af 3c c8 27 11 be
       -0.114716515 0.107218474 0.021385783 -0.14175332
000330 c1 22 dd bc 61 f6 47 3d 5f 43 0b 3e e1 3a af bc
       -0.026994111 0.04881895 0.13599919 -0.02139038
000340 51 da a6 bd 65 a0 73 bd 76 e0 fc 3d 43 41 a6 bd
       -0.08147109 -0.059479136 0.123475 -0.081179164
000350 b9 ea 50 bd 8a 35 e9 bd 13 e5 ee bd c9 01 16 be
       -0.0510051 -0.11387165 -0.11664786 -0.14649118
000360 90 47 df 3d 9e fb e0 bd 55 2a 8c bd 17 0c 4f bd
       0.10902321 -0.10985492 -0.06844012 -0.05054864
000370 68 5b 4c 3d fb cf 90 3c 13 e2 20 3d f8 c4 d7 3d
       0.04989186 0.017677298 0.0392781 0.10535616
000380 e7 e9 e2 3d 4f 7a 8f 3d 0c df a4 3d e8 b0 94 3c
       0.110797696 0.070057504 0.08050355 0.018150762
000390 00 73 3c 3c 6c 0d 54 bd 69 2d b8 bc fb 5a e0 3a
       0.0115020275 -0.051770613 -0.02248259 0.0017116958
0003a0 c2 8b 24 bd 93 1b 27 bd 61 7f d4 bd e9 46 e7 bd
       -0.040172346 -0.04079778 -0.10375858 -0.11292822
0003b0 a2 b7 48 bd 63 0e 37 bd b2 ad b2 bc 20 e8 25 bd
       -0.04900325 -0.044691455 -0.02181134 -0.040504575
0003c0 48 6e 90 3c 5b a0 d8 3d b8 bd a0 bd 4f 38 0a 3e
       0.017630711 0.105774604 -0.07848686 0.13498043
0003d0 3d 59 12 be de 61 15 be 80 f4 e3 bc f9 55 15 bd
       -0.14291854 -0.14588115 -0.027826548 -0.036458943
0003e0 c7 ba 8f 3d 31 bf 7b bc a2 09 28 bd 8f 0a 36 3d
       0.07018047 -0.015365408 -0.04102481 0.044443663
0003f0 c6 34 ec 3d 74 b5 ae bd a2 5c 04 3e e9 f3 97 bd
       0.11533503 -0.08530703 0.12925962 -0.07419569

linear2.bias f4 [50]
000000 e9 55 c7 3d 5c 51 5d be d5 69 bb bd 81 8e 41 3c
       0.09733183 -0.21613067 -0.09151045 0.011813761
000010 77 bd f3 bd 9a 66 06 bc 8a b4 bb bd a5 10 a0 3e
       -0.11901372 -0.008203173 -0.091652945 0.312627
000020 f9 33 d4 bd 54 85 93 bd f7 db fc bd 44 b1 24 be
       -0.103614755 -0.07203165 -0.123466425 -0.16083246
000030 cd 93 f7 3c 8b fb 22 3b ee e9 0c 3e 40 b0 01 3e
       0.030221844 0.002486917 0.13761112 0.1266489
000040 0b bb 04 3e 92 20 07 bd 55 57 7c bd 77 78 72 3e
       0.12961976 -0.032990046 -0.061606724 0.23678766
000050 32 9c fb bd aa a0 2c 3e 0a 02 b2 bd a2 de 5f bd
       -0.12285651 0.16858163 -0.08691795 -0.05465568
000060 4d 3e 8e bd d7 d0 43 bd 26 30 04 3c f1 4c 1d 3e
       -0.06945477 -0.047806587 0.00806812 0.15361382
000070 2f 82 b3 bb 11 ff 2f 3c cf 87 2d 3d c6 04 c2 bd
       -0.0054781656 0.010741965 0.042365845 -0.09473567
000080 bc ee 25 3e 9b b5 93 bb 5d fd 7c be 40 5d 2d 3e
       0.16204351 -0.004507733 -0.24706025 0.16930103
000090 46 bd 18 3e f8 27 7e 3d 9b b4 6e 3d 0f cd 88 3d
       0.14915952 0.062049836 0.058277708 0.06679737
0000a0 81 ee 32 3e 24 13 cc bd aa c3 59 3e 4c 2d 9a bd
       0.17473795 -0.09964588 0.21266046 -0.07528171
0000b0 8f ad e4 bd 0a 90 c0 bd b2 20 b6 3d dc 9e 82 3d
       -0.11165916 -0.09402473 0.08892955 0.06377956
0000c0 0b 12 1c 3e 53 cf 0a bd
       0.15241258 -0.033889126

linear3.weight f4 [2, 50]
000000 70 35 1b 3c 83 ff b4 3d e5 10 fe 3d 2b b5 b3 bc
       0.00947319 0.088377975 0.12405566 -0.021936974
000010 a1 bd a7 3d d5 34 42 3c 3b 9f a6 bd 15 0b 3e 3e
       0.08190466 0.011853416 -0.081358396 0.18558915
000020 c3 58 2f be a0 ea 90 bd e0 09 39 bd cc 72 3f 3d
       -0.17123704 -0.07076001 -0.045175433 0.04674034
000030 b3 76 d9 bd 58 36 49 3d 27 56 74 3d a3 9d db 3d
       -0.10618343 0.049124092 0.059652474 0.10723426
000040 c2 88 75 bd e2 07 c4 bd 2d c9 16 3e da 84 21 bc
       -0.059944876 -0.09571816 0.1472518 -0.009858334
000050 8d c5 ff bd df 4e 08 3c 12 a4 6c bd 0f e9 d9 3d
       -0.12488852 0.008319586 -0.057773657 0.106401555
000060 85 5d a8 bd c9 27 59 3c 9e 8f f4 bd 4b 57 dc 3d
       -0.082209624 0.013254114 -0.11941455 0.10758837
000070 a8 2c 82 3d 11 cb dd 3d 3b 08 94 bd ca 6a 7a bd
       0.06356174 0.108297475 -0.07228132 -0.061137
000080 a2 5a df 3d 52 c3 05 3e eb 1a aa bc b8 a7 d7 3d
       0.10905959 0.1306279 -0.020764789 0.10530037
000090 c4 f8 0a 3e 6c ce 21 bd 81 45 1c 3d c4 3e 40 3c
       0.13571459 -0.0395035 0.03815222 0.0117337145
0000a0 a5 49 f0 3d e1 c3 ea 3c b5 b8 6c 3c 2a 2c 76 bd
       0.117327966 0.028657855 0.014448334 -0.060100712
0000b0 5e 36 0e 3e f5 81 98 bd f4 b8 70 be bf d2 9c 3c
       0.13887927 -0.07446662 -0.23508054 0.01914346
0000c0 45 0f e0 3d 94 92 d9 bd fa 4f 46 bd 8c 6c f3 3d
       0.109404124 -0.10623661 -0.048416115 0.11885938
0000d0 87 cb 87 bd a3 8a 06 3d 60 bc 83 3d 3f c7 b8 3c
       -0.06630617 0.032847058 0.06432414 0.022555945
0000e0 06 54 36 3c 2c ff e7 bd 2d 63 7b 3d d3 b5 0a be
       0.011128431 -0.11327967 0.06137388 -0.13545923
0000f0 87 6c 14 3d e5 bd e3 3d 2c b6 f7 bd a5 60 97 3d
       0.036236312 0.11120204 -0.120952934 0.0739148
000100 56 71 b4 bd 53 ae db 3c 46 b4 86 3d 86 e5 7f bd
       -0.088106796 0.026816523 0.06577353 -0.06247475
000110 f7 c2 85 3b e9 eb 00 bd 93 2a fb bd 46 26 8b bd
       0.0040820795 -0.03147498 -0.1226398 -0.067944095
000120 bb 59 0a 3e 03 d4 c2 3d 2c 1b 82 bd 2a b5 16 bd
       0.13510792 0.09513094 -0.06352839 -0.036793865
000130 b5 46 4d bc be d7 cf bd 9f e0 09 bd fd af 87 3d
       -0.012529065 -0.101485714 -0.03366148 0.06625364
000140 ec 99 8b 3d 9b 2f 94 bd bc 55 ea 3c 7b ad e9 bd
       0.06816468 -0.072356425 0.028605334 -0.11410042
000150 0f 51 a7 3d bb d6 aa bd 87 ef c6 3c 72 6e 3f 3c
       0.081697576 -0.08341738 0.024284137 0.011684047
000160 fd cf 33 bd d4 dc ac bd 07 2c 51 3d 47 e9 61 3d
       -0.043899525 -0.08440557 0.05106738 0.05515411
000170 0f b8 d8 bd c7 c2 a6 3d 9a 60 a0 3d 78 f3 eb 3b
       -0.105819814 0.081426196 0.07830925 0.0072006546
000180 3a d7 51 3e 65 b0 04 be 28 cf 25 bc 1b 46 ab 3d
       0.20492259 -0.12957914 -0.010120191 0.08362981

linear3.bias f4 [2]
000000 b9 74 1a 3e 2d 94 1b be
       0.15083589 -0.15193243
