1/checkpoints/origin/2020-11-16T11-33-21-16-classify/classify_fold0_origin_0.936923.pth (torch, 14565 bytes, 6 tensors)

linear1.weight f4 [50, 6]
0	0x3def3823	0.11680629
1	0x3ea1c3eb	0.31594786
2	0xbe888b69	-0.26668862
3	0x3e81562b	0.25261053
4	0x3df5f241	0.12009097
5	0x3e31baf2	0.1735647
6	0xbdbab7d1	-0.091170914
7	0x3d834c98	0.064110935
8	0xbb8e6a56	-0.0043461723
9	0xbe2960f7	-0.16540895
10	0x3e91da06	0.2848665
11	0x3d9036db	0.07041713
12	0xbd48d733	-0.049033355
13	0x3c5be041	0.0134201655
14	0xbe7b8918	-0.24564016
15	0x3e161ace	0.14658663
16	0xbe8f6c5e	-0.28012365
17	0x3ebcaef2	0.36852223
18	0x3ee642e3	0.44972906
19	0xbeb4a8d0	-0.35285044
20	0xbe9f74e8	-0.3114388
21	0xbea4459a	-0.32084352
22	0xbc45b46f	-0.0120669445
23	0xbe213007	-0.15740977
24	0xbea1b898	-0.31586146
25	0x3e031535	0.12801059
26	0xbe884180	-0.26612473
27	0x3e4010ea	0.18756452
28	0x3ea2fa6c	0.31831682
29	0xbe55b191	-0.20868517
30	0xbdbdb5db	-0.09263202
31	0xbe545854	-0.2073682
32	0xbe922b7e	-0.28548807
33	0x3cccff67	0.02502413
34	0xbebdae58	-0.37047076
35	0xbeb95d0c	-0.36203802
36	0xbe92eec3	-0.28697786
37	0xbe23dfda	-0.16003361
38	0xbd2ad2a4	-0.04170479
39	0x3dcd3275	0.100193895
40	0x3ecef226	0.4041912
41	0xbecdc93b	-0.4019259
42	0x3e1f3238	0.155465
43	0xbe48367f	-0.19552039
44	0xbe27c15d	-0.16382356
45	0xbe969e89	-0.29417828
46	0x3e97d3d9	0.29653814
47	0xbde7dea1	-0.1132176
48	0x3e3076bd	0.17232795
49	0xbc9d9ae5	-0.019238899
50	0x3e27101b	0.16314737
51	0xbd746310	-0.059664786
52	0x3e8eda40	0.27900887
53	0x3d5a38b9	0.05327675
54	0xbdecac10	-0.11556256
55	0xbea5a8d3	-0.32355365
56	0x3e9077e1	0.2821646
57	0x3b2f321f	0.0026732755
58	0xbe98059f	-0.2969179
59	0x3da5b657	0.08091419
60	0x3e8a44fa	0.2700575
61	0xbcdd2ef5	-0.02699993
62	0xbe400054	-0.18750125
63	0xbeb5f3b1	-0.35537484
64	0xbeb449fe	-0.35212702
65	0x3e16ff7b	0.14745896
66	0x3e3fe4f8	0.18739688
67	0xbe4c0eb4	-0.19927484
68	0x3d26c417	0.04071435
69	0x3ec1a5bc	0.37821758
70	0x3eb17586	0.34659976
71	0x3ebb389f	0.36566636
72	0xbe13c2c9	-0.14429773
73	0x3ec18bf0	0.37802076
74	0xbe3b3782	-0.18282893
75	0xbe86b492	-0.2630964
76	0xbdc976ed	-0.098371364
77	0xbdd2393f	-0.10264825
78	0xbeaffbc5	-0.34371772
79	0x3e4405a7	0.19142781
80	0xbd382f39	-0.04496691
81	0xbda448e4	-0.08021715
82	0x3c3f99fa	0.011694426
83	0xbe86d6ae	-0.26335663
84	0x3d2e55f8	0.042562455
85	0x3eb4644d	0.35232773
86	0xbe9e111a	-0.30872422
87	0x3e0300e6	0.12793311
88	0x3e6f52e1	0.2337146
89	0x3df0f30e	0.11765109
90	0x3da4a87b	0.080399476
91	0xbec2b68d	-0.380299
92	0xbe6038fd	-0.2189674
93	0xbe78936d	-0.24274988
94	0x3e9f2298	0.3108108
95	0xbec37a75	-0.38179365
96	0x3e99c945	0.3003637
97	0xbe90e16c	-0.28296983
98	0x3e4530fe	0.1925697
99	0xbe8fef72	-0.2811237
100	0xbe6829c6	-0.22672185
101	0x3d767d10	0.060177863
102	0x3ebd3fc1	0.36962703
103	0x3dde3743	0.10850384
104	0xbe838aee	-0.25691932
105	0xbeb91594	-0.36149275
106	0x3e1456af	0.14486192
107	0x3e6e5bfa	0.23277274
108	0xbe3ab2d4	-0.1823228
109	0x3ebc1620	0.3673563
110	0xbec147fd	-0.37750235
111	0xbd23a4f6	-0.03995224
112	0x3e68dd66	0.22740707
113	0x3ba0914c	0.0049001332
114	0xbe969f0a	-0.29418212
115	0xbe241a6c	-0.16025704
116	0xbe456f0e	-0.19280645
117	0x3dab1689	0.083539076
118	0x3e75298e	0.23941633
119	0xbe8b4a8a	-0.27205306
120	0xbe163467	-0.14668427
121	0x3ea9acc1	0.33139613
122	0xbd94c71a	-0.07264538
123	0x3eac4aa3	0.33650693
124	0x3e032121	0.12805606
125	0xbd256cd7	-0.040387
126	0x3e95130f	0.29116103
127	0xbe8c4b15	-0.27401033
128	0x3e823c4d	0.2543663
129	0xbde084e2	-0.109628454
130	0xbe48dc6f	-0.19615339
131	0x3eb05908	0.34442925
132	0x3e6e30a7	0.23260747
133	0x3e445b34	0.19175416
134	0xbe237c33	-0.15965347
135	0xbe9cb590	-0.3060727
136	0x3ec59822	0.3859263
137	0x3e655491	0.22395541
138	0x3da2ec10	0.079551816
139	0xbc67686b	-0.014124016
140	0xbe335d5b	-0.17516081
141	0xbe8f8ec2	-0.28038603
142	0xbe78ff26	-0.24316081
143	0xbe6b70c7	-0.2299224
144	0x3e796962	0.24356607
145	0x3d954fc4	0.07290605
146	0xbd8f6a1a	-0.07002659
147	0x3c3daf80	0.011577487
148	0x3e649c2b	0.22325198
149	0xbe9958f1	-0.2995067
150	0xbeabb469	-0.3353608
151	0xbe56f16a	-0.2099053
152	0x3df43882	0.119248405
153	0xbd35658a	-0.04428629
154	0xbe8ff7ee	-0.28118843
155	0x3ed29681	0.4113045
156	0x3e934722	0.28765208
157	0xbebbf8ca	-0.36713248
158	0x3dff6330	0.124700904
159	0xbe01da3e	-0.12680909
160	0x3eb8335a	0.35976678
161	0xbe623418	-0.22090185
162	0x3e0dca2a	0.1384665
163	0x3e4bb91c	0.19894832
164	0xbdf9c840	-0.12196398
165	0x3d12526b	0.03572313
166	0xbe731132	-0.23737028
167	0x3d38a637	0.04508039
168	0xbe948515	-0.29007784
169	0xbe94b0d4	-0.2904116
170	0xbe92e15a	-0.28687555
171	0x3a1ad403	0.0005906226
172	0x3e9d8eda	0.3077305
173	0x3ece557d	0.40299597
174	0xbe69dccc	-0.22838134
175	0x3e0a97c7	0.13534461
176	0x3d632abf	0.055460688
177	0x3c06bb7d	0.008223412
178	0xbea53f4d	-0.32274857
179	0x3e03aa05	0.12857826
180	0xbe050ad8	-0.12992418
181	0x3e875421	0.26431373
182	0x3ea2a585	0.31766906
183	0x3da45c27	0.08025389
184	0x3ed5af37	0.4173524
185	0xbe45f77c	-0.19332689
186	0xbe7a2ba8	-0.24430716
187	0x3ecadb26	0.39620322
188	0x3e77a1f9	0.24182881
189	0xbe048110	-0.12939858
190	0xbd57d0f3	-0.052689504
191	0xbe2bcaa7	-0.16776524
192	0x3ec4e09d	0.38452616
193	0xbdb79e5b	-0.08965751
194	0x3ec41abf	0.38301656
195	0xbebd3599	-0.36954954
196	0xbea922fd	-0.33034506
197	0xbe89a656	-0.26884717
198	0x3e7190a1	0.23590328
199	0x3ea63f16	0.32470006
200	0xbdc9e0cf	-0.09857332
201	0xbe17d9c3	-0.14829163
202	0x3e7b57a1	0.24545147
203	0x3eb072db	0.34462628
204	0xbec77944	-0.38959706
205	0x3e74291e	0.2384381
206	0x3e72a0c7	0.23694144
207	0x3d0d2611	0.03446013
208	0x3dc4d559	0.09611005
209	0x3e870e28	0.26377988
210	0x3e8c8e18	0.2745216
211	0x3c2c01a6	0.01049844
212	0xbe5f179d	-0.21786352
213	0x3e8a1b10	0.26973772
214	0xbb906395	-0.0044064024
215	0xbe7208ff	-0.23636244
216	0x3d61c25c	0.055116996
217	0xbeb174d0	-0.34659433
218	0x3e946bd5	0.2898852
219	0x3e672a41	0.22574712
220	0x3ec7277e	0.38897318
221	0x3de4e67e	0.111767754
222	0x3e90bd83	0.28269586
223	0x3d515aab	0.05111186
224	0xbcb8c6b3	-0.022555685
225	0xbea41352	-0.3204599
226	0xbe7830b0	-0.24237323
227	0xbdec9bf7	-0.115531854
228	0xbc3aca0f	-0.011400714
229	0xbd99562a	-0.074871376
230	0xbe15311e	-0.14569518
231	0x3e2fc53b	0.17165081
232	0x3e9fed51	0.31235746
233	0xbe777852	-0.24166992
234	0x3e944fdb	0.28967175
235	0x3e8a7905	0.27045456
236	0x3cdcd553	0.02695719
237	0xbec55108	-0.38538384
238	0x3e6a3140	0.2287035
239	0x3ecb0362	0.39651018
240	0x3ec8edcc	0.39243925
241	0x3e00971c	0.12557644
242	0xbd49e178	-0.04928729
243	0xbeb8117d	-0.35950842
244	0xbcb1c881	-0.021702053
245	0x3decbbd8	0.11559266
246	0xbec6728c	-0.38759267
247	0xbe8f5b18	-0.27999187
248	0xbdac2e85	-0.084073104
249	0x3dabf4a6	0.08396272
250	0x3e8e0b07	0.27742788
251	0x3ebf4d76	0.37363786
252	0x3cafb466	0.021448325
253	0x3e891e38	0.26780868
254	0xbe8b5f10	-0.27220964
255	0x3e1797d8	0.14804018

linear1.bias f4 [50]
0	0xbebfbfc3	-0.3745099
1	0x3ba801e3	0.005127178
2	0xbe4cec51	-0.20012023
3	0xbcaf54eb	-0.021402797
4	0xbe85535b	-0.26040158
5	0xbe998d84	-0.2999078
6	0x3e5e1341	0.21687032
7	0x3ea0f2f0	0.31435347
8	0x3c99d2db	0.018777302
9	0xbe998f84	-0.29992306
10	0xbd56f44a	-0.052479066
11	0x3e6ef4f5	0.23335631
12	0x3ebab8d5	0.3646914
13	0xbebb222c	-0.3654951
14	0xbe703532	-0.23457792
15	0xbecd0438	-0.4004228
16	0xbe9a314f	-0.30115744
17	0x3ebc1692	0.3673597
18	0xbe831e0e	-0.25608867
19	0x3e7af021	0.24505664
20	0xbe08d7f6	-0.13363633
21	0xbed7e3eb	-0.42166075
22	0xbd749072	-0.059708066
23	0x3e87348a	0.26407272
24	0x3eddb968	0.43305516
25	0xbed84cb0	-0.42246008
26	0xbcf16d8a	-0.029471178
27	0x3e6884f1	0.22706963
28	0x3e96ddec	0.29466188
29	0xbe9f5e96	-0.3112685
30	0x3d1c8685	0.038214225
31	0x3e693879	0.22775449
32	0xbebb89f9	-0.36628702
33	0x3ad61f3d	0.0016336214
34	0xbeb4a7e6	-0.35284346
35	0x3d13f9cb	0.036126893
36	0x3e5feecd	0.21868439
37	0xbe7f76cb	-0.2494766
38	0x3e9f796a	0.3114732
39	0x3df0472f	0.11732327
40	0x3e94a7f7	0.29034397
41	0x3d086db2	0.03330774
42	0x3e579076	0.21051201
43	0x3e8dd102	0.27698523
44	0x3e5f7f7d	0.21825977
45	0xbe80bc4b	-0.25143656
46	0xbe8b3ed0	-0.2719636
47	0xbe478103	-0.19482808
48	0x3e920753	0.28521213
49	0xbe87c8a9	-0.2652028

linear2.weight f4 [50, 50]
0	0x3db1abc6	0.08675341
1	0x3c8f0a19	0.01746087
2	0xbd03c585	-0.03217079
3	0x3d80f859	0.062973686
4	0x3d96f6da	0.07371302
5	0x3d028111	0.03186137
6	0xbd03f557	-0.032216396
7	0x3c5379f6	0.012907496
8	0xbdcdd53b	-0.10050436
9	0x3d327553	0.04356892
10	0x3d449438	0.047992915
11	0xbc0dd1a2	-0.008655937
12	0x3de4dd5f	0.11175036
13	0x3db3af51	0.08773673
14	0xbdafc9a3	-0.08583381
15	0xbdd25f8b	-0.102721296
16	0xbd279997	-0.04091796
17	0x3dd5183b	0.10405012
18	0x3d7c0f48	0.06153801
19	0xbcdd7dfa	-0.02703761
20	0xbd51403e	-0.051086657
21	0x3dfa07f6	0.1220855
22	0x3dad66e9	0.08466894
23	0x3df03fe7	0.117309384
24	0xbd83f118	-0.06442469
25	0x3ddeb711	0.10874761
26	0x3df3e15e	0.1190822
27	0x3d7e0c92	0.062023707
28	0xbd87ee6a	-0.06637271
29	0x3dad8c91	0.084740765
30	0xbdd4ada5	-0.103846826
31	0x3e1cf735	0.15328677
32	0x3cd598b7	0.026073797
33	0xbddfe2ae	-0.109319076
34	0x3d7d09ad	0.061776806
35	0x3e00a9cc	0.12564772
36	0xbc44dc6a	-0.012015441
37	0xbe19742d	-0.14985724
38	0xbdab50ca	-0.08365019
39	0xbd89c000	-0.06726074
40	0xbdb74253	-0.08948197
41	0x3d893151	0.066988595
42	0x3db93284	0.09042838
43	0x3ddc1b61	0.107474096
44	0x3de8e52b	0.11371835
45	0xbd4d4003	-0.050109874
46	0xbdd164ea	-0.10224326
47	0x3db4bc4c	0.08824977
48	0xbe060b77	-0.13090311
49	0x3d7cea07	0.061746623
50	0xbd563da0	-0.052304864
51	0xbe0d05dd	-0.13771768
52	0xbd3b94e6	-0.045796297
53	0xbdac6aa6	-0.08418779
54	0x3da2f9d9	0.07957811
55	0xbdbaf5d1	-0.09128917
56	0x3dea4a19	0.11439914
57	0x3d2b2dfd	0.041791905
58	0xbdba073f	-0.09083413
59	0x3ddff85b	0.10936042
60	0x3d8ccd6d	0.06875119
61	0xbdd51168	-0.104037106
62	0xbe0ab03e	-0.13543794
63	0xbd03e0ac	-0.032196686
64	0xbdda13e1	-0.10648323
65	0x3c6ea200	0.014564991
66	0xbcdd2f98	-0.027000234
67	0xbdaf7147	-0.08566528
68	0x3daff2cb	0.08591231
69	0xbd15adbb	-0.036542635
70	0x3daf2986	0.08552842
71	0xbd8e511f	-0.06949066
72	0xbe02060e	-0.12697622
73	0xbc836731	-0.016040416
74	0x3e0ea069	0.13928379
75	0x3b7ed126	0.0038881986
76	0xbe0c373a	-0.13692942
77	0xbc8d2ecf	-0.017234234
78	0x3de23dab	0.110469185
79	0x3cfdadae	0.030966606
80	0x3df6718e	0.120333776
81	0xbd945d9b	-0.07244416
82	0xbde327b2	-0.11091556
83	0x3d6a6d77	0.0572333
84	0xbdfc85e8	-0.12330228
85	0xbc9383d1	-0.01800719
86	0x3e0cee4c	0.13762778
87	0x3c812b2e	0.01576766
88	0xbdc9a4e7	-0.09845906
89	0x3d947068	0.07248002
90	0xbd55c00b	-0.0521851
91	0xbdeb0278	-0.1147508
92	0xbc654798	-0.01399412
93	0xbdbf3b59	-0.093374915
94	0xbc6872ed	-0.014187557
95	0xbcfb17c2	-0.030650977
96	0x3ca88116	0.020569365
97	0x3d987211	0.074436314
98	0xbbc0b88a	-0.005881374
99	0x3dd402b5	0.10352079
100	0x3c9950e7	0.018715335
101	0xbc943666	-0.018092345
102	0xbdfa9d59	-0.12237043
103	0xbd1b3d3e	-0.037900202
104	0xbacc8474	-0.0015603439
105	0x3dc7af38	0.09750217
106	0xbe07de37	-0.13268362
107	0x3bca3ee8	0.00617205
108	0x3e10e4b0	0.14149737
109	0xbd9b14bb	-0.075723134
110	0x3db85939	0.09001393
111	0x3dcc8b54	0.09987512
112	0x3d28b636	0.041189395
113	0xbd8c1ea7	-0.06841784
114	0x3c84164b	0.016123911
115	0x3dbfa5c9	0.09357793
116	0x3d3e4d34	0.046460345
117	0x3dcadb47	0.09905105
118	0x3da60f1f	0.08108353
119	0xbdd5fba9	-0.10448391
120	0xbdac11b5	-0.08401815
121	0xbd1d6eb0	-0.038435638
122	0x3e2da1b1	0.16956212
123	0x3e130601	0.14357759
124	0x3e153adb	0.14573233
125	0x3cc9d971	0.024639817
126	0x3cac845a	0.021059204
127	0x3e0a5b26	0.13511333
128	0xbc65f6be	-0.014035879
129	0xbc29d06d	-0.010364634
130	0xbd356f62	-0.044295676
131	0x3dab09c0	0.08351469
132	0x3d5aa1b9	0.053376887
133	0x3b5dbc86	0.0033834293
134	0x3d5d0575	0.053960282
135	0x3e324e76	0.17412743
136	0x3d715a00	0.05892372
137	0x3dde5133	0.10855331
138	0xbdcb5b42	-0.099295154
139	0xbd9a4470	-0.07532585
140	0x3e30eff6	0.17279038
141	0x3d3f39b6	0.046685897
142	0xbd011aba	-0.03151963
143	0xbde83d8e	-0.113398656
144	0x3c33d901	0.010977031
145	0xbdea959a	-0.114543155
146	0x3e5125d3	0.20424585
147	0x3d0b53c3	0.03401543
148	0xbcd1efc1	-0.025627019
149	0x3df84a22	0.12123515
150	0x3e038d44	0.12846857
151	0xbd63608f	-0.055512007
152	0xbd01e83e	-0.031715624
153	0x3dedf06c	0.116181225
154	0x39bb10ab	0.00035679838
155	0x3cc06bb6	0.02348886
156	0xbdfa793c	-0.12230155
157	0xbcf9d001	-0.030494692
158	0xbd2594c5	-0.04042508
159	0xbcefd4b4	-0.02927623
160	0x3d87afb5	0.0662531
161	0xbde77ebb	-0.11303469
162	0x3d78b965	0.06072368
163	0xbda73b8c	-0.081656545
164	0xbcada80d	-0.021198297
165	0xbd756d96	-0.059918962
166	0x3d457232	0.04820461
167	0x3d41cf5f	0.047316905
168	0xbdbaf03f	-0.091278546
169	0x3ddcae16	0.10775392
170	0xbda5d27f	-0.080967896
171	0xbcdea45b	-0.02717798
172	0xbd6a3dc7	-0.05718782
173	0xbd1542d5	-0.03644069
174	0xbc2f83c9	-0.010712572
175	0xbd1bf075	-0.038071115
176	0xbb1bdd78	-0.0023783129
177	0xbd01cf76	-0.03169199
178	0x3dd4abc5	0.10384325
179	0xbdfd589f	-0.12370419
180	0x3d41986c	0.0472645
181	0x3d8b12c9	0.06790692
182	0x3dd09cf4	0.101861864
183	0xbc8e884d	-0.017398978
184	0xbdf7ce7b	-0.1209993
185	0x3e229b33	0.15879516
186	0xbba816f1	-0.005129688
187	0x3db406d0	0.08790362
188	0x3e02a17e	0.12756917
189	0x3d5b61f8	0.053560227
190	0x3da82312	0.08209814
191	0xbdc387ad	-0.095473625
192	0xbd393f04	-0.045226112
193	0x3d99bde7	0.07506924
194	0xbd8ea290	-0.069646
195	0xbd99af19	-0.075041
196	0x3e0f21b3	0.13977699
197	0xbda56ad6	-0.08077018
198	0x3df3f34b	0.11911639
199	0x3c8a5c9d	0.016889865
200	0xbd355743	-0.044272672
201	0xbe196775	-0.14980872
202	0xbe0ed762	-0.1394935
203	0xbdfbee07	-0.123012595
204	0xbda75661	-0.08170772
205	0xbc8bade6	-0.017050695
206	0xbddb4026	-0.10705595
207	0xbe0220df	-0.12707852
208	0xbd004937	-0.031319823
209	0x3d6d94aa	0.058003105
210	0x3cb43752	0.021999035
211	0xbdef1df8	-0.11675638
212	0xbc93ab0c	-0.018025897
213	0xbd952a43	-0.072834514
214	0x3cf90401	0.030397417
215	0xbcc3f447	-0.023920191
216	0x3c27403f	0.010208189
217	0x3da19e45	0.07891516
218	0xbb0e6bd7	-0.0021731758
219	0xbb6dbcaf	-0.0036275794
220	0x3df3d988	0.11906725
221	0xbd27b290	-0.040941775
222	0xbdb83f77	-0.0899648
223	0xbda039e3	-0.07823541
224	0x3d995537	0.074869566
225	0xbd72ebc3	-0.05930687
226	0xbdd2aa2e	-0.102863654
227	0x3c033cbd	0.008010087
228	0x3df55c61	0.119805105
229	0xbd463c92	-0.048397608
230	0xbdf16e80	-0.11788654
231	0xbe0697a6	-0.13143787
232	0x3e0b7bda	0.13621464
233	0xbceac305	-0.028657446
234	0xbd0c65cd	-0.034276772
235	0xbe0b939c	-0.13630527
236	0x3d324576	0.043523274
237	0xbdf23331	-0.1182617
238	0xbdc0bbab	-0.09410795
239	0xbc14196b	-0.009039263
240	0x3bfaf1eb	0.0076582334
241	0xbd661cce	-0.056179814
242	0xbe1442c3	-0.14478593
243	0x3d22c975	0.039742906
244	0x3df1dd83	0.11809828
245	0x3dfcd9d8	0.12346238
246	0xbdca6f27	-0.09884482
247	0xbd2734c9	-0.040821824
248	0x3dffbd27	0.1248725
249	0xbdb1eb5b	-0.086874686
250	0xbe069451	-0.13142516
251	0x3d9bd951	0.07609809
252	0x3dd26f74	0.10275164
253	0x3d5b403c	0.053528056
254	0xbdc17ec0	-0.09448004
255	0x3daafa0e	0.083484754

linear2.bias f4 [50]
0	0xbe073848	-0.13205063
1	0x3d91a1e8	0.07110959
2	0x3d443183	0.04789878
3	0x3e117ad2	0.14207008
4	0xbde68f1d	-0.112577654
5	0x3d320cde	0.043469302
6	0xbdd4f739	-0.103987165
7	0x3cca8196	0.024719995
8	0xbd8d3cf2	-0.0689639
9	0x3d9a5cf1	0.075372584
10	0x3dfcba6b	0.12340244
11	0xbd911bd9	-0.0708539
12	0xbe223b4e	-0.15842935
13	0xbe0dc02d	-0.1384284
14	0xbd21e2de	-0.039522998
15	0xbd8da4b9	-0.06916184
16	0x3dbdd272	0.09268655
17	0x3cd6cddd	0.02622121
18	0x3b867c50	0.0041041747
19	0x3d2ca577	0.042149987
20	0x3bf79425	0.007555502
21	0xbc07332b	-0.0082519455
22	0x3e29a71d	0.16567655
23	0xbd1f2569	-0.038854036
24	0x3cffc474	0.031221606
25	0x3d6fdfc0	0.058562994
26	0x3c908314	0.017640628
27	0x3e02590a	0.12729278
28	0x3da879c1	0.08226348
29	0xbd76232c	-0.060092136
30	0x3d8e48fb	0.06947514
31	0x3da9d5aa	0.08292706
32	0x3cfe00a9	0.031006174
33	0xbc77b2fb	-0.015118356
34	0xbe2073f7	-0.15669237
35	0xbd962f55	-0.073332466
36	0xbe1b9a4b	-0.15195577
37	0xbcd8f59f	-0.026484309
38	0x3ded4c12	0.11586775
39	0xbd1b5cd8	-0.03793034
40	0x3dbf38c6	0.093370005
41	0x3cab5e48	0.02091898
42	0xbdb3ccbd	-0.08779285
43	0x3da8203c	0.08209273
44	0x3cd07cc8	0.025450125
45	0xbcac4b65	-0.021032045
46	0xbd2b63fd	-0.041843403
47	0xbdc6106e	-0.096711025
48	0xbd70084b	-0.05860166
49	0xbdd06592	-0.10175623

linear3.weight f4 [2, 50]
0	0xbe0894d6	-0.13338026
1	0xbc424132	-0.011856364
2	0x3d9160ec	0.070985645
3	0x3d9d0a1d	0.076679446
4	0x3d763749	0.060111318
5	0x3d026ff5	0.03184505
6	0xbc9c05c9	-0.019045727
7	0x3db94b06	0.09047513
8	0xbc0e16f9	-0.008672469
9	0x3df787d4	0.12086454
10	0x3dd3a55c	0.10334274
11	0x3c3fb82b	0.011701624
12	0xbdff69a0	-0.12471318
13	0xbe083c53	-0.13304262
14	0xbba633d0	-0.0050720945
15	0x3d62b8f4	0.055352166
16	0x3de8659c	0.113475055
17	0x3d80f0d8	0.06295937
18	0xbd7c6977	-0.061624017
19	0x3d8e9f36	0.06963961
20	0xbdaa7e09	-0.083248205
21	0xbde9ab83	-0.114096664
22	0x3d1b76f2	0.037955232
23	0x3e0bf386	0.13667116
24	0x3df33257	0.11874836
25	0x3d9d55aa	0.07682355
26	0x3da74a0e	0.08168422
27	0x3db1469d	0.086560465
28	0x3dd5c0a6	0.104371354
29	0xbe0db986	-0.13840303
30	0x3e0614f9	0.13093938
31	0x3db8e3d7	0.09027832
32	0xbc31ab17	-0.010844014
33	0xbdea416c	-0.114382595
34	0xbdfae05e	-0.12249826
35	0x3de09b5e	0.10967134
36	0x3c99ed3c	0.01878988
37	0xbdb41a63	-0.08794095
38	0xbdace609	-0.08442313
39	0x3d647a94	0.055780962
40	0x3e0c7460	0.13716269
41	0x3d9d1b33	0.076712035
42	0x3da45c21	0.08025385
43	0x3dc57d87	0.09643083
44	0xbdcbbcec	-0.09948143
45	0xbda6ab5e	-0.081381544
46	0xbdc6d708	-0.09708983
47	0x3da15802	0.07878114
48	0xbe15be53	-0.14623384
49	0xbd6e5f1e	-0.05819618
50	0x3d88f411	0.06687177
51	0xbc3e3d6b	-0.011611323
52	0xbdddb9db	-0.10826465
53	0xbd150fed	-0.03639214
54	0x3da0c373	0.07849779
55	0x3d07fe78	0.033201665
56	0x3dd18ffc	0.10232541
57	0xbd132c3b	-0.035930853
58	0x3e0ba231	0.1363609
59	0x3c848916	0.016178649
60	0x3d3e3cc1	0.04644466
61	0xbd82e009	-0.063903876
62	0xbc71b754	-0.0147531815
63	0xbd825e2d	-0.06365619
64	0x3d6bf855	0.057609875
65	0xbdb4511f	-0.08804535
66	0xbdb69a58	-0.089161575
67	0xbc8e8db6	-0.017401557
68	0x3d42e44e	0.04758101
69	0x3da1b394	0.0789558
70	0x3d787d99	0.060666654
71	0x3df70a10	0.12062466
72	0xbdaaca76	-0.083393976
73	0x3e0fa5ff	0.14028166
74	0x3ced3e52	0.02896038
75	0xbcf04a51	-0.029332312
76	0x3def309f	0.116791956
77	0xbdef11ed	-0.11673341
78	0xbe03d2ec	-0.12873429
79	0x3b340ce6	0.0027473508
80	0x3d11a474	0.035557225
81	0xbe036ef2	-0.12835291
82	0x3da87946	0.08226256
83	0x3dc225af	0.09479844
84	0x3ce4028d	0.027833248
85	0xbe204b1b	-0.1565365
86	0x3dfb2558	0.12262982
87	0x3dbc5c3e	0.09197281
88	0x3bbacf0a	0.0057009505
89	0xbdd2559c	-0.10270235
90	0xbd5781c1	-0.052613977
91	0xbd91e984	-0.07124618
92	0x3dc11624	0.09428051
93	0xba29944e	-0.00064689375
94	0x3c01be4a	0.007918904
95	0xbd14604c	-0.03622465
96	0x3b9698fc	0.004595874
97	0x3dfcad2b	0.12337717
98	0xbd1e0ba5	-0.038585324
99	0x3e09ef53	0.13470201

linear3.bias f4 [2]
0	0x3ce6ef05	0.028190145
1	0xbdff2491	-0.12458146
