1/checkpoints/origin/2020-11-16T11-33-21-16-classify/classify_fold0_origin_0.753077.pth (torch, 14565 bytes, 6 tensors)

linear1.weight f4 [50, 6]
0	0x3dff2d4e	0.12459813
1	0x3ea33c56	0.3188197
2	0xbe877c37	-0.26461956
3	0x3e84b6ef	0.25920817
4	0x3e073f09	0.1320764
5	0x3e35b5ca	0.17745128
6	0xbdac3dcb	-0.084102236
7	0x3d92b4ec	0.07163414
8	0x3af6e2d3	0.001883591
9	0xbe1ea52e	-0.15492699
10	0x3e938b1b	0.28817067
11	0x3d9e80f1	0.07739437
12	0xbd48d733	-0.049033355
13	0x3c5be041	0.0134201655
14	0xbe7b8918	-0.24564016
15	0x3e161ace	0.14658663
16	0xbe8f6c5e	-0.28012365
17	0x3ebcaef2	0.36852223
18	0x3ed642ad	0.41847745
19	0xbec09ddd	-0.3762044
20	0xbeb132e8	-0.3460915
21	0xbeb34cc5	-0.35019508
22	0xbd4abdbd	-0.049497355
23	0xbe43fe59	-0.19139995
24	0xbea1b898	-0.31586146
25	0x3e031535	0.12801059
26	0xbe884180	-0.26612473
27	0x3e4010ea	0.18756452
28	0x3ea2fa6c	0.31831682
29	0xbe55b191	-0.20868517
30	0xbdbdb5db	-0.09263202
31	0xbe545854	-0.2073682
32	0xbe922b7e	-0.28548807
33	0x3cccff67	0.02502413
34	0xbebdae58	-0.37047076
35	0xbeb95d0c	-0.36203802
36	0xbe92eec3	-0.28697786
37	0xbe23dfda	-0.16003361
38	0xbd2ad2a4	-0.04170479
39	0x3dcd3275	0.100193895
40	0x3ecef226	0.4041912
41	0xbecdc93b	-0.4019259
42	0x3e2426b5	0.1603039
43	0xbe43cae6	-0.19120368
44	0xbe2374e7	-0.15962563
45	0xbe9487d1	-0.2900987
46	0x3e9b2abd	0.30306044
47	0xbdde6fa4	-0.108611375
48	0x3e277b78	0.16355693
49	0xbbea16e8	-0.007143844
50	0x3e29db5c	0.16587585
51	0xbd6cb297	-0.057787504
52	0x3e7bb6f5	0.24581511
53	0x3d8c2574	0.06843081
54	0xbdec6b6b	-0.11543926
55	0xbe95457b	-0.29154572
56	0x3e9b89a9	0.30378464
57	0x3adf342f	0.0017029102
58	0xbe99e69c	-0.30058753
59	0x3dc62e9b	0.09676858
60	0x3e8abd5c	0.27097595
61	0xbcdafabf	-0.026730893
62	0xbe3f512c	-0.18683308
63	0xbeb5cd19	-0.3550804
64	0xbeb2b7a1	-0.34905723
65	0x3e17b2cd	0.14814301
66	0x3e43952a	0.1909987
67	0xbe5daee1	-0.21648742
68	0x3d0124cc	0.031529233
69	0x3ec3414e	0.3813576
70	0x3eb7e6a5	0.35918155
71	0x3eb8f307	0.36122915
72	0xbe1d2b1a	-0.15348473
73	0x3ebf67f8	0.3738401
74	0xbe3a8070	-0.18213058
75	0xbe6da7e2	-0.23208573
76	0xbded9527	-0.11600714
77	0xbdb8824e	-0.09009229
78	0xbeae90fb	-0.34094986
79	0x3e4d2ae5	0.20035894
80	0xbd102c08	-0.03519824
81	0xbd8beabf	-0.06831884
82	0x3c52a6e7	0.012857175
83	0xbe831fdc	-0.25610244
84	0x3d0b1b97	0.03396186
85	0x3ea97b5b	0.33101925
86	0xbea810f4	-0.32825434
87	0x3e1c762f	0.15279458
88	0x3e5dddb0	0.21666598
89	0x3df48e02	0.11941148
90	0x3da4a87b	0.080399476
91	0xbec2b68d	-0.380299
92	0xbe6038fd	-0.2189674
93	0xbe78936d	-0.24274988
94	0x3e9f2298	0.3108108
95	0xbec37a75	-0.38179365
96	0x3e991a99	0.29903105
97	0xbe83f238	-0.25770736
98	0x3e440881	0.19143869
99	0xbe8c603e	-0.27417177
100	0xbe7c823f	-0.2465906
101	0x3d8dcc45	0.06923727
102	0x3ebd6e1e	0.36998075
103	0x3dd6a1cf	0.10480081
104	0xbe837817	-0.2567756
105	0xbeb8bedf	-0.36083123
106	0x3e13011b	0.1435589
107	0x3e6f40e3	0.23364596
108	0xbe3ab2d4	-0.1823228
109	0x3ebc1620	0.3673563
110	0xbec147fd	-0.37750235
111	0xbd23a4f6	-0.03995224
112	0x3e68dd66	0.22740707
113	0x3ba0914c	0.0049001332
114	0xbe969f0a	-0.29418212
115	0xbe241a6c	-0.16025704
116	0xbe456f0e	-0.19280645
117	0x3dab1689	0.083539076
118	0x3e75298e	0.23941633
119	0xbe8b4a8a	-0.27205306
120	0xbe037e90	-0.12841249
121	0x3ead93ec	0.33901918
122	0xbd944bbc	-0.07241008
123	0x3eab3d0b	0.3344501
124	0x3e1c2dfc	0.15251917
125	0xbd4dabc0	-0.05021262
126	0x3e961e18	0.29319835
127	0xbe8bc5e2	-0.2729941
128	0x3e84dd83	0.2595025
129	0xbde21fb2	-0.11041202
130	0xbe41c0b0	-0.1892116
131	0x3eb04c6e	0.3443331
132	0x3e504279	0.20337857
133	0x3e2534ed	0.16133471
134	0xbe40ad98	-0.18816221
135	0xbe971948	-0.29511476
136	0x3eaefd8b	0.34177813
137	0x3e592c34	0.21208268
138	0x3da4720b	0.080295645
139	0xbc5de795	-0.013543983
140	0xbe329bb6	-0.17442212
141	0xbe8f2f53	-0.27965793
142	0xbe7843db	-0.24244635
143	0xbe6ab558	-0.2292074
144	0x3e3f9736	0.18710026
145	0x3ca972d6	0.02068464
146	0xbe098be1	-0.13432266
147	0xbc93399b	-0.017971804
148	0x3e2c955b	0.1685385
149	0xbeb1fe04	-0.3476411
150	0xbea9eab2	-0.3318687
151	0xbe757834	-0.23971635
152	0x3df136d2	0.11778034
153	0xbd5c68fc	-0.05381106
154	0xbe7ac11d	-0.2448773
155	0x3ecaea0a	0.39631683
156	0x3e92e052	0.28686768
157	0xbeb016f4	-0.34392512
158	0x3e0d3877	0.13791071
159	0xbe04c081	-0.1296406
160	0x3eb38a98	0.35066676
161	0xbe53c8bb	-0.20682041
162	0x3e10c41b	0.14137308
163	0x3e5ea1b7	0.21741377
164	0xbddf77c2	-0.10911514
165	0x3cee20cd	0.029068375
166	0xbe65fa01	-0.2245865
167	0x3d488f9e	0.04896509
168	0xbe948515	-0.29007784
169	0xbe94b0d4	-0.2904116
170	0xbe92e15a	-0.28687555
171	0x3a1ad403	0.0005906226
172	0x3e9d8eda	0.3077305
173	0x3ece557d	0.40299597
174	0xbe7a75b6	-0.24458966
175	0x3e056120	0.13025331
176	0x3d1fb54f	0.03899127
177	0xbd0178ac	-0.031609222
178	0xbe9f7f18	-0.31151652
179	0x3dcc9ea3	0.09991195
180	0xbe05bad6	-0.13059554
181	0x3e8c12cc	0.2735809
182	0x3ea5c14d	0.3237404
183	0x3da55e1a	0.08074589
184	0x3ed0187a	0.40643674
185	0xbe3c8d01	-0.18413164
186	0xbe735540	-0.23762989
187	0x3ecb5740	0.39715004
188	0x3e76d22f	0.24103616
189	0xbe0c79d6	-0.13718352
190	0xbc9fa275	-0.019486645
191	0xbe369606	-0.17830667
192	0x3ec6a774	0.38799632
193	0xbdb8da25	-0.09025983
194	0x3ec4a014	0.3840338
195	0xbebe324f	-0.37147757
196	0xbea4bffd	-0.32177725
197	0xbe8a58c6	-0.27020854
198	0x3e724be9	0.2366177
199	0x3ea8ba96	0.32954854
200	0xbdac8a1c	-0.0842478
201	0xbe158c06	-0.14604196
202	0x3e75e4fb	0.2401313
203	0x3eb783c5	0.3584272
204	0xbec58132	-0.3857513
205	0x3e6e9a10	0.23300958
206	0x3e74b50a	0.23897186
207	0x3ccc6074	0.024948336
208	0x3dfd1567	0.12357598
209	0x3e80b39e	0.25137037
210	0x3e7c01de	0.24610087
211	0xbcef6ee1	-0.029227676
212	0xbe7d5da5	-0.24742754
213	0x3e823793	0.25433025
214	0xbd0a955b	-0.033833843
215	0xbe87d250	-0.26527643
216	0x3d689825	0.05678572
217	0xbea9b976	-0.33149308
218	0x3ea0b36c	0.31386888
219	0x3e6f773f	0.23385333
220	0x3ec02cd3	0.37534198
221	0x3e152cbf	0.1456785
222	0x3e888be3	0.26669225
223	0x3cdf84fa	0.027285088
224	0xbd49ff4b	-0.049315732
225	0xbea3c01f	-0.31982514
226	0xbe900df9	-0.2813566
227	0xbdf8f174	-0.121554285
228	0xbc32c206	-0.010910517
229	0xbd985548	-0.07438141
230	0xbe14b0a9	-0.14520516
231	0x3e304529	0.17213883
232	0x3ea02d90	0.3128476
233	0xbe76f7e0	-0.24117994
234	0x3e9262c7	0.28590986
235	0x3e8c5152	0.27405792
236	0x3d0eeca9	0.034893665
237	0xbec4e41a	-0.38455278
238	0x3e4f5e76	0.20250878
239	0x3ed2b3d4	0.41152823
240	0x3ec41f7b	0.38305268
241	0x3e02acd1	0.12761237
242	0xbd4b36d9	-0.049612854
243	0xbeb42e7e	-0.3519172
244	0xbd7377ef	-0.05944055
245	0x3e07ea48	0.13272965
246	0xbec6728c	-0.38759267
247	0xbe8f5b18	-0.27999187
248	0xbdac2e85	-0.084073104
249	0x3dabf4a6	0.08396272
250	0x3e8e0b07	0.27742788
251	0x3ebf4d76	0.37363786
252	0x3cec5a66	0.0288517
253	0x3e8d15a4	0.27555573
254	0xbe876837	-0.26446697
255	0x3e197638	0.14986503

linear1.bias f4 [50]
0	0xbeb99725	-0.36248127
1	0x3c087920	0.00832966
2	0xbe4cec51	-0.20012023
3	0xbd70d591	-0.058797423
4	0xbe85535b	-0.26040158
5	0xbe998d84	-0.2999078
6	0x3e5e1341	0.21687032
7	0x3ea44900	0.32086945
8	0xbc6e5a3e	-0.014547883
9	0xbe9b7602	-0.3036347
10	0xbd4a6749	-0.049414907
11	0x3e7bd932	0.24594572
12	0x3eb1910c	0.34680974
13	0xbeba9083	-0.3643838
14	0xbe80e8e2	-0.25177675
15	0xbecd0438	-0.4004228
16	0xbea46a3a	-0.32112294
17	0x3ebb6be6	0.36605757
18	0xbe831e0e	-0.25608867
19	0x3e7af021	0.24505664
20	0xbddf23f6	-0.10895531
21	0xbed44783	-0.4146081
22	0xbdd50aef	-0.10402476
23	0x3e87923c	0.26478755
24	0x3ec1a5c4	0.37821782
25	0xbec5ab44	-0.38607228
26	0xbd1e4108	-0.038636237
27	0x3e759942	0.23984244
28	0x3e96ddec	0.29466188
29	0xbe997708	-0.29973626
30	0x3cdef24a	0.027215142
31	0x3e85ae9c	0.2610978
32	0xbeb71e2b	-0.35765204
33	0xbb7cb54d	-0.0038560212
34	0xbea6852b	-0.32523474
35	0x3bdbcbc4	0.0067076404
36	0x3e51d725	0.20492227
37	0xbe93c52b	-0.28861365
38	0x3e9fb9a6	0.31196326
39	0x3dba499f	0.09096073
40	0x3e813e9d	0.25243083
41	0x3d086db2	0.03330774
42	0x3e5fced2	0.2185624
43	0x3ea67220	0.32508945
44	0x3e81e913	0.25373134
45	0xbe4de532	-0.20106962
46	0xbea4c729	-0.32183197
47	0xbe24166a	-0.16024175
48	0x3e8589b2	0.26081616
49	0xbe807dae	-0.25095886

linear2.weight f4 [50, 50]
0	0x3ddbc9fa	0.10731883
1	0x3c66690d	0.014063132
2	0xbd03c585	-0.03217079
3	0x3d871682	0.0659609
4	0x3d96f6da	0.07371302
5	0x3d028111	0.03186137
6	0xbd03f557	-0.032216396
7	0x3c77672b	0.015100281
8	0xbdd202ce	-0.10254441
9	0x3d2a0757	0.041510906
10	0x3d4d6552	0.050145455
11	0xbc18bc03	-0.009322169
12	0x3df5b992	0.11998285
13	0x3dbadfc0	0.09124708
14	0xbd271578	-0.04079196
15	0xbdd25f8b	-0.102721296
16	0xbd285b60	-0.041102767
17	0x3dd9c902	0.10634042
18	0x3d7c0f48	0.06153801
19	0xbcdd7dfa	-0.02703761
20	0xbd45984f	-0.048240956
21	0x3df4738a	0.119361
22	0x3ddd8159	0.10815687
23	0x3df1a9c4	0.11799958
24	0xbd508008	-0.05090335
25	0x3dd20e2d	0.1025661
26	0x3e027adb	0.12742178
27	0x3d8a3f1e	0.0675032
28	0xbd87ee6a	-0.06637271
29	0x3d90c359	0.070685096
30	0xbddad0c4	-0.1068435
31	0x3e190302	0.14942554
32	0x3ccf57f3	0.025310492
33	0xbde59f9d	-0.112120844
34	0x3d61b9aa	0.055108704
35	0x3e04d46d	0.12971659
36	0xbc5cdbd0	-0.013480142
37	0xbe0dcd0f	-0.13847755
38	0xbdaa50dd	-0.08316205
39	0xbd93d629	-0.07218582
40	0xbdb5398e	-0.08848868
41	0x3d893151	0.066988595
42	0x3dbf875c	0.093519896
43	0x3dd872ca	0.10568769
44	0x3de5603b	0.11199995
45	0xbd65dcbf	-0.056118723
46	0xbd8c01df	-0.068362944
47	0x3dac8ece	0.08425675
48	0xbe07a95a	-0.13248196
49	0x3d78f93e	0.06078457
50	0xbd563da0	-0.052304864
51	0xbe0d05dd	-0.13771768
52	0xbd3b94e6	-0.045796297
53	0xbdac6aa6	-0.08418779
54	0x3da2f9d9	0.07957811
55	0xbdbaf5d1	-0.09128917
56	0x3dea4a19	0.11439914
57	0x3d2b2dfd	0.041791905
58	0xbdba073f	-0.09083413
59	0x3ddff85b	0.10936042
60	0x3d8ccd6d	0.06875119
61	0xbdd51168	-0.104037106
62	0xbe0ab03e	-0.13543794
63	0xbd03e0ac	-0.032196686
64	0xbdda13e1	-0.10648323
65	0x3c6ea200	0.014564991
66	0xbcdd2f98	-0.027000234
67	0xbdaf7147	-0.08566528
68	0x3daff2cb	0.08591231
69	0xbd15adbb	-0.036542635
70	0x3daf2986	0.08552842
71	0xbd8e511f	-0.06949066
72	0xbe02060e	-0.12697622
73	0xbc836731	-0.016040416
74	0x3e0ea069	0.13928379
75	0x3b7ed126	0.0038881986
76	0xbe0c373a	-0.13692942
77	0xbc8d2ecf	-0.017234234
78	0x3de23dab	0.110469185
79	0x3cfdadae	0.030966606
80	0x3df6718e	0.120333776
81	0xbd945d9b	-0.07244416
82	0xbde327b2	-0.11091556
83	0x3d6a6d77	0.0572333
84	0xbdfc85e8	-0.12330228
85	0xbc9383d1	-0.01800719
86	0x3e0cee4c	0.13762778
87	0x3c812b2e	0.01576766
88	0xbdc9a4e7	-0.09845906
89	0x3d947068	0.07248002
90	0xbd55c00b	-0.0521851
91	0xbdeb0278	-0.1147508
92	0xbc654798	-0.01399412
93	0xbdbf3b59	-0.093374915
94	0xbc6872ed	-0.014187557
95	0xbcfb17c2	-0.030650977
96	0x3ca88116	0.020569365
97	0x3d987211	0.074436314
98	0xbbc0b88a	-0.005881374
99	0x3dd402b5	0.10352079
100	0xbd094bf6	-0.033519708
101	0xbcd185e5	-0.025576541
102	0xbdfa9d59	-0.12237043
103	0xbd7f75d9	-0.062368248
104	0xbacc8474	-0.0015603439
105	0x3dc7af38	0.09750217
106	0xbe07de37	-0.13268362
107	0xbc32a96b	-0.01090465
108	0x3e08c83f	0.13357638
109	0xbd97d25b	-0.07413169
110	0x3d942845	0.07234243
111	0x3daccc68	0.08437425
112	0x3c201bcc	0.009772252
113	0xbdb44001	-0.0880127
114	0xbd352edd	-0.044234145
115	0x3dbfa5c9	0.09357793
116	0x3d12650d	0.0357409
117	0x3d915a07	0.070972495
118	0x3da60f1f	0.08108353
119	0xbdd5fba9	-0.10448391
120	0xbde2783d	-0.1105809
121	0xbd2e3736	-0.042533122
122	0x3de08753	0.10963311
123	0x3e12096d	0.14261408
124	0x3d92fc1f	0.071769945
125	0x3d4f2ee9	0.050581846
126	0xbc14b852	-0.0090771485
127	0x3dcbbaa2	0.09947707
128	0xbc65f6be	-0.014035879
129	0x3ce45b73	0.027875638
130	0xbd3bc23c	-0.045839533
131	0x3dad5838	0.08464092
132	0x3d3331bd	0.043748606
133	0xbcbbb90f	-0.022915391
134	0x3d8e4e02	0.069484726
135	0x3e144850	0.1448071
136	0x3d59055b	0.052983623
137	0x3d30142b	0.042987984
138	0xbdcd5cf5	-0.10027496
139	0xbdaa8a4d	-0.0832716
140	0x3e09202f	0.13391183
141	0x3d3f39b6	0.046685897
142	0xbcf0eb1c	-0.029408984
143	0xbdf25370	-0.11832321
144	0x3bf46559	0.0074583706
145	0xbdd3db90	-0.103446126
146	0x3e0b22d7	0.13587509
147	0x3d12cf95	0.035842497
148	0xbcf70ec1	-0.030158402
149	0x3df833c7	0.12119251
150	0x3dc3e574	0.09565249
151	0xbd5d3f43	-0.05401541
152	0xbd01e83e	-0.031715624
153	0x3dcf0dde	0.10110067
154	0x39bb10ab	0.00035679838
155	0x3cc06bb6	0.02348886
156	0xbdfa793c	-0.12230155
157	0xbd2840e1	-0.0410775
158	0xbd252d88	-0.040326625
159	0xbcd4fdb6	-0.025999885
160	0x3d6baccf	0.05753785
161	0xbde8045b	-0.11328956
162	0x3d22f3a1	0.039783124
163	0xbdcc90f0	-0.09988582
164	0xbd8cad51	-0.06868995
165	0xbd756d96	-0.059918962
166	0x3d3ed57d	0.046590317
167	0x3d13119d	0.03590547
168	0xbdbaf03f	-0.091278546
169	0x3ddcae16	0.10775392
170	0xbdb93022	-0.09042384
171	0xbcc500f3	-0.024048304
172	0xbdbb5053	-0.0914618
173	0xbd188230	-0.03723353
174	0xbd5011bb	-0.05079816
175	0xbcc18d08	-0.02362682
176	0xbc8dbdc5	-0.017302403
177	0xbd3d3e42	-0.04620195
178	0x3dd4abc5	0.10384325
179	0xbdd91d40	-0.10601282
180	0x3d47b4af	0.048756298
181	0x3d901458	0.0703513
182	0x3dcd0f90	0.10012734
183	0xbca4a7d8	-0.020099565
184	0xbde51b45	-0.11186842
185	0x3e12a4a1	0.14320613
186	0xbb716fe8	-0.0036840383
187	0x3d899b8c	0.06719121
188	0x3e01f6c6	0.12691793
189	0x3d62f0d3	0.05540545
190	0x3d9ab5a9	0.0755418
191	0xbdc387ad	-0.095473625
192	0xbd4fac1d	-0.05070125
193	0x3d9ab66f	0.07554328
194	0xbd8dfb29	-0.069326706
195	0xbd889cc9	-0.066705294
196	0x3dc2773b	0.09495398
197	0xbd9fc749	-0.078016825
198	0x3df2ac4b	0.118492685
199	0x3c7c25a7	0.015389836
200	0xbd1c4098	-0.03814754
201	0xbe18de00	-0.14928436
202	0xbe0ed762	-0.1394935
203	0xbdce7a5d	-0.10081933
204	0xbda75661	-0.08170772
205	0xbc8bade6	-0.017050695
206	0xbddb4026	-0.10705595
207	0xbe026fb8	-0.1273793
208	0xbd1695ee	-0.036764078
209	0x3d4c609e	0.04989683
210	0x3cb3df56	0.02195708
211	0xbdf0015a	-0.11719008
212	0x3b08d6ae	0.0020879912
213	0xbd93dc03	-0.07219698
214	0x3d447d83	0.04797126
215	0xbcc3f447	-0.023920191
216	0x3b8a4a83	0.0042203083
217	0x3da61ba0	0.08110738
218	0xbb0e6bd7	-0.0021731758
219	0xbb6dbcaf	-0.0036275794
220	0x3e05f4fa	0.13081732
221	0xbd3dc8d4	-0.046334103
222	0xbd8dff05	-0.06933407
223	0xbda039e3	-0.07823541
224	0x3de3edf6	0.11129372
225	0xbd88619c	-0.066592425
226	0xbddf5e4d	-0.10906658
227	0x3c5f6f04	0.013637308
228	0x3df55c61	0.119805105
229	0xbd769a73	-0.060205888
230	0xbe00251a	-0.12514153
231	0xbe0ef421	-0.13960315
232	0x3e046c78	0.12932003
233	0xbcc57c60	-0.024107158
234	0xbd2cf28c	-0.0422235
235	0xbe09c313	-0.13453321
236	0x3d18f0df	0.037339088
237	0xbddbd9c5	-0.107348956
238	0xbdc0bbab	-0.09410795
239	0xbc399652	-0.011327343
240	0x3c38fd38	0.011290841
241	0xbd661cce	-0.056179814
242	0xbe13d274	-0.1443575
243	0x3d07dbb6	0.033168517
244	0x3de1c18b	0.110232435
245	0x3df0d8df	0.11760115
246	0xbdc888e3	-0.09791734
247	0xbd4d5bf0	-0.050136507
248	0x3defc3da	0.117072776
249	0xbdca4651	-0.09876693
250	0xbdf28e25	-0.11843518
251	0x3da4f5a6	0.08054666
252	0x3dd26f74	0.10275164
253	0x3db04a0f	0.086078756
254	0xbdc17ec0	-0.09448004
255	0x3daafa0e	0.083484754

linear2.bias f4 [50]
0	0xbde0ce9a	-0.10976906
1	0x3d91a1e8	0.07110959
2	0xbc23ba7c	-0.009993192
3	0x3de35e66	0.111019894
4	0xbdf3e757	-0.11909359
5	0x3d3c9426	0.046039723
6	0xbdc2449c	-0.094857424
7	0x3b9446a7	0.004525024
8	0xbd38b5fe	-0.045095436
9	0x3d66ad4c	0.056317613
10	0x3e04a514	0.12953597
11	0xbd69e5f7	-0.057104077
12	0xbe116b2f	-0.14201044
13	0xbdfd4421	-0.1236651
14	0xbd1edff0	-0.038787782
15	0xbdca78e6	-0.09886341
16	0x3d8b72f9	0.06809039
17	0xbba74a62	-0.0051053027
18	0x3b9788b8	0.0046244524
19	0x3d61b99e	0.05510866
20	0x3d0fa1bb	0.035066348
21	0xbbeee2aa	-0.007290204
22	0x3e0a6572	0.13515261
23	0xbd1f2569	-0.038854036
24	0x3c916c92	0.017751966
25	0x3d191fb1	0.03738374
26	0x3cee0c4a	0.029058594
27	0x3dc051de	0.09390615
28	0x3d6321c9	0.055452142
29	0xbd76232c	-0.060092136
30	0x3d8e48fb	0.06947514
31	0x3da9d5aa	0.08292706
32	0x3cfe00a9	0.031006174
33	0x3c129a62	0.008947941
34	0xbe0b16d6	-0.1358293
35	0xbde6e1ac	-0.11273512
36	0xbe01f97b	-0.12692825
37	0x3bf3f673	0.0074451505
38	0x3df973aa	0.12180264
39	0xbd9b4248	-0.075810015
40	0x3d924cbd	0.07143543
41	0xbbb7dd71	-0.0056111147
42	0xbda0b4a9	-0.07846958
43	0x3da5d002	0.08096315
44	0x3d36a781	0.044593338
45	0xbc1e6aa5	-0.009668981
46	0xbcc8b628	-0.024500921
47	0xbdc6106e	-0.096711025
48	0xbd20ae77	-0.039228883
49	0xbd93bb4b	-0.07213458

linear3.weight f4 [2, 50]
0	0xbe0c4119	-0.13696708
1	0xbc424132	-0.011856364
2	0x3d3bbbe5	0.045833487
3	0x3d7f247e	0.06229066
4	0x3d78d6d5	0.060751755
5	0x3d04b20e	0.03239637
6	0xbc9c05d0	-0.01904574
7	0x3db9a1ab	0.09064039
8	0xbb4fc07f	-0.003170043
9	0x3de85265	0.113438405
10	0x3dc6f202	0.09714128
11	0x3c6695e3	0.014073822
12	0xbe0176e2	-0.12643006
13	0xbe02ad11	-0.12761332
14	0xbbbb1a32	-0.00570991
15	0x3d584702	0.052802093
16	0x3deb233c	0.1148133
17	0x3d1fb353	0.038989376
18	0xbd7de497	-0.06198558
19	0x3d95a991	0.07307733
20	0xbda657b2	-0.08122195
21	0xbdeb26cb	-0.114820085
22	0x3d13a85c	0.036049232
23	0x3e0bf386	0.13667116
24	0x3df822d4	0.12116018
25	0x3da3c44d	0.07996426
26	0x3db54c90	0.08852494
27	0x3d9b95e0	0.07596946
28	0x3dd423f1	0.10358418
29	0xbe0db986	-0.13840303
30	0x3e0614f9	0.13093938
31	0x3db8e3d7	0.09027832
32	0xbc31ab17	-0.010844014
33	0xbdf97d91	-0.12182153
34	0xbdf5b0a5	-0.11996583
35	0x3de1c47c	0.110238045
36	0x3c9e7db1	0.019347044
37	0xbd9dccb9	-0.077050634
38	0xbdb2e355	-0.087347664
39	0x3d6aba3b	0.05730651
40	0x3e0b4adb	0.13602774
41	0x3d972ad2	0.07381214
42	0x3dacdb67	0.08440285
43	0x3dc777b5	0.09739629
44	0xbdcd2bb7	-0.100181036
45	0xbdab5c11	-0.0836717
46	0xbdc5f9de	-0.09666799
47	0x3da15802	0.07878114
48	0xbe1826e3	-0.14858584
49	0xbd578f7b	-0.052627068
50	0x3d20b528	0.039235264
51	0xbc3e3d6b	-0.011611323
52	0xbd759129	-0.05995289
53	0xbcee2175	-0.029068688
54	0x3d9285c5	0.07154421
55	0x3d1c0244	0.0380881
56	0x3de4c3bc	0.11170146
57	0xbd5f1575	-0.054463822
58	0x3de61ee1	0.112363584
59	0x3cbfc168	0.023407653
60	0x3d514972	0.051095434
61	0xbd9e5f00	-0.077329636
62	0xbd3a854f	-0.04553729
63	0xbdd842f4	-0.10559645
64	0x3d6e5b98	0.05819282
65	0xbdb5670f	-0.088575475
66	0xbdd0f9e4	-0.10203913
67	0xb906d781	-0.00012859517
68	0x3d4e3dc8	0.050351888
69	0x3dacdbe4	0.08440378
70	0x3c7036b7	0.014661483
71	0x3df7f80b	0.12107857
72	0xbdaea2b2	-0.085271254
73	0x3e0fa5ff	0.14028166
74	0x3cafa313	0.021440065
75	0xbcdc6f6b	-0.026908597
76	0x3e10240c	0.14076251
77	0xbd565b94	-0.05233343
78	0xbe105fc0	-0.14099026
79	0x3b340ce6	0.0027473508
80	0x3d11a474	0.035557225
81	0xbe036ef2	-0.12835291
82	0x3da87946	0.08226256
83	0x3dc1b5bf	0.094584934
84	0x3c67e0e7	0.014152742
85	0xbdd9b494	-0.10630146
86	0x3df3e722	0.119093195
87	0x3cceed14	0.025259532
88	0xbb940526	-0.0045172153
89	0xbd9213df	-0.07132696
90	0xbd7a6a28	-0.061136395
91	0xbd81a9a1	-0.06331182
92	0x3dcae25a	0.099064544
93	0x3c6c8daf	0.014438077
94	0xbc0be140	-0.0085375905
95	0xbd461ab9	-0.04836533
96	0xbb8fee44	-0.004392417
97	0x3dfcad2b	0.12337717
98	0xbdabcfee	-0.08389269
99	0x3dd621c6	0.104556605

linear3.bias f4 [2]
0	0x3c2bb7c2	0.010480823
1	0xbdc2b03d	-0.09506271
