1/checkpoints/origin/2020-11-16T11-33-21-16-classify/classify_fold0_origin_0.907692.pth (torch, 14565 bytes, 6 tensors)

linear1.weight f4 [50, 6]
00000000: 7ac1 f83d 05ee a43e 465f 85be e970 833e
00000010: 0bbe 013e b3b7 363e df2e b6bd af75 853d
00000020: 30f8 42bb b986 26be a264 923e e6b0 933d
00000030: 33d7 48bd 41e0 5b3c 1889 7bbe ce1a 163e
00000040: 5e6c 8fbe f2ae bc3e f845 e13e 01a4 babe
00000050: 372e a5be 9bc8 a8be 62e9 c3bc 2711 2cbe
00000060: 98b8 a1be 3515 033e 8041 88be ea10 403e
00000070: 6cfa a23e 91b1 55be dbb5 bdbd 5458 54be
00000080: 7e2b 92be 67ff cc3c 58ae bdbe 0c5d b9be
00000090: c3ee 92be dadf 23be a4d2 2abd 7532 cd3d
000000a0: 26f2 ce3e 3bc9 cdbe 92f8 1f3e 4eac 47be
000000b0: cc19 27be d54f 96be 6268 983e 846c e6bd
000000c0: 66a0 2c3e 51ac f2bc 4485 253e 67fe 79bd
000000d0: 773f 863e 4321 773d 6758 eebd 5140 a4be
000000e0: 7a11 923e 02a3 d33a 4821 9abe 037d ae3d
000000f0: f649 8a3e d532 e3bc 5d03 40be d3f3 b5be
00000100: 2e26 b4be 8cfa 163e 56b9 413e 45ed 54be
00000110: e785 1a3d 836e c23e 80bb b43e 558e b93e
00000120: b269 1bbe baf7 bd3e 3fdb 3fbe 1d1e 7ebe
00000130: 48f0 e1bd 5860 cbbd 42e9 b5be 99be 383e
00000140: abd4 5cbd f0d1 a6bd 2d1b f5ba c3ac 89be
00000150: f777 1f3d bb0c b13e fecd a0be 84a5 183e
00000160: 6bcf 653e e0e8 f93d 7ba8 a43d 8db6 c2be
00000170: fd38 60be 6d93 78be 9822 9f3e 757a c3be
00000180: 3d37 9b3e f9fb 89be e248 463e 732f 8ebe
00000190: 12c8 6bbe 3ae3 843d 11cf bc3e f0f4 cf3d
000001a0: 2c38 84be 1819 b9be 6501 123e 24e7 6d3e
000001b0: d4b2 3abe 2016 bc3e fd47 c1be f6a4 23bd
000001c0: 66dd 683e 4c91 a03b 0a9f 96be 6c1a 24be
000001d0: 0e6f 45be 8916 ab3d 8e29 753e 8a4a 8bbe
000001e0: 78fa 0dbe 827e ac3e 2cdc 8ebd 65fa ab3e
000001f0: 82a1 0e3e be73 2fbd ce12 943e 65ed 8dbe
00000200: 17e2 803e 2357 e3bd 6172 49be b3e5 ad3e
00000210: 045a 5f3e 7ac0 323e 9ecc 32be 398f 97be
00000220: c32a ba3e 1926 613e 7bd8 a23d 3f0b 68bc
00000230: 9567 33be ba93 8fbe b707 79be 5c79 6bbe
00000240: da61 5a3e 444a 133d 34a8 d6bd 0c06 80b9
00000250: 3a45 473e 9a91 a5be ea61 abbe 79bd 61be
00000260: 1f29 f33d f7f7 4ebd 8931 86be 027c cd3e
00000270: eca3 923e bd71 b6be f786 053e 62ba 02be
00000280: a2ad b23e f25f 57be 7930 0e3e 413f 533e
00000290: eeee efbd cad7 e93c a81d 6cbe 5a62 3b3d
000002a0: 1585 94be d4b0 94be 5ae1 92be 03d4 1a3a
000002b0: da8e 9d3e 7d55 ce3e c2be 6fbe 4c91 093e
000002c0: 047f 4b3d fbcc 19bc 6162 9fbe 5cc7 e93d
000002d0: da8f 04be 7c2e 893e 9041 a33e adc1 a33d
000002e0: cbea d43e 19f8 42be f29a 77be 499b cf3e
000002f0: edc6 793e 7fac 07be bcc1 15bd 7897 30be
00000300: fc8a c43e 9ec8 bdbd 6cd6 c33e 2ab1 bdbe
00000310: d459 a9be 58fd 89be 879e 733e 6a3e a63e
00000320: c253 bdbd 13d9 17be ce3d 7b3e b228 b43e
00000330: d327 c8be fdfc 6f3e 9787 723e 4ab2 fd3c
00000340: a12b d63d 54d4 833e aba4 843e 6d17 85bb
00000350: d23a 70be c0e3 833e 0c0f 73bc 1f53 81be
00000360: e0ba 5f3d 31ef b2be 9fac 963e 14d4 6f3e
00000370: d130 c03e 1c62 033e 84ba 8c3e a5ba 173d
00000380: 008e 1bbd 3673 a3be f586 87be 1b40 e9bd
00000390: 71d6 37bc c4f7 98bd ec01 15be 26f4 2f3e
000003a0: ef04 a03e 2049 77be 1ecd 933e dbe5 883e
000003b0: 35f1 e93c e11f c5be 46eb 5d3e 2e10 cf3e
000003c0: c6d4 c73e eab4 fb3d 5bec 4bbd 2941 b6be
000003d0: 5504 1fbd 76af 003e 8c72 c6be 185b 8fbe
000003e0: 852e acbd a6f4 ab3d 070b 8e3e 764d bf3e
000003f0: aef1 af3c 4722 893e 015b 8bbe df9b 173e
0.12146278 0.32212844 -0.2604925 0.2567208 0.12670152 0.17843513 -0.08895659 0.06516587
-0.0029749982 -0.1626233 0.28592402 0.07211475 -0.049033355 0.0134201655 -0.24564016 0.14658663
-0.28012365 0.36852223 0.43998694 -0.3645325 -0.32261822 -0.3296555 -0.023914997 -0.16803418
-0.31586146 0.12801059 -0.26612473 0.18756452 0.31831682 -0.20868517 -0.09263202 -0.2073682
-0.28548807 0.02502413 -0.37047076 -0.36203802 -0.28697786 -0.16003361 -0.04170479 0.100193895
0.4041912 -0.4019259 0.15622166 -0.19499323 -0.16318434 -0.29357782 0.29767138 -0.112511665
0.16858062 -0.029623182 0.16164118 -0.061033633 0.26220295 0.060334455 -0.11637955 -0.3208032
0.2852896 0.0016146603 -0.30103517 0.08519938 0.27009553 -0.0277342 -0.18751283 -0.35537586
-0.3518538 0.14744014 0.18918356 -0.20793636 0.037725355 0.3797494 0.352993 0.36241403
-0.15177038 0.37103063 -0.1873598 -0.24816175 -0.11032158 -0.099304855 -0.35529524 0.18041457
-0.053913753 -0.08145511 -0.0018700116 -0.2688962 0.038932767 0.34580025 -0.3140716 0.14906889
0.22442405 0.122026205 0.080399476 -0.380299 -0.2189674 -0.24274988 0.3108108 -0.38179365
0.3031558 -0.26950052 0.1936374 -0.27770576 -0.2302554 0.064886525 0.3687673 0.1015414
-0.25824106 -0.36151958 0.14258344 0.23232704 -0.1823228 0.3673563 -0.37750235 -0.03995224
0.22740707 0.0049001332 -0.29418212 -0.16025704 -0.19280645 0.083539076 0.23941633 -0.27205306
-0.13865077 0.33690268 -0.06975588 0.33589473 0.13928798 -0.04283499 0.28920597 -0.2772018
0.25172493 -0.111006044 -0.19672538 0.3396431 0.21811682 0.17456236 -0.17460868 -0.29601458
0.3636075 0.2198719 0.079514466 -0.0141628375 -0.17519982 -0.28042394 -0.24319349 -0.22995514
0.2132639 0.035959497 -0.10481301 -0.00024418568 0.19460002 -0.32337648 -0.3347314 -0.22044934
0.118730776 -0.050529446 -0.26209667 0.40133673 0.28640687 -0.3563365 0.13039766 -0.12766412
0.34898096 -0.21032694 0.13885678 0.20629598 -0.11715494 0.028545279 -0.23058188 0.045748092
-0.29007784 -0.2904116 -0.28687555 0.0005906226 0.3077305 0.40299597 -0.23412612 0.13434333
0.04968168 -0.00938725 -0.31129745 0.11414978 -0.129455 0.26793277 0.31885958 0.07995925
0.41585383 -0.19039954 -0.241802 0.4054816 0.2439229 -0.13249396 -0.036561713 -0.1724528
0.38387287 -0.0926678 0.38249528 -0.37049228 -0.33076346 -0.26951098 0.23790942 0.32469493
-0.09244491 -0.14828901 0.24535295 0.35187298 -0.39092883 0.23436351 0.23684536 0.030968804
0.1045754 0.2574793 0.25906882 -0.0040616305 -0.23459938 0.25759697 -0.01483513 -0.2525873
0.054621577 -0.34948114 0.29428574 0.23420745 0.37537244 0.12830395 0.2748605 0.037043232
-0.03797722 -0.31923836 -0.26470152 -0.1138918 -0.01122056 -0.074691325 -0.14551514 0.17182979
0.31253764 -0.24148989 0.2886743 0.26737866 0.0285574 -0.38500884 0.21671781 0.40442032
0.3902952 0.12290366 -0.049785953 -0.35596588 -0.03882249 0.12566933 -0.38759267 -0.27999187
-0.084073104 0.08396272 0.27742788 0.37363786 0.021477547 0.26783964 -0.27217868 0.14805554

linear1.bias f4 [50]
00000000: 7b5c bcbe 4933 c93b 51ec 4cbe 7d27 08bd
00000010: 5b53 85be 848d 99be 4113 5e3e 4e87 a13e
00000020: 2df9 f83a 8aac 9bbe a3d7 55bd 6782 753e
00000030: f989 b43e f019 c2be 84d8 79be 3804 cdbe
00000040: 9407 9cbe f0eb ba3e 0e1e 83be 21f0 7a3e
00000050: 577d fabd da24 d8be be35 a8bd 3e30 873e
00000060: b5fd ce3e 0881 cebe f314 25bd d36d 6f3e
00000070: ecdd 963e 7e6b 99be 3b42 163d 75cc 793e
00000080: ddbc bbbe 07c9 be3a e447 b0be e692 d23c
00000090: 93f4 513e 6b34 8bbe 0791 9f3e c390 d73d
000000a0: 98d6 8b3e b26d 083d 8e98 573e 2090 9a3e
000000b0: 21f3 793e fe8e 69be d6f1 94be 5115 31be
000000c0: a47a 893e 1d70 83be
-0.36789307 0.006140147 -0.20012023 -0.033240784 -0.26040158 -0.2999078 0.21687032 0.31548542
0.0018995159 -0.30405074 -0.0522076 0.23975526 0.35261515 -0.37910414 -0.24399 -0.4004228
-0.30474532 0.3650813 -0.25608867 0.24505664 -0.12230938 -0.42215616 -0.082133755 0.26403993
0.40427938 -0.40332818 -0.04030318 0.23381738 0.29466188 -0.29964823 0.036684256 0.243944
-0.3666753 0.001455576 -0.34429848 0.025704812 0.20503454 -0.2718843 0.31165335 0.10525658
0.2731216 0.03330774 0.21054289 0.30188084 0.24409153 -0.22808453 -0.29090756 -0.17293288
0.2685138 -0.25671473

linear2.weight f4 [50, 50]
00000000: 5431 c73d fdda 9a3c 85c5 03bd fa5b 813d
00000010: daf6 963d 1181 023d 57f5 03bd 5926 553c
00000020: f5aa cebd c8f3 2f3d 7ffd 443d 3457 21bc
00000030: 3cff f13d 7e27 bc3d 5a69 89bd 8b5f d2bd
00000040: bd18 2abd fda2 d53d 480f 7c3d fa7d ddbc
00000050: 33e3 3fbd 62a3 f63d 1978 c43d 054a f03d
00000060: 4356 5ebd 2a7c d83d 43fc f93d 9cbf 873d
00000070: 6aee 87bd cd22 a63d 02e8 d3bd a280 1d3e
00000080: 9171 d63c e688 debd 5e9e 773d ebc0 023e
00000090: 3ba0 4fbc 1666 13be 6638 abbd 1e7d 8cbd
000000a0: 6369 b7bd 5131 893d 0b36 b93d c66e dd3d
000000b0: e1ff ea3d 8b79 53bd 4a77 afbd 1279 b63d
000000c0: 9941 05be 999a 823d a03d 56bd dd05 0dbe
000000d0: e694 3bbd a66a acbd d9f9 a23d d1f5 babd
000000e0: 194a ea3d fd2d 2b3d 3f07 babd 5bf8 df3d
000000f0: 6dcd 8c3d 6811 d5bd 3eb0 0abe ace0 03bd
00000100: e113 dabd 00a2 6e3c 982f ddbc 4771 afbd
00000110: cbf2 af3d bbad 15bd 8629 af3d 1f51 8ebd
00000120: 0e06 02be 3167 83bc 69a0 0e3e 26d1 7e3b
00000130: 3a37 0cbe cf2e 8dbc ab3d e23d aead fd3c
00000140: 8e71 f63d 9b5d 94bd b227 e3bd 776d 6a3d
00000150: e885 fcbd d183 93bc 4cee 0c3e 2e2b 813c
00000160: e7a4 c9bd 6870 943d 0bc0 55bd 7802 ebbd
00000170: 9847 65bc 593b bfbd ed72 68bc c217 fbbc
00000180: 1681 a83c 1172 983d 8ab8 c0bb b502 d43d
00000190: 6371 afbc 2459 2fbd 599d fabd 38ac 3abd
000001a0: 7484 ccba 38af c73d 37de 07be f754 d23a
000001b0: efd2 0c3e 5ae8 91bd 57d0 ae3d a921 ce3d
000001c0: 1728 813b a8b1 c2bd d65f fdbc c9a5 bf3d
000001d0: b7ba 423d f7cf b63d 1f0f a63d a9fb d5bd
000001e0: 64fa f0bd 06d3 0fbd ff83 083e c1ef 123e
000001f0: 2a34 d43d 451f 283d cdfa 643c cb07 d03d
00000200: bef6 65bc 11b7 87bb 49cd 56bd 9f09 953d
00000210: 31e3 483d 120b bdbc 02e3 5a3d e47b 253e
00000220: b0d0 7a3d cb3c 943d b2d2 cbbd 5b8c afbd
00000230: 2afd 183e b639 3f3d 5e17 01bd ec86 f7bd
00000240: 6287 2a3b b657 ecbd d43a 363e ed3d b63c
00000250: 6470 06bd 9366 e73d 6cbd ea3d c1b1 71bd
00000260: 3ee8 01bd b62d e73d ab10 bb39 b66b c03c
00000270: 3c79 fabd 6064 04bd 08a9 23bd 25e2 e6bc
00000280: 76f8 843d 1bc1 e1bd 50f5 4b3d 7039 bcbd
00000290: cafb 2cbd 966d 75bd 529a 493d c29b 393d
000002a0: 3ff0 babd 16ae dc3d 4a8a b3bd 809d c7bc
000002b0: 7252 93bd c859 15bd 0c88 f3bc 530c 07bd
000002c0: 2126 cfbb 1071 1ebd c5ab d43d cb0b f6bd
000002d0: 5f55 3d3d 57dc 873d 650b d03d 5e6f 9fbc
000002e0: a728 f5bd 9b6e 1f3e 25f0 73bb 5b1e a23d
000002f0: 358e 023e 32f5 5e3d ed7f a63d ad87 c3bd
00000300: 2e4c 39bd 3ea8 973d 8633 92bd 4a52 95bd
00000310: 7c04 f83d 71ca a9bd f3eb f03d 3f9c 513c
00000320: d547 25bd c2e7 18be 62d7 0ebe 214f e9bd
00000330: 6156 a7bd e6ad 8bbc 2640 dbbd fa20 02be
00000340: 9ad7 05bd 1291 5f3d c97d b53c 5e1a eebd
00000350: 971c d7bb 48bc 94bd 840e 253d 47f4 c3bc
00000360: ea9e 0d3c 0972 a43d d76b 0ebb afbc 6dbb
00000370: 038c 013e 048b 2ebd a252 9fbd e339 a0bd
00000380: 3c55 cb3d 0d06 85bd afa4 d3bd fc29 333c
00000390: 615c f53d e3f8 6bbd 9167 f6bd 17ce 09be
000003a0: 80b2 093e f84a cfbc a55c 1dbd f113 0abe
000003b0: 46de 293d c421 e0bd abbb c0bd 6067 13bc
000003c0: 7ee3 403c ce1c 66bd 9a42 14be 5c26 1b3d
000003d0: 15a8 ec3d 20ae f73d 4d88 bbbd e549 37bd
000003e0: 20c4 fa3d 66a9 bbbd f9c0 f3bd 0c3b ac3d
000003f0: 746f d23d 2788 833d c07e c1bd 0efa aa3d
0.097262055 0.01890325 -0.03217079 0.06316371 0.07371302 0.03186137 -0.032216396 0.013009631
-0.10091201 0.042957097 0.048093315 -0.009847451 0.1181626 0.0918722 -0.06709547 -0.102721296
-0.0415275 0.10431478 0.06153801 -0.02703761 -0.046847533 0.120428815 0.09593219 0.11732868
-0.054281484 0.105705574 0.12206318 0.066283435 -0.06637271 0.081121065 -0.10346986 0.15381101
0.0261772 -0.10865955 0.060453765 0.12768905 -0.012672479 -0.14394411 -0.083603665 -0.06859802
-0.08955648 0.066988595 0.09043511 0.10812144 0.11474586 -0.051629584 -0.085676745 0.08909811
-0.13013305 0.063771434 -0.052304864 -0.13771768 -0.045796297 -0.08418779 0.07957811 -0.09128917
0.11439914 0.041791905 -0.09083413 0.10936042 0.06875119 -0.104037106 -0.13543794 -0.032196686
-0.10648323 0.014564991 -0.027000234 -0.08566528 0.08591231 -0.036542635 0.08552842 -0.06949066
-0.12697622 -0.016040416 0.13928379 0.0038881986 -0.13692942 -0.017234234 0.110469185 0.030966606
0.120333776 -0.07244416 -0.11091556 0.0572333 -0.12330228 -0.01800719 0.13762778 0.01576766
-0.09845906 0.07248002 -0.0521851 -0.1147508 -0.01399412 -0.093374915 -0.014187557 -0.030650977
0.020569365 0.074436314 -0.005881374 0.10352079 -0.021416372 -0.04280962 -0.12237043 -0.045574397
-0.0015603439 0.09750217 -0.13268362 0.001604705 0.1375234 -0.07124396 0.085358314 0.10065014
0.0039415467 -0.095065415 -0.030929487 0.09357793 0.047541346 0.08926385 0.08108353 -0.10448391
-0.11766508 -0.035113357 0.13331603 0.14349271 0.10361512 0.041045446 0.013975811 0.101577364
-0.014035879 -0.0041416963 -0.05244187 0.07277226 0.04904479 -0.023076568 0.053439148 0.16160542
0.061234176 0.07238158 -0.09952296 -0.085716926 0.14940324 0.046685897 -0.031516425 -0.12086281
0.0026020636 -0.11540167 0.17795879 0.022246325 -0.032822028 0.11298861 0.114619106 -0.05900741
-0.031715624 0.112880155 0.00035679838 0.02348886 -0.12230155 -0.032322288 -0.039956123 -0.028184006
0.06492703 -0.1102316 0.049794495 -0.09190643 -0.042232312 -0.059918962 0.049219437 0.045314558
-0.091278546 0.10775392 -0.08766611 -0.024367094 -0.071934596 -0.036462575 -0.029727958 -0.032970738
-0.006321684 -0.038682044 0.10384325 -0.12013968 0.046223994 0.06633823 0.10158423 -0.019462284
-0.119706444 0.15569536 -0.0037221995 0.07915946 0.1274956 0.054433055 0.08129869 -0.095473625
-0.045238666 0.074051365 -0.071387336 -0.07291086 0.1211023 -0.08290566 0.11763754 0.0127936
-0.040351707 -0.14932159 -0.1394935 -0.11392046 -0.08170772 -0.017050695 -0.10705595 -0.12707892
-0.032676317 0.05458171 0.022154706 -0.11626123 -0.0065646875 -0.07262474 0.040297046 -0.023920191
0.008643845 0.08029563 -0.0021731758 -0.0036275794 0.12651066 -0.042613044 -0.07779433 -0.07823541
0.099283665 -0.06495295 -0.10334145 0.010935303 0.119805105 -0.057610404 -0.120314725 -0.13457523
0.13446999 -0.025304303 -0.03841843 -0.1348417 0.041471742 -0.1094394 -0.09410795 -0.0089968145
0.011772988 -0.056179814 -0.14478531 0.03787838 0.115554966 0.120937586 -0.09156857 -0.044748206
0.12244439 -0.091631696 -0.11902041 0.084097 0.10275164 0.064224534 -0.09448004 0.083484754

linear2.bias f4 [50]
00000000: d098 f8bd e8a1 913d 648a 983c 96ba 043e
00000010: 2c95 dcbd 0b2a 6d3d 9de5 d2bd 714a 873c
00000020: c590 2abd 1dfa 8f3d a116 023e 948d 8fbd
00000030: 5603 1fbe 8351 0fbe b3e1 21bd 5ca2 b0bd
00000040: c403 a53d 2c3f 8a3c a2b2 893b f93c 753d
00000050: c7c1 b03c 3523 07bc f18c 163e 6925 1fbd
00000060: 27a7 f53c 3e56 4e3d aac5 243d d099 ec3d
00000070: 3179 8a3d 2c23 76bd fb48 8e3d aad5 a93d
00000080: a900 fe3c f686 54bb 2bab 18be 052e c1bd
00000090: 7ef0 03be 297e e7ba 0621 ef3d c060 6dbd
000000a0: fba8 ac3d cd11 153c 02d2 98bd 3ac2 b03d
000000b0: c688 003d c9fe b4bc e1a1 17bd 6e10 c6bd
000000c0: 5dd3 64bd 4af7 a7bd
-0.12138522 0.07110959 0.018620677 0.12961802 -0.1077064 0.057901423 -0.102977015 0.016514989
-0.04164197 0.07030127 0.12703945 -0.07009426 -0.15528616 -0.13995938 -0.039521884 -0.086247176
0.08057359 0.016875826 0.004202203 0.0598726 0.021576775 -0.00824814 0.14702202 -0.038854036
0.029986931 0.050375216 0.04022757 0.11552775 0.06761397 -0.060092136 0.06947514 0.08292706
0.031006174 -0.0032429076 -0.14909045 -0.09432606 -0.12884709 -0.00176615 0.116762206 -0.057953596
0.08430668 0.009098482 -0.07461931 0.08630796 0.031380437 -0.022094147 -0.037019614 -0.096711025
-0.055865634 -0.082014635

linear3.weight f4 [2, 50]
00000000: c2c9 0abe 3241 42bc 6e7b 853d 596d 963d
00000010: aeab 763d e0dd 073d c905 9cbc 1248 b83d
00000020: 4c97 5abb 3e98 f43d 2eff d13d 6a74 3f3c
00000030: 579d 00be a3a8 05be fa3b a6bb cf64 623d
00000040: 8572 ea3d 3711 6b3d 0a6a 7cbd c654 913d
00000050: 0da7 a8bd 16ac e9bd a8fe 1a3d 86f3 0b3e
00000060: 56ed f43d 8af7 a13d f9f0 ad3d f88a b93d
00000070: a758 d53d 86b9 0dbe f914 063e d7e3 b83d
00000080: 17ab 31bc 8836 edbd 63e9 f7bd 8393 de3d
00000090: 0713 9f3c b0e1 abbd 5b12 aebd 30a6 6d3d
000000a0: 0d62 0c3e 9552 9f3d 56e2 a73d d4c8 ca3d
000000b0: 7d1d cbbd 2dde a6bd eb9a c4bd 0258 a13d
000000c0: 8981 17be 2150 66bd 11a6 7f3d 6b3d 3ebc
000000d0: fa8e c5bd a10a a0bc 676c 9d3d 9be0 3b3d
000000e0: 4ba3 d33d b305 f7bc 50f8 103e 323c a53c
000000f0: 3cfb 473d ee09 84bd f7d3 93bc 519b 8bbd
00000100: 42f9 6b3d acc1 a7bd e59e b2bd 0ee8 df39
00000110: 58b2 493d d50f b73d d6bc 623d 6f29 f73d
00000120: fec9 a1bd ffa5 0f3e 5dfd fa3c bcfa aebc
00000130: 3c81 103e aed7 aebd 5ff3 ffbd e60c 343b
00000140: 74a4 113d f26e 03be 4679 a83d c330 ca3d
00000150: cc3f e33c e78b e1bd 05ea 003e 0802 963d
00000160: fc08 a53b 8a89 a2bd 5c2b 4cbd c604 8dbd
00000170: b78f e33d 3b85 fa3b 6244 133c 7390 0bbd
00000180: 8812 8a3a 2bad fc3d 1047 2bbd b84e 0a3e
-0.13553527 -0.011856364 0.06517683 0.07345075 0.06022232 0.03317058 -0.019045727 0.08998121
-0.003335434 0.119431004 0.1025375 0.01168547 -0.1256002 -0.13052611 -0.0050730677 0.05527192
0.11447624 0.057389464 -0.061624564 0.070962474 -0.082349874 -0.11409776 0.037840515 0.13667116
0.11959331 0.079085425 0.084932275 0.09059709 0.104173 -0.13840303 0.13093938 0.09027832
-0.010844014 -0.11582667 -0.12105062 0.108679794 0.019418253 -0.08392656 -0.08499595 0.058019817
0.13709278 0.07779423 0.08197467 0.09901586 -0.09917734 -0.081478454 -0.09599861 0.07878114
-0.14795507 -0.05622876 0.062414233 -0.011611323 -0.09646411 -0.019536318 0.07686692 0.045868497
0.1033388 -0.030154085 0.14157224 0.020170305 0.04882358 -0.064472064 -0.018045409 -0.06816734
0.057610758 -0.08191237 -0.08721713 0.0004270677 0.049242347 0.089385666 0.05535587 0.1206845
-0.07899855 0.14028166 0.030638391 -0.021359794 0.14111799 -0.085372314 -0.12497591 0.0027473508
0.035557225 -0.12835291 0.08226256 0.09872582 0.027740382 -0.110130124 0.12589271 0.07324606
0.0050364714 -0.0793639 -0.04984604 -0.06885676 0.11111396 0.007645277 0.008988472 -0.034073304
0.0010534087 0.12337717 -0.041815817 0.13506591

linear3.bias f4 [2]
00000000: 7e81 bf3c 514f d0bd
0.023377176 -0.101713784
