1/checkpoints/origin/2020-11-16T14-26-21-16-classify/classify_fold0_origin_0.963077.pth (torch, 38373 bytes, 6 tensors)

linear1.weight f4 [100, 6]
00000000: 1126 a63e 4c20 8bbe f189 69be 22e3 84be
00000010: 8f21 053f 2257 8c3e 3bfd b23e 3cb3 4a3e
00000020: c139 a2bd 9729 8ebe 85ae 893e 3152 273e
00000030: 7aab b73c a918 8a3d 81fb 133e 5eae 973e
00000040: a83f 94bc de02 633d c1d2 a6be 083f 1dbe
00000050: df34 0dbe 07e4 013c 75e3 be3e 2697 2fbe
00000060: a9ce 9bbd 6790 aa3d caea babd a6d2 d83e
00000070: fc66 263e 51f8 5dbe 0f9c 08be 2eeb 52be
00000080: 9a41 96be 597d 413e 231f c2be 95a0 3dbe
00000090: 4dc7 6bbe c56d bdbd aa14 1fbe c447 513e
000000a0: 0c97 61bd 710b 433e 034d 483e e702 a23d
000000b0: f588 84be 262b 093e cb46 893e 82a9 b93e
000000c0: 998d 98be e6c4 b73e 4397 73be e7f5 78bf
000000d0: b167 843e 7fc8 54bd e741 b8bd 7416 513d
000000e0: db1f 933c 48bd b43e 91c9 e0bc ae7e 353e
000000f0: 5c29 1b3e 83cf 743e f4e9 7bbe 4c00 7a3d
00000100: 4d8d 4abd b087 3d3e c46d ecbe 9450 993d
00000110: cff9 fdbb a3d4 233e 0f59 00be 3c27 45be
00000120: 64fb 013f c9b9 f63d 6f8a dfbd 6f58 8dbe
00000130: 0955 363e 9470 563e 5b34 393e 26ca c0be
00000140: 88d5 5b3d 0f4f 8c3c f00d e4bd 2996 d3be
00000150: 9137 b4be a18d 5b3d f9b3 303e ee72 9c3d
00000160: fb57 4d3e 060d 2d3e f70c ba3e 7789 e9be
00000170: 49b1 ca3d dd08 1b3e 5acc 013f a158 cd3c
00000180: 0a3d 1c3e cbdb 023e 35b1 6ebd 4f31 a2be
00000190: 029a 6c3e 46f6 b63e 7e73 4dbe 0599 c43e
000001a0: eb46 88be b893 27bf b552 b03d 9a24 7fbe
000001b0: f24e 0fbe 98f0 a2be c430 b8bd 5dc0 533e
000001c0: 519f 32bd b288 b8be 0c4b 2abe 7d31 313e
000001d0: ab74 153e 96a5 c93e fdc8 c4be 88ba e63c
000001e0: 1179 87be 0618 5ebe 0438 1a3e d35c d1bd
000001f0: 8b92 2abf 5ce4 a3be 085d a83e 4ea3 9b3d
00000200: 3bb3 c1be 5997 e4be 6f46 4e3e f1b8 6dbe
00000210: 08aa 9f3e 2cee 32be acb2 3cbe 2d25 dfbe
00000220: 0121 583e ea6e 983d 4344 cfbc ef61 b6bd
00000230: 39e8 a73e 5f7f 4dbe c3e5 aabd a8d1 603e
00000240: a404 303d 3493 a5be f8e1 a33e e98e 95be
00000250: a3cf 64bc 7f68 ad3c 4967 4dbe 9b0c c03e
00000260: b39d b73e 81d0 b03d 27ad 7ebd ab89 4abe
00000270: e035 96bd d192 d7be 247b 0c3e 2c31 9c3e
00000280: 844e 18bc 7381 43be 323c 41be 9d99 fd3d
00000290: 8845 983e 90c9 813e 97ab 2e3e be22 e1be
000002a0: efeb 633e 757f 39be 274d ab3e 5f2b ee3e
000002b0: e83e 94bd cd33 193e 9d53 4ebe b95f 1a3e
000002c0: 4b8b 08be e465 c4be ce25 f0bd bec8 7bbd
000002d0: 40fd 9c3e d514 a13e 142e e1bd 14e0 253e
000002e0: d76a 9b3e 5c00 bc3e bd13 4cbe 5936 edbe
000002f0: 586d b03d 8fe9 7fbf 1c57 bd3d ceae 28bf
00000300: 3f4f a6bd dd09 b13d be61 39be 2170 31be
00000310: 866c 193e 2155 f3bd 28aa 39bd 395d 163d
00000320: d633 24be 22c6 30be a092 c6be 0651 4e3e
00000330: f769 e43d dc68 0c3e dc7b b73c 82ff 853e
00000340: d5d8 75bc 1efc e7be 9619 5dbc 3a59 d2bd
00000350: ac43 aabe 6dc7 b3be 7435 2e3e 2f03 adbe
00000360: a33d 14be 3c4e 57be 19e6 bebe 82f0 2c3e
00000370: a056 bbbe 3ecb d43e 2d35 5fbe 2065 133e
00000380: 201d 23be aa85 be3e ff17 f0bb 329e c53e
00000390: 0d77 873e 3020 9abe 4682 c0bd db4c f7be
000003a0: 0ac7 d53d 9445 c5bd d284 3ebd 6c08 8b3d
000003b0: 80ae ac3c 195c b83e e17c 9d3d c748 a73d
000003c0: 458b ad3c 9c7a d33e ade8 9dbe 094b 7cbf
000003d0: 3d9c 0dbe f005 85be 7863 b1be a151 93be
000003e0: 26d3 c2be 46e0 b03d cc32 f83d dbc3 253e
000003f0: 8389 bcbe 0cb4 733d 0b03 99bd 7381 b33c
0.32450917 -0.27173078 -0.22806527 -0.2595454 0.5200433 0.27410227 0.34958825 0.19794935
-0.07921172 -0.27766106 0.2689096 0.16339947 0.022420634 0.06742985 0.1445141 0.2962522
-0.01809676 0.055422656 -0.32582667 -0.15356076 -0.137897 0.007927901 0.3728291 -0.17147502
-0.07607777 0.08328324 -0.09126814 0.42348212 0.16250223 -0.21676756 -0.13340782 -0.20597526
-0.29346925 0.18895473 -0.3791438 -0.18518288 -0.23025246 -0.092494525 -0.15535226 0.20437533
-0.05507569 0.19047333 0.19560628 0.0791071 -0.2588574 0.13395366 0.26811823 0.36262137
-0.2979553 0.3589241 -0.2378817 -0.9725022 0.2586036 -0.05194902 -0.08996945 0.051046804
0.017959526 0.3530066 -0.027439864 0.17724106 0.15152496 0.23907284 -0.24600965 0.06103544
-0.04945116 0.18508792 -0.46177495 0.07486072 -0.007750727 0.15999083 -0.12533973 -0.19253248
0.50774217 0.120471545 -0.10915076 -0.27606532 0.17805876 0.20941383 0.18086378 -0.37654227
0.053670436 0.017127542 -0.11135471 -0.413255 -0.35198644 0.053601865 0.17256154 0.076391086
0.20053093 0.168995 0.36338016 -0.4561269 0.09897096 0.151401 0.5070244 0.025066676
0.1525766 0.12779157 -0.058274467 -0.31678244 0.23105624 0.35734767 -0.20063588 0.38397995
-0.26616606 -0.65459776 0.08609525 -0.24916306 -0.13994959 -0.31824183 -0.08993676 0.2067885
-0.043608967 -0.3604179 -0.1663019 0.17304035 0.14595287 0.39384145 -0.38434592 0.028165117
-0.26459554 -0.21688852 0.15060431 -0.10222783 -0.66629857 -0.32010162 0.32883477 0.07599507
-0.37832054 -0.4464672 0.20144056 -0.23215081 0.3118441 -0.17473668 -0.18427533 -0.4358305
0.2110634 0.0744303 -0.025301104 -0.08905398 0.3279436 -0.2006812 -0.08344605 0.21954978
0.042973176 -0.3233887 0.32008338 -0.29210594 -0.01396552 0.021167992 -0.20058931 0.37509617
0.35862502 0.08633519 -0.06217685 -0.19779079 -0.073344946 -0.421042 0.1371885 0.30506265
-0.009296063 -0.1909235 -0.18870619 0.12382815 0.29740548 0.25349092 0.17057644 -0.4397182
0.2225797 -0.18115027 0.334573 0.46517465 -0.07238561 0.14961167 -0.20149083 0.15075578
-0.13334386 -0.38358986 -0.11725961 -0.06147074 0.30661964 0.31461206 -0.10995117 0.1619876
0.3035495 0.36719024 -0.19929405 -0.46330526 0.08614606 -0.9996576 0.092451304 -0.6589173
-0.08120584 0.086444594 -0.18103692 -0.1732793 0.14982805 -0.118814714 -0.04532829 0.036709998
-0.16035399 -0.17263082 -0.3878374 0.20148095 0.11153024 0.13711876 0.022397928 0.261715
-0.01500531 -0.45309538 -0.01349487 -0.10270925 -0.33254755 -0.35113087 0.17012578 -0.3379149
-0.14476638 -0.21025938 -0.37284926 0.16888621 -0.36589527 0.4156131 -0.21797629 0.14394045
-0.15929079 0.37211353 -0.0073270793 0.38597256 0.26458016 -0.30102682 -0.09399848 -0.48300824
0.10438354 -0.096324116 -0.046513386 0.06788716 0.021079302 0.36007765 0.076898344 0.08168178
0.021184573 0.4130448 -0.3084158 -0.98551995 -0.13829131 -0.25981092 -0.346462 -0.28773215
-0.38051718 0.08636527 0.12119064 0.16187994 -0.36823663 0.059497878 -0.074712835 0.021912312

linear1.bias f4 [100]
00000000: ad03 06be 8752 99be 5a17 d23d 643d b6bc
00000010: 7f14 573e f22d ae3d 54fb cebe 818f 99b9
00000020: 70fd c1bc 8f65 3fbe 9670 103e f8cd e8be
00000030: bd0d 1f3e 79a7 f23e 0298 bdbe 4b9f 8abe
00000040: 0e47 713e a921 d2bd 9c3e 863e a4bf 123d
00000050: bc5a d8be 5b20 003e aea0 36be 8094 b4be
00000060: f4d0 5abe 9ace 8dbe caae 933d 2849 d9be
00000070: a6a3 98bd cb8d bf3d f348 1abe da68 263f
00000080: 71d2 813e 5662 cb3e bf61 703e 8266 953e
00000090: e1ec 343e 530d 5dbd f50a 3ebe 9d3c e4be
000000a0: 8446 30bc ae73 2cbe f1df 62be 3739 b0bd
000000b0: 1a31 6bbe 0916 bebe 67a8 2e3d 74ca 3abe
000000c0: bd0d 67be 6489 aebd 04cc 8ebe 6ce2 b8be
000000d0: 7eb4 353e a3d9 0d3d 534c 6f3d e2f6 aa3d
000000e0: f587 853c d367 23be 82a0 bb3c f15c b33e
000000f0: 82a9 88bd 93b5 24be 4098 4ebe e900 92bd
00000100: d664 0b3f 4425 413e 2ba6 413d b7d3 013f
00000110: 7d23 383e c091 053e c041 aebe d9d4 aabe
00000120: d167 f93d ff6a 17be 90cd 063e ded2 dbbe
00000130: bc43 993d c49a 23be 4452 23bd 320d b03e
00000140: 6efc f43c 8b78 743e 3110 833e e70e e7be
00000150: 884d 8cbe 19eb 003e c997 2a3e 3e67 923c
00000160: c7c0 22bd cb9d 2b3e 2213 033f 0f7e 8a3c
00000170: 2617 6bbd 8172 57bd dc51 46be 50bb 5b3e
00000180: 1ecf 52be dd66 c23e 0e0f 9ebe f627 a0bd
-0.1308734 -0.29945776 0.1025836 -0.02224607 0.21003912 0.08504857 -0.40426123 -0.00029289353
-0.023680419 -0.18691085 0.14105448 -0.45469642 0.15532584 0.47393396 -0.37030035 -0.27074656
0.23562261 -0.102603264 0.26219642 0.035827294 -0.42256725 0.12512343 -0.17834732 -0.35269547
-0.21368772 -0.27696687 0.07211073 -0.42438626 -0.074530885 0.09353217 -0.1506689 0.6500374
0.25355867 0.39723462 0.23474787 0.2917977 0.17668487 -0.053967785 -0.18558867 -0.44577494
-0.010759 -0.16841003 -0.2215574 -0.08604663 -0.2296795 -0.37126186 0.04264107 -0.18241292
-0.22563834 -0.08522299 -0.27890027 -0.36110246 0.17744634 0.034631383 0.058422398 0.083478704
0.01630018 -0.15957575 0.022903685 0.35031846 -0.06672956 -0.1608489 -0.20175266 -0.0712908
0.5445074 0.18861872 0.04727761 0.50713676 0.17982288 0.1304388 -0.34034538 -0.33365515
0.121780045 -0.1478691 0.13164353 -0.42934316 0.074836224 -0.15977007 -0.039873376 0.34385067
0.029905524 0.23874108 0.2559829 -0.45128557 -0.27402902 0.12589683 0.16659464 0.017871495
-0.039734628 0.16759412 0.5120107 0.016905813 -0.057395123 -0.052599434 -0.19367164 0.21458173
-0.20586821 0.37969103 -0.3087086 -0.07820122

linear2.weight f4 [80, 100]
00000000: af7b 8f3c 6d67 12bd 9232 c93c 903c 013d
00000010: 5082 463d 8062 533d 3767 0f3d e3a6 683d
00000020: 3331 5cbc 0f2a 2d3c 91d7 52bd cdb0 bb3b
00000030: 0c3a 95bd 7267 8f3c aa4f 1b3d 9cf4 2d3d
00000040: b98d e43b 7382 78bd 63f9 173d adf4 98bd
00000050: 3a6b 963d 3d5f 40bd 282f 1a3c 18e3 51bc
00000060: a829 b13c c46a d2bc cdad 4ebc f859 b0bd
00000070: 54c3 d13c edb2 6a3d e132 23bd ba2f d9bc
00000080: a7aa a2bd 8de1 ca3c cb35 403c 52fa 97bd
00000090: 2313 9abd adb8 903c 16d1 babd a138 cbbd
000000a0: d3cc 653d 3af2 8bbd 4703 e6bc 208d 51bd
000000b0: 1569 71bb c25f 903d df89 90bd 971c 763d
000000c0: 9156 a9bd f7cc 953d d0f8 af3d b66d 113d
000000d0: 8edd 613d 0805 88bd 2239 9ebd 690e 3f3d
000000e0: 3d5a 48bd 0cea 7bbd 5f33 ad3d 217e bebc
000000f0: 10ab 133d 27d1 e03b 6851 cbbd eca1 de3c
00000100: 6c5f c13c d82a 99bd 8dd7 613c 63ff af3c
00000110: a104 3fbd 7d3f ef3c 979b 3c3d df74 93bd
00000120: a75e cb3c 30e7 a937 73fd 793c db93 afbd
00000130: 08d8 533d 009d 723b 7345 93bd 55fb 86bd
00000140: 42dd bd3d 12c1 c7bd 3421 873d 8122 533c
00000150: 4019 08bd c0a7 6cbd b8ce 80bd 0dcf 853d
00000160: 20bb 8a3c fafb d3bc 1820 75bd 1a5c 7dbd
00000170: 7aab c2bd d292 133d 2726 473c a15c acbc
00000180: 411f 09ba 9343 a6bd 9aee 23bb 74f5 c7bd
00000190: 5a82 303d 259b 94bd 7015 28bc 6780 b63d
000001a0: f17a f83c 237d 02bd 96d8 033d a7ec 12bd
000001b0: 6807 4a3c b17b a2bd fa2a 6d3d 59cf bfbc
000001c0: 3ed7 3b3c 5f5f 3fbd 956e 893d 0ee3 3a3d
000001d0: 26f7 c63d 99ad 96bd 89c1 1fbd 6e99 bc3b
000001e0: ef11 433d 3fad 94bd f6a2 b43b 5f83 ab3c
000001f0: 8725 453d a2e5 1bbd f850 7e3c 2096 7ebd
00000200: dd43 a3bd f87a 9fbd 743c 923d c493 9fbd
00000210: b8d4 a5bd f56f b4bd fe71 743c 5d9c 993d
00000220: 57b8 d2bd 855a 873d 4745 bfbd ab53 adbd
00000230: 136d 3cbd 1257 afbd d82d b73d a216 a93d
00000240: f828 993c 7265 493c d08a 1e3d 2b77 d7bc
00000250: 90b4 463d b275 02bc 4d06 a9bc 1362 8fbd
00000260: 3fb8 b4bd 8740 ccbd a331 e43c 553a 87bc
00000270: d275 9d3d 363c 0abd 2726 933d 033b 7cbd
00000280: 7af1 f13c c138 c93d e652 cb3c 1871 f9bc
00000290: d729 a1bd 4e0c c1bb f7e2 03bd 98e7 cbbc
000002a0: ba54 6fbd a4b6 4f3c 88fc 943c 0e4b 95bd
000002b0: 6740 6b3c 4acb 143d 60e2 8ebc 0786 01bd
000002c0: 3af5 94bc 1c5e 1539 d95f f53b 2f4a babd
000002d0: 2d54 523d c444 18bd e979 acbd e035 073d
000002e0: 958e aabd 2e96 fabd 5d92 87bd 8692 bebd
000002f0: e988 e6bd 5458 c2bd 81e5 7ebd d6ff dcbd
00000300: a73c 8dbc ecdc a8bc 80a2 adbc 9520 abbc
00000310: 35b4 e1bd 5434 d93c fa8f abbd 1f33 5f3b
00000320: f2a2 92bd 9e69 80bc 88af 7b3d 8043 02bc
00000330: 4ddd 46bd 8064 8abc 10ff c53d 2b5f a4bd
00000340: ffb2 bebd fc8a ddbc 2a0d 8b3d a199 9b3d
00000350: 5573 9bbd 0ff6 a7bd 08dd b1bd 4952 8ebd
00000360: f341 07bc 1304 a03c 4010 a43d 37a3 923c
00000370: 0f36 76bd 12fa 8fbd cdde 8d3b 5372 853d
00000380: 668b a73d 6135 f63c b459 0bbc 07ce 92bd
00000390: d841 c4bc 80a7 bb3d 0597 8dbc deb4 79bd
000003a0: bdf7 63bd 4035 063d 972b 103d 809e 123d
000003b0: 6752 54bb 68b9 a03d 9fad 843d 8063 21bd
000003c0: a020 abbc 2235 8b3d da41 81bc f396 393d
000003d0: 5073 70bc beb9 babd a539 87bd 5e16 5c3d
000003e0: 10db 823d 5b0c 763d fa92 c43c 9af9 eebc
000003f0: a382 94bd 22d8 99bd 6e2b 49bd ad78 90bd
0.017515032 -0.035743166 0.024560247 0.031551898 0.04846412 0.05160761 0.035010543 0.05679978
-0.013439464 0.01056911 -0.05147511 0.0057278634 -0.07286462 0.017505381 0.03791777 0.042469606
0.0069749025 -0.06067128 0.037103068 -0.07468543 0.073446706 -0.046965826 0.009410657 -0.012810491
0.021626309 -0.025685675 -0.0126146795 -0.0861091 0.025605835 0.057299543 -0.039843444 -0.026512016
-0.079427056 0.024765754 0.011731575 -0.07420792 -0.07523181 0.017666185 -0.09121911 -0.099229105
0.05610354 -0.068333104 -0.028077735 -0.051159978 -0.0036836315 0.07049514 -0.07057547 0.06008586
-0.08268464 0.073144846 0.08592379 0.03550502 0.05514293 -0.06641585 -0.07725741 0.046644602
-0.048914183 -0.0615025 0.08457064 -0.023253502 0.03605181 0.0068608704 -0.099276364 0.02717682
0.023605071 -0.07478875 0.0137843015 0.021484083 -0.046635274 0.029205078 0.04604682 -0.07200026
0.024825407 2.0254025e-05 0.015258181 -0.08573123 0.051719695 0.0037019849 -0.07190981 -0.065909065
0.09270717 -0.09753622 0.0659813 0.012886644 -0.033227205 -0.057777166 -0.062894285 0.065336324
0.016934931 -0.025876988 -0.05984506 -0.061855413 -0.09505363 0.03602869 0.012155092 -0.021040263
-0.00052307924 -0.081183575 -0.0025014044 -0.09763613 0.043093063 -0.07256154 -0.010259017 0.089112096
0.03033206 -0.03185762 0.032188974 -0.03587022 0.012330867 -0.079337485 0.057902314 -0.0234143
0.011464892 -0.046721812 0.06710545 0.045626692 0.097151086 -0.0735733 -0.03900293 0.005755595
0.047624525 -0.072596066 0.0055125905 0.020936666 0.048131492 -0.03806079 0.015522234 -0.06215489
-0.07971928 -0.07787126 0.07140437 -0.07791856 -0.080972135 -0.088104166 0.014919756 0.07500527
-0.10289066 0.06609062 -0.093393855 -0.08463224 -0.04600246 -0.08561529 0.08944291 0.0825627
0.018696293 0.012292253 0.0387066 -0.02630194 0.04851204 -0.007962631 -0.020632887 -0.07001128
-0.08824205 -0.09973245 0.0278557 -0.016507307 0.07688488 -0.033748828 0.07185011 -0.061579715
0.02953409 0.09825278 0.024819802 -0.030449435 -0.078693084 -0.0058913594 -0.032198872 -0.024890706
-0.05843041 0.012677822 0.018186823 -0.07289706 0.014358616 0.036326684 -0.017441928 -0.03162196
-0.01818334 0.00014244806 0.0074882326 -0.09096181 0.051349808 -0.037174955 -0.0842169 0.033010364
-0.083279766 -0.12235676 -0.066197135 -0.09305291 -0.11256582 -0.094895035 -0.06223059 -0.10790984
-0.017240835 -0.020613156 -0.02119565 -0.02088956 -0.110207 0.02651421 -0.08377071 0.003405757
-0.071599856 -0.015675362 0.061446697 -0.007950664 -0.048550893 -0.016893625 0.0966779 -0.08025964
-0.093114845 -0.027043812 0.0678962 0.07597662 -0.07590357 -0.08201229 -0.086847365 -0.069492884
-0.00825547 0.019533193 0.08010912 0.017900093 -0.060110148 -0.07030119 0.0043295384 0.06515946
0.08180885 0.03005475 -0.008505274 -0.07168203 -0.023957178 0.091628075 -0.017283926 -0.060963504
-0.055656184 0.032765627 0.03519782 0.03579569 -0.0032397748 0.078478634 0.06478428 -0.03940153
-0.02088958 0.06797244 -0.01577847 0.045309972 -0.01467593 -0.09117459 -0.06602792 0.05373227
0.06389439 0.060070377 0.023995865 -0.029171754 -0.072514795 -0.07511927 -0.049113683 -0.07054267

linear2.bias f4 [80]
00000000: ac53 aebc 655f 0cbd 217e 9a3d 27df 32bd
00000010: 4367 0abe dd0e 063e 8f77 ffba a802 0fbd
00000020: 4096 0f3d 5fe6 123e 8851 1abe 00e6 b4bd
00000030: 6c12 97bd 64ca b13d 8d32 ffbc c6c4 60be
00000040: 1679 acbd 9249 8fbd 3158 98bc 5693 933d
00000050: 7ed5 c13d b87d 49be 33e8 89bd 4f61 93bd
00000060: 81c6 38be 5e3f 373d 779f 77bd 42e1 013d
00000070: cdae 8c3b b273 47be 84ae d23b 4927 36be
00000080: 3bff 83bd d92e b93d 11e1 9f3c c70a 093d
00000090: 2800 d83d cd8c 5b38 6a07 143d eedb 7e3d
000000a0: fdcc 9e3c 83a0 8f3d f916 2f3e f9d7 053e
000000b0: 2941 5abe e8bb 6ebb 980f 633d 9032 883c
000000c0: fe64 113e c7e4 29bc a12b c2bd 7613 52bc
000000d0: 9b36 39bc bc9f 21bd 7577 c83b 9808 923d
000000e0: cd03 ac3c ea5c 8cbd e29d 803d da9c f43d
000000f0: e0c2 183d 659c ccbd 8467 cb3d 9ded 1cbe
00000100: e416 fa3d 12ef 2f3b f89a 423e 00f2 ccbd
00000110: 76fe c5bd 4c05 3f3d 5776 65bd b8ca 68bd
00000120: 97fb aebd 0bd8 e3bd 468e 7abd f548 83bc
00000130: adc3 18be e480 8fbc 9d97 38bd 08dd b7bc
-0.021280132 -0.034270663 0.075435884 -0.043669846 -0.13515954 0.13091607 -0.0019490587 -0.034914643
0.0350554 0.14345692 -0.15070164 -0.088329315 -0.073765606 0.08681181 -0.031152034 -0.21950063
-0.08421533 -0.06996454 -0.01859674 0.072058365 0.094645485 -0.19676864 -0.067337416 -0.071962945
-0.18044473 0.044738166 -0.060454812 0.031708963 0.004293299 -0.19477728 0.0064294953 -0.17788424
-0.06445166 0.090421386 0.0195165 0.033457544 0.10546905 5.23448e-05 0.036139883 0.06222146
0.019384855 0.07013037 0.17098607 0.13070668 -0.21313919 -0.0036427919 0.055434793 0.016625673
0.14198682 -0.010369486 -0.09480978 -0.012822023 -0.011304523 -0.039458975 0.006117756 0.071305454
0.020997906 -0.068536595 0.06280114 0.119439796 0.037295222 -0.099907674 0.099318534 -0.15325017
0.12211397 0.0026845378 0.19004428 -0.10007095 -0.09667675 0.04663591 -0.05602106 -0.056833953
-0.08544081 -0.11125191 -0.06117084 -0.016026 -0.14918394 -0.017517515 -0.045066465 -0.022444263

linear3.weight f4 [2, 80]
00000000: 52a3 e8bc 6109 203a f6ef 113d c624 b63d
00000010: 0aa1 ea3d 1368 e23d 6dc8 ed3c 8ac5 ae3b
00000020: 7506 30be 228f 7a3d e6a3 9bbd 21d5 12bd
00000030: e868 b03d 4fc7 9c3d 7acd a53d 405d 94bd
00000040: cb7e e0bd 8fb6 81bd 1826 303d a3e7 5f3c
00000050: 544f 973d e9d5 ffbc 051d 9ebd f08a cfbc
00000060: 3963 7cbd 9e2e db3d 8a0d 90bc 2b81 c9bd
00000070: 6fe3 97ba 7fd4 803d faf6 82bd 69a5 2dbd
00000080: 00d4 abbd ec39 c1bd a1b5 fa3c 68fe 9c3d
00000090: d371 963d 4994 8cbb 4caa 763d 17a6 f63c
000000a0: d7cb 9f3c a18f 943c b46b c93a 87df eb3c
000000b0: 772b b7bd f1e1 9e3d 6e40 4c3d 7ad3 063d
000000c0: 0d9f 84be 156d a3bd 9585 b93d 9f78 ffbb
000000d0: 2cb7 76bb a8af 0fbd 6030 66bd d1be 9dbb
000000e0: cc52 153d e092 ac3d 90c1 9e3d 2aa3 523d
000000f0: 88d3 c2bd 7c9b 1e3d 2627 9e3d 6d9d 04bd
00000100: 0cab 81ba c02e 363e 579a 9b3d d758 6bbc
00000110: e8c6 8ebd 85e2 673c 6e34 6abd ac5d fb3c
00000120: 13a5 993d 60e0 b7bc afe5 aa3a 935e ddbc
00000130: be20 e63c 8bc8 ae3d 3f1e 503c e7dd 3c3d
00000140: 4fe7 c13c 0595 59bc d19d 8f3d 011f c7bd
00000150: b94d 9cbd 3954 98bc 0eac e63c 446e c63d
00000160: 8c28 58bd ef71 adbc d356 8f3a bcda c33d
00000170: ae85 5abd 2b4a 53bd 5453 573d c127 e23d
00000180: 084f e93c 1a71 5d3d 0577 a53c 5fc3 2fbd
00000190: 71ad 93bd 0330 993d 88f8 903d eac0 ca3d
000001a0: 26e6 053d efc4 783d e20b 323d 7e9d 32bd
000001b0: 24a6 093c b59f a13d 9e13 3bbb 30db 593d
000001c0: de13 19bd 4e08 d03b a8f2 4ebd 70ac 3dbd
000001d0: 3670 90bc b4bc 8d3c 9639 1bbd f6e8 0cbd
000001e0: 348d d93a d62f 363d a0c5 acbc 17be b9bd
000001f0: 2112 8e3d bf3f 41bd f920 98bd cd2d 9bbc
00000200: 0dcc 923e d06a 1c3d 3c8a c63d bf90 69bd
00000210: e048 b93d 89aa 90bd b800 b6bd 2e1d 9ebc
00000220: 63d3 d73d 5bc3 913d a9bc 2d3d 61ea 63bb
00000230: 0c7a 2f3c f856 8dbd 6e3f aebd 0672 bf3d
00000240: 3c0f 9cbd 25ff c1be e037 8cbd c1f3 ba3d
00000250: b38b d7bd 59f1 f7bc bf88 dbbc b59e ad3d
00000260: 448b 92bd 823c babc b79d 803d 5956 21bc
00000270: efef 803d 4800 213d 09c4 23bd 6988 0f3d
-0.02839819 0.0006104913 0.035629235 0.08893733 0.11456497 0.11055007 0.029026235 0.005333607
-0.17189963 0.06117166 -0.075996205 -0.035847787 0.08613759 0.076552026 0.08095832 -0.072443485
-0.10961684 -0.063336484 0.04300508 0.013666066 0.073881775 -0.03122993 -0.07720379 -0.025334805
-0.061618064 0.10702251 -0.01758458 -0.0983909 -0.0011588166 0.062905304 -0.06394763 -0.042394076
-0.08390045 -0.09434876 0.030604186 0.07665712 0.07345929 -0.004290138 0.060221 0.030108495
0.019506378 0.018134894 0.0015367181 0.02879311 -0.08943837 0.07757939 0.049866132 0.032916524
-0.25902596 -0.0797979 0.09058682 -0.0077963616 -0.00376458 -0.03507963 -0.056198478 -0.004814007
0.036455914 0.08426452 0.07751763 0.051425137 -0.09513003 0.0387225 0.07722311 -0.032376695
-0.0009892895 0.17791271 0.07597797 -0.014364443 -0.06971532 0.014153128 -0.057178907 0.030684315
0.075021885 -0.022445858 0.0013038422 -0.027022636 0.028091785 0.08534344 0.012702524 0.04611006
0.023669867 -0.013280158 0.07012523 -0.097227104 -0.07632012 -0.018594848 0.028158214 0.09689
-0.052773044 -0.021172492 0.001093591 0.09563205 -0.053350143 -0.051584404 0.052569702 0.11042739
0.028480068 0.05406294 0.020198354 -0.04291093 -0.07210816 0.07479861 0.070786536 0.09900077
0.03269019 0.060734686 0.043468364 -0.043607228 0.008401427 0.0789179 -0.0028545628 0.05318755
-0.037372462 0.0063486462 -0.050524384 -0.046307027 -0.017631631 0.017301895 -0.037896715 -0.034401856
0.0016597868 0.044479214 -0.021090329 -0.0906946 0.069370516 -0.047179934 -0.07428164 -0.018942738
0.28671303 0.0381878 0.09694335 -0.057022806 0.09047103 -0.07063777 -0.08886856 -0.019301023
0.10538366 0.07117339 0.04241625 -0.0034777152 0.010710251 -0.069013536 -0.08508192 0.0934792
-0.07620093 -0.37889972 -0.06846595 0.091285236 -0.105246924 -0.03026645 -0.026798604 0.084775366
-0.07155469 -0.02273393 0.06280082 -0.009847247 0.06295764 0.03930691 -0.039981876 0.0350422

linear3.bias f4 [2]
00000000: a3c4 daba 8f1f 2cbe
-0.0016690682 -0.16808914
