1/checkpoints/origin/2020-11-16T14-26-21-16-classify/classify_fold0_origin_0.960000.pth (torch, 38373 bytes, 6 tensors)

linear1.weight f4 [100, 6]
0	0x3ea233af	0.31680056
1	0xbe89a4fb	-0.26883683
2	0xbe6239f2	-0.22092417
3	0xbe440a1a	-0.19144478
4	0x3f05dc91	0.5228968
5	0x3e75965b	0.23983137
6	0x3eb583c2	0.35452086
7	0x3e5f036c	0.21778649
8	0xbd83e0c0	-0.06439352
9	0xbe87e798	-0.2654388
10	0x3e8c8ba6	0.27450293
11	0x3e2ecb4a	0.17069736
12	0x3cd069f4	0.025441147
13	0x3d9f776c	0.0778645
14	0x3e1810a2	0.14850095
15	0x3e9815cb	0.29704127
16	0xbb394bcf	-0.0028273945
17	0x3d7a9551	0.061177555
18	0xbea6d2c1	-0.32582667
19	0xbe1d3f08	-0.15356076
20	0xbe0d34df	-0.137897
21	0x3c01e407	0.007927901
22	0x3ebee375	0.3728291
23	0xbe2f9726	-0.17147502
24	0xbd9bcea9	-0.07607777
25	0x3daa9067	0.08328324
26	0xbdbaeaca	-0.09126814
27	0x3ed8d2a6	0.42348212
28	0x3e2666fc	0.16250223
29	0xbe5df851	-0.21676756
30	0xbe089c0f	-0.13340782
31	0xbe52eb2e	-0.20597526
32	0xbe96419a	-0.29346925
33	0x3e417d59	0.18895473
34	0xbec21f23	-0.3791438
35	0xbe3da095	-0.18518288
36	0xbe6bc74d	-0.23025246
37	0xbdbd6dc5	-0.092494525
38	0xbe1f14aa	-0.15535226
39	0x3e5147c4	0.20437533
40	0xbd61970c	-0.05507569
41	0x3e430b71	0.19047333
42	0x3e3caef5	0.18426116
43	0x3dca501b	0.0987856
44	0xbe6a24d6	-0.22865614
45	0x3e08a119	0.13342704
46	0x3e8723d6	0.26394528
47	0x3e9b24e9	0.30301598
48	0xbe879cfa	-0.2648695
49	0x3ebbc910	0.36676836
50	0xbe67150a	-0.2256662
51	0xbf3e5287	-0.74344677
52	0x3e82944c	0.25503767
53	0x3c4a6e6c	0.012355428
54	0xbdb7ee8a	-0.089810446
55	0x3d50e031	0.050995056
56	0x3ca51e98	0.02015619
57	0x3eb4b736	0.3529603
58	0xbc0e0ffb	-0.008670802
59	0x3e356b60	0.17716742
60	0x3e1e3437	0.15449606
61	0x3e790d62	0.24321511
62	0xbe748ccc	-0.23881835
63	0x3d7ae43b	0.061252814
64	0xbd87583f	-0.066086285
65	0x3e4d7396	0.20063624
66	0xbeec42ea	-0.461448
67	0x3d985140	0.07437372
68	0xbc0359e3	-0.008017036
69	0x3e23d320	0.15998507
70	0xbde40465	-0.11133651
71	0xbe45f0e8	-0.1933018
72	0x3efbfec8	0.4921782
73	0x3df8c510	0.12146962
74	0xbdfcd363	-0.12345006
75	0xbe80b521	-0.2513819
76	0x3e2ef545	0.1708575
77	0x3e4a2ae8	0.1974293
78	0x3e396d9c	0.18108219
79	0xbec2472e	-0.3794493
80	0x3d5cc134	0.05389519
81	0x3c95521f	0.018227635
82	0xbdcd23a8	-0.100165665
83	0xbed115b2	-0.40836865
84	0xbeb5232e	-0.35378402
85	0x3d52cf2f	0.051467117
86	0x3e2fcf10	0.17168832
87	0x3d9b76c5	0.07591013
88	0x3e6095e0	0.21932173
89	0x3e2254aa	0.1585261
90	0x3eb9af5f	0.3626661
91	0xbee7c83f	-0.45269963
92	0x3dcc89ce	0.09987222
93	0x3e1c4ff9	0.15264882
94	0x3f05e12f	0.5229673
95	0x3cddf271	0.027093144
96	0x3e10502e	0.14093086
97	0x3e031b76	0.12803444
98	0xbd8cc969	-0.068743534
99	0xbe9896f7	-0.29802677
100	0x3e804c77	0.25058338
101	0x3eaf97f0	0.34295607
102	0xbe394795	-0.18093713
103	0x3ec57d30	0.38572073
104	0xbe85bfd5	-0.2612292
105	0xbee893d7	-0.45425293
106	0x3d956dbc	0.07296321
107	0xbe4c100b	-0.19927995
108	0xbe0f4ef2	-0.13994959
109	0xbea2f098	-0.31824183
110	0xbdb830c4	-0.08993676
111	0x3e53c05d	0.2067885
112	0xbd329f51	-0.043608967
113	0xbeb888b2	-0.3604179
114	0xbe26a20c	-0.16272753
115	0x3e3b3550	0.18282056
116	0x3e25cde5	0.16191824
117	0x3ec9dd1b	0.39426503
118	0xbebdf544	-0.37101185
119	0x3d0a25b3	0.03372736
120	0xbe6dbb5a	-0.23216
121	0xbe5b690b	-0.2142679
122	0x3e232a5e	0.1593413
123	0xbddd1beb	-0.107963406
124	0xbf1e67d2	-0.6187717
125	0xbe92327d	-0.28554145
126	0x3ea215a2	0.3165713
127	0x3da61869	0.081101246
128	0xbebf051f	-0.37308595
129	0xbed5119c	-0.41614997
130	0x3e362ee6	0.17791328
131	0xbe5d98a9	-0.21640266
132	0x3e995bfb	0.29952988
133	0xbe289741	-0.16463949
134	0xbe3d850f	-0.18507789
135	0xbebdae28	-0.37046933
136	0x3e5c3de1	0.2150798
137	0x3d4567ca	0.048194684
138	0xbc6c9d29	-0.014441767
139	0xbdb12ecf	-0.08651506
140	0x3eacd152	0.3375345
141	0xbe342fa3	-0.17596297
142	0xbd36c3a0	-0.044620156
143	0x3e684f00	0.22686386
144	0x3d00ac24	0.031414166
145	0xbea798d5	-0.3273379
146	0x3ea43746	0.3207342
147	0xbea26997	-0.31721184
148	0xbcaefaf9	-0.021359907
149	0x3b892de3	0.0041863783
150	0xbe4919bb	-0.19638722
151	0x3ec43211	0.38319448
152	0x3eba3b11	0.3637319
153	0x3d5fc19e	0.054628007
154	0xbd91d6be	-0.07121037
155	0xbe490767	-0.1963173
156	0xbda8195d	-0.08207963
157	0xbeded8c0	-0.43524742
158	0x3e0d79ca	0.1381599
159	0x3e9ddd1b	0.30832753
160	0xbc56b1b1	-0.013103888
161	0xbe443f9f	-0.19164895
162	0xbe2dc6b1	-0.16970326
163	0x3e001044	0.12506205
164	0x3e9f1e09	0.31077603
165	0x3e830429	0.2558911
166	0x3e750656	0.23928198
167	0xbedbfe00	-0.42967224
168	0x3e7ab0e1	0.24481536
169	0xbe32d5d2	-0.17464378
170	0x3eb0c224	0.34523118
171	0x3eedf95b	0.46479306
172	0xbbf71d87	-0.0075413617
173	0x3e2257fc	0.15853876
174	0xbe4e539d	-0.20149083
175	0x3e1a5fb9	0.15075578
176	0xbe088b4b	-0.13334386
177	0xbec465e4	-0.38358986
178	0xbdf025ce	-0.11725961
179	0xbd7bc8be	-0.06147074
180	0x3e97eba6	0.29671973
181	0x3ea27de1	0.31736663
182	0xbdf9547b	-0.121743165
183	0x3e2b37b0	0.16720462
184	0x3e92d448	0.28677583
185	0x3eb7c0f1	0.3588939
186	0xbe56a1b2	-0.2096012
187	0xbebefe52	-0.37303406
188	0x3da3fd05	0.08007244
189	0xbf4f7b4f	-0.8104753
190	0x3cc44870	0.023960322
191	0xbf11f28c	-0.5701072
192	0xbda64f3f	-0.08120584
193	0x3db109dd	0.086444594
194	0xbe3961be	-0.18103692
195	0xbe317021	-0.1732793
196	0x3e196c86	0.14982805
197	0xbdf35521	-0.118814714
198	0xbd39aa28	-0.04532829
199	0x3d165d39	0.036709998
200	0xbe2433d6	-0.16035399
201	0xbe30c622	-0.17263082
202	0xbec692a0	-0.3878374
203	0x3e4e5106	0.20148095
204	0x3de80cde	0.11330579
205	0x3e10cde7	0.14141046
206	0x3cc4e798	0.024036214
207	0x3e866ace	0.2625336
208	0xbcfe132b	-0.031015
209	0xbee3a020	-0.44458103
210	0xbc5d1996	-0.01349487
211	0xbdd2593a	-0.10270925
212	0xbeaa43ac	-0.33254755
213	0xbeb3c76d	-0.35113087
214	0x3e2e3574	0.17012578
215	0xbead032f	-0.3379149
216	0xbe143da3	-0.14476638
217	0xbe574e3c	-0.21025938
218	0xbebee619	-0.37284926
219	0x3e2cf082	0.16888621
220	0xbebb56a0	-0.36589527
221	0x3ed4cb3e	0.4156131
222	0xbe5f352d	-0.21797629
223	0x3e136520	0.14394045
224	0xbe231d20	-0.15929079
225	0x3ebe85aa	0.37211353
226	0xbbf017ff	-0.0073270793
227	0x3ec59e32	0.38597256
228	0x3e81c673	0.25346717
229	0xbe886e96	-0.2664687
230	0xbdb44059	-0.08801336
231	0xbeca0d62	-0.39463335
232	0x3ddf7af1	0.10912121
233	0xbe0b24fa	-0.13588324
234	0xbd20a4b1	-0.039219562
235	0x3d9be9b5	0.076129355
236	0x3ce0d365	0.02744455
237	0x3eb8d2dd	0.36098376
238	0x3dc7be83	0.09753134
239	0x3da92467	0.08258896
240	0x3c48e1c3	0.012260857
241	0x3ed21b51	0.41036466
242	0xbe9d3c2a	-0.30709964
243	0xbf4bc4dd	-0.79597265
244	0xbe3b3271	-0.1828096
245	0xbe6d5b3d	-0.23179336
246	0xbeb16378	-0.346462
247	0xbe9351a1	-0.28773215
248	0xbec2d326	-0.38051718
249	0x3db0e046	0.08636527
250	0x3df832cc	0.12119064
251	0x3e25c3db	0.16187994
252	0xbebc8983	-0.36823663
253	0x3d73b40c	0.059497878
254	0xbd99030b	-0.074712835
255	0x3cb38173	0.021912312

linear1.bias f4 [100]
0	0xbe036a5f	-0.12833546
1	0xbe963707	-0.29338858
2	0x3df02e1b	0.11727544
3	0xbcb63d64	-0.02224607
4	0x3e57147f	0.21003912
5	0x3dae2df2	0.08504857
6	0xbecefb54	-0.40426123
7	0xbb9a3c11	-0.0047068675
8	0xbceaf88e	-0.028682973
9	0xbe2b5af4	-0.16733915
10	0x3dfca1c6	0.12335543
11	0xbee18e51	-0.4405389
12	0x3e16d224	0.147286
13	0x3ef8398d	0.48481408
14	0xbeb3731c	-0.3504876
15	0xbe829b2b	-0.2550901
16	0x3e822d72	0.25425297
17	0xbdefb22d	-0.11703906
18	0x3e863e9c	0.26219642
19	0x3d48fae9	0.04906741
20	0xbebfa5bd	-0.37431136
21	0x3dd0b04d	0.10189877
22	0xbe32b57f	-0.17452048
23	0xbea0c32c	-0.31398904
24	0xbe6186b7	-0.22024046
25	0xbe920257	-0.2851741
26	0x3d8b1b02	0.06792261
27	0xbeb62890	-0.35577822
28	0xbc12b70d	-0.0089547755
29	0x3dbf8dcb	0.09353217
30	0xbe2c5c59	-0.16832103
31	0x3f14d192	0.5813228
32	0x3e81d271	0.25355867
33	0x3ecb6256	0.39723462
34	0x3e5eee21	0.21770526
35	0x3e956682	0.2917977
36	0x3e34ece1	0.17668487
37	0xbd5d0d53	-0.053967785
38	0xbe39fb46	-0.1816226
39	0xbed99da7	-0.42503092
40	0xbd67e5a7	-0.056615498
41	0xbe2c73ae	-0.16841003
42	0xbe62dff1	-0.2215574
43	0xbd92b10e	-0.07162677
44	0xbe6b2a39	-0.22965325
45	0xbebf5b7a	-0.3737448
46	0x3dacdac9	0.084401675
47	0xbe3a1e51	-0.18175627
48	0xbe3eaf92	-0.18621662
49	0xbdae6175	-0.08514682
50	0xbe8ecc04	-0.27890027
51	0xbebdc2b2	-0.37062603
52	0x3e19ff62	0.15038827
53	0x3d0dd9a3	0.034631383
54	0x3d999c54	0.0750052
55	0x3da06e05	0.078334846
56	0x3c8587f5	0.01630018
57	0xbe13d0be	-0.14435098
58	0x3d1a1ee1	0.037627105
59	0x3eb36c79	0.35043696
60	0xbd284557	-0.041081753
61	0xbe3aeec1	-0.1825514
62	0xbe353495	-0.1769584
63	0xbce70d91	-0.028204711
64	0x3f03fdd6	0.515592
65	0x3e1e1d1b	0.1544079
66	0x3d587442	0.052845247
67	0x3eebdd73	0.4606739
68	0x3dd4c544	0.10389188
69	0x3deebe0a	0.11657341
70	0xbeae41c0	-0.34034538
71	0xbea32bd9	-0.3186939
72	0x3df967d1	0.121780045
73	0xbe176aff	-0.1478691
74	0x3e06cd90	0.13164353
75	0xbed5acf6	-0.4173352
76	0x3dafb6dd	0.085798
77	0xbe216798	-0.15762174
78	0xbcf6d686	-0.03013159
79	0x3eb00d32	0.34385067
80	0x3cf4fc6e	0.029905524
81	0x3e92410e	0.28565258
82	0x3e3ccb4d	0.18436928
83	0xbed055e3	-0.40690526
84	0xbe8c4d88	-0.27402902
85	0x3deb8c21	0.11501337
86	0x3e4737b3	0.19454841
87	0x3c6bef93	0.014400381
88	0xbd22c0c7	-0.039734628
89	0x3e2b9dcb	0.16759412
90	0x3ef75e80	0.48314285
91	0x3dcb30a2	0.09921385
92	0xbd6b1726	-0.057395123
93	0xbd894a82	-0.06703664
94	0xbe36bf81	-0.1784649
95	0x3e68f7d2	0.22750786
96	0xbe6e441d	-0.2326817
97	0x3ebc236b	0.36745772
98	0xbe9e0f0e	-0.3087086
99	0xbd6dd13d	-0.058060873

linear2.weight f4 [80, 100]
0	0x3c8f7baf	0.017515032
1	0xbd12676d	-0.035743166
2	0x3cc93292	0.024560247
3	0x3d013c90	0.031551898
4	0x3d468250	0.04846412
5	0x3d536280	0.05160761
6	0x3d0f6737	0.035010543
7	0x3d68a6e3	0.05679978
8	0xbc5c3133	-0.013439464
9	0x3c2d2a0f	0.01056911
10	0xbd52d791	-0.05147511
11	0x3bbbb0cd	0.0057278634
12	0xbd953a0c	-0.07286462
13	0x3c8f6772	0.017505381
14	0x3d1b4faa	0.03791777
15	0x3d2df49c	0.042469606
16	0x3be48db9	0.0069749025
17	0xbd788273	-0.06067128
18	0x3d17f963	0.037103068
19	0xbd98f4ad	-0.07468543
20	0x3d966b3a	0.073446706
21	0xbd405f3d	-0.046965826
22	0x3c1a2f28	0.009410657
23	0xbc51e318	-0.012810491
24	0x3cb129a8	0.021626309
25	0xbcd26ac4	-0.025685675
26	0xbc4eadcd	-0.0126146795
27	0xbdb059f8	-0.0861091
28	0x3cd1c354	0.025605835
29	0x3d6ab2ed	0.057299543
30	0xbd2332e1	-0.039843444
31	0xbcd92fba	-0.026512016
32	0xbda2aaa7	-0.079427056
33	0x3ccae18d	0.024765754
34	0x3c4035cb	0.011731575
35	0xbd97fa52	-0.07420792
36	0xbd9a1323	-0.07523181
37	0x3c90b8ad	0.017666185
38	0xbdbad116	-0.09121911
39	0xbdcb38a1	-0.099229105
40	0x3d65ccd3	0.05610354
41	0xbd8bf23a	-0.068333104
42	0xbce60347	-0.028077735
43	0xbd518d20	-0.051159978
44	0xbb716915	-0.0036836315
45	0x3d905fc2	0.07049514
46	0xbd9089df	-0.07057547
47	0x3d761c97	0.06008586
48	0xbda95691	-0.08268464
49	0x3d95ccf7	0.073144846
50	0x3daff8d0	0.08592379
51	0x3d116db6	0.03550502
52	0x3d61dd8e	0.05514293
53	0xbd880508	-0.06641585
54	0xbd9e3922	-0.07725741
55	0x3d3f0e69	0.046644602
56	0xbd485a3d	-0.048914183
57	0xbd7bea0c	-0.0615025
58	0x3dad335f	0.08457064
59	0xbcbe7e21	-0.023253502
60	0x3d13ab10	0.03605181
61	0x3be0d127	0.0068608704
62	0xbdcb5168	-0.099276364
63	0x3cdea1ec	0.02717682
64	0x3cc15f6c	0.023605071
65	0xbd992ad8	-0.07478875
66	0x3c61d78d	0.0137843015
67	0x3cafff63	0.021484083
68	0xbd3f04a1	-0.046635274
69	0x3cef3f7d	0.029205078
70	0x3d3c9b97	0.04604682
71	0xbd9374df	-0.07200026
72	0x3ccb5ea7	0.024825407
73	0x37a9e730	2.0254025e-05
74	0x3c79fd73	0.015258181
75	0xbdaf93db	-0.08573123
76	0x3d53d808	0.051719695
77	0x3b729d00	0.0037019849
78	0xbd934573	-0.07190981
79	0xbd86fb55	-0.065909065
80	0x3dbddd42	0.09270717
81	0xbdc7c112	-0.09753622
82	0x3d872134	0.0659813
83	0x3c532281	0.012886644
84	0xbd081940	-0.033227205
85	0xbd6ca7c0	-0.057777166
86	0xbd80ceb8	-0.062894285
87	0x3d85cf0d	0.065336324
88	0x3c8abb20	0.016934931
89	0xbcd3fbfa	-0.025876988
90	0xbd752018	-0.05984506
91	0xbd7d5c1a	-0.061855413
92	0xbdc2ab7a	-0.09505363
93	0x3d1392d2	0.03602869
94	0x3c472627	0.012155092
95	0xbcac5ca1	-0.021040263
96	0xba091f41	-0.00052307924
97	0xbda64393	-0.081183575
98	0xbb23ee9a	-0.0025014044
99	0xbdc7f574	-0.09763613
100	0x3d30825a	0.043093063
101	0xbd949b25	-0.07256154
102	0xbc281570	-0.010259017
103	0x3db68067	0.089112096
104	0x3cf87af1	0.03033206
105	0xbd027d23	-0.03185762
106	0x3d03d896	0.032188974
107	0xbd12eca7	-0.03587022
108	0x3c4a0768	0.012330867
109	0xbda27bb1	-0.079337485
110	0x3d6d2afa	0.057902314
111	0xbcbfcf59	-0.0234143
112	0x3c3bd73e	0.011464892
113	0xbd3f5f5f	-0.046721812
114	0x3d896e95	0.06710545
115	0x3d3ae30e	0.045626692
116	0x3dc6f726	0.097151086
117	0xbd96ad99	-0.0735733
118	0xbd1fc189	-0.03900293
119	0x3bbc996e	0.005755595
120	0x3d4311ef	0.047624525
121	0xbd94ad3f	-0.072596066
122	0x3bb4a2f6	0.0055125905
123	0x3cab835f	0.020936666
124	0x3d452587	0.048131492
125	0xbd1be5a2	-0.03806079
126	0x3c7e50f8	0.015522234
127	0xbd7e9620	-0.06215489
128	0xbda343dd	-0.07971928
129	0xbd9f7af8	-0.07787126
130	0x3d923c74	0.07140437
131	0xbd9f93c4	-0.07791856
132	0xbda5d4b8	-0.080972135
133	0xbdb46ff5	-0.088104166
134	0x3c7471fe	0.014919756
135	0x3d999c5d	0.07500527
136	0xbdd2b857	-0.10289066
137	0x3d875a85	0.06609062
138	0xbdbf4547	-0.093393855
139	0xbdad53ab	-0.08463224
140	0xbd3c6d13	-0.04600246
141	0xbdaf5712	-0.08561529
142	0x3db72dd8	0.08944291
143	0x3da916a2	0.0825627
144	0x3c9928f8	0.018696293
145	0x3c496572	0.012292253
146	0x3d1e8ad0	0.0387066
147	0xbcd7772b	-0.02630194
148	0x3d46b490	0.04851204
149	0xbc0275b2	-0.007962631
150	0xbca9064d	-0.020632887
151	0xbd8f6213	-0.07001128
152	0xbdb4b83f	-0.08824205
153	0xbdcc4087	-0.09973245
154	0x3ce431a3	0.0278557
155	0xbc873a55	-0.016507307
156	0x3d9d75d2	0.07688488
157	0xbd0a3c36	-0.033748828
158	0x3d932627	0.07185011
159	0xbd7c3b03	-0.061579715
160	0x3cf1f17a	0.02953409
161	0x3dc938c1	0.09825278
162	0x3ccb52e6	0.024819802
163	0xbcf97118	-0.030449435
164	0xbda129d7	-0.078693084
165	0xbbc10c4e	-0.0058913594
166	0xbd03e2f7	-0.032198872
167	0xbccbe798	-0.024890706
168	0xbd6f54ba	-0.05843041
169	0x3c4fb6a4	0.012677822
170	0x3c94fc88	0.018186823
171	0xbd954b0e	-0.07289706
172	0x3c6b4067	0.014358616
173	0x3d14cb4a	0.036326684
174	0xbc8ee260	-0.017441928
175	0xbd018607	-0.03162196
176	0xbc94f53a	-0.01818334
177	0x39155e1c	0.00014244806
178	0x3bf55fd9	0.0074882326
179	0xbdba4a2f	-0.09096181
180	0x3d52542d	0.051349808
181	0xbd1844c4	-0.037174955
182	0xbdac79e9	-0.0842169
183	0x3d0735e0	0.033010364
184	0xbdaa8e95	-0.083279766
185	0xbdfa962e	-0.12235676
186	0xbd87925d	-0.066197135
187	0xbdbe9286	-0.09305291
188	0xbde688e9	-0.11256582
189	0xbdc25854	-0.094895035
190	0xbd7ee581	-0.06223059
191	0xbddcffd6	-0.10790984
192	0xbc8d3ca7	-0.017240835
193	0xbca8dcec	-0.020613156
194	0xbcada280	-0.02119565
195	0xbcab2095	-0.02088956
196	0xbde1b435	-0.110207
197	0x3cd93454	0.02651421
198	0xbdab8ffa	-0.08377071
199	0x3b5f331f	0.003405757
200	0xbd92a2f2	-0.071599856
201	0xbc80699e	-0.015675362
202	0x3d7baf88	0.061446697
203	0xbc024380	-0.007950664
204	0xbd46dd4d	-0.048550893
205	0xbc8a6480	-0.016893625
206	0x3dc5ff10	0.0966779
207	0xbda45f2b	-0.08025964
208	0xbdbeb2ff	-0.093114845
209	0xbcdd8afc	-0.027043812
210	0x3d8b0d2a	0.0678962
211	0x3d9b99a1	0.07597662
212	0xbd9b7355	-0.07590357
213	0xbda7f60f	-0.08201229
214	0xbdb1dd08	-0.086847365
215	0xbd8e5249	-0.069492884
216	0xbc0741f3	-0.00825547
217	0x3ca00413	0.019533193
218	0x3da41040	0.08010912
219	0x3c92a337	0.017900093
220	0xbd76360f	-0.060110148
221	0xbd8ffa12	-0.07030119
222	0x3b8ddecd	0.0043295384
223	0x3d857253	0.06515946
224	0x3da78b66	0.08180885
225	0x3cf63561	0.03005475
226	0xbc0b59b4	-0.008505274
227	0xbd92ce07	-0.07168203
228	0xbcc441d8	-0.023957178
229	0x3dbba780	0.091628075
230	0xbc8d9705	-0.017283926
231	0xbd79b4de	-0.060963504
232	0xbd63f7bd	-0.055656184
233	0x3d063540	0.032765627
234	0x3d102b97	0.03519782
235	0x3d129e80	0.03579569
236	0xbb545267	-0.0032397748
237	0x3da0b968	0.078478634
238	0x3d84ad9f	0.06478428
239	0xbd216380	-0.03940153
240	0xbcab20a0	-0.02088958
241	0x3d8b3522	0.06797244
242	0xbc8141da	-0.01577847
243	0x3d3996f3	0.045309972
244	0xbc707350	-0.01467593
245	0xbdbab9be	-0.09117459
246	0xbd8739a5	-0.06602792
247	0x3d5c165e	0.05373227
248	0x3d82db10	0.06389439
249	0x3d760c5b	0.060070377
250	0x3cc492fa	0.023995865
251	0xbceef99a	-0.029171754
252	0xbd9482a3	-0.072514795
253	0xbd99d822	-0.07511927
254	0xbd492b6e	-0.049113683
255	0xbd9078ad	-0.07054267

linear2.bias f4 [80]
0	0xbcae53ac	-0.021280132
1	0xbd0c5f65	-0.034270663
2	0x3d9a7e21	0.075435884
3	0xbd32df27	-0.043669846
4	0xbe0d75d7	-0.13814484
5	0x3e08b064	0.13348538
6	0x3c81362d	0.015772903
7	0xbd0f02a8	-0.034914643
8	0xbda14729	-0.07874901
9	0x3e213370	0.15742278
10	0xbe1ef844	-0.15524393
11	0xbdb4e600	-0.088329315
12	0xbd97126c	-0.073765606
13	0x3db1ca64	0.08681181
14	0xbcff5caa	-0.031172115
15	0xbe3d1c28	-0.18467772
16	0xbd7005d0	-0.058599293
17	0xbd8f4992	-0.06996454
18	0xbc22abd4	-0.009928662
19	0x3da6c60d	0.08143244
20	0x3d8c389c	0.06846735
21	0xbe3a4b7a	-0.18192855
22	0xbda69ae1	-0.081350096
23	0xbd53d268	-0.05171433
24	0xbe1b7d53	-0.15184526
25	0x3d373f47	0.04473808
26	0xbd779f77	-0.060454812
27	0x3d01e142	0.031708963
28	0x3b8caecd	0.004293299
29	0xbe3a892a	-0.18216386
30	0x3c0ee435	0.008721401
31	0xbe0d368d	-0.1379034
32	0xbd83ff3b	-0.06445166
33	0x3db92ed9	0.090421386
34	0x3d1430a1	0.03617919
35	0x3d090ac7	0.033457544
36	0x3e0b738f	0.13618301
37	0x385b8ccd	5.23448e-05
38	0x3d43038e	0.047610812
39	0x3d70b80f	0.058769282
40	0x3c9eccfd	0.019384855
41	0x3d8fa083	0.07013037
42	0x3e354c0f	0.17704795
43	0x3de68d9c	0.112574786
44	0xbe3ec4c4	-0.18629748
45	0x3c29506a	0.010334114
46	0x3d8ed15b	0.06973525
47	0x3d3c063f	0.045904394
48	0x3da85e5d	0.08221123
49	0xbc29a99d	-0.01035538
50	0xbdbf62b1	-0.09344996
51	0xbbbe0ee3	-0.0058001145
52	0xbc2119e8	-0.009832837
53	0xbd219fbc	-0.039458975
54	0x3bc87775	0.006117756
55	0x3da1e4f1	0.07904995
56	0x3cac03cd	0.020997906
57	0xbd91faf9	-0.07127947
58	0x3d66ec4f	0.056377705
59	0x3e0ab001	0.13543703
60	0x3d18c2e0	0.037295222
61	0xbdcc9c65	-0.099907674
62	0x3ded6c06	0.115928695
63	0xbdf40607	-0.11915212
64	0x3dca4510	0.09876454
65	0x3c5a225b	0.013313855
66	0x3e50fd59	0.20409144
67	0xbdcd0fde	-0.10012792
68	0xbdc5fe76	-0.09667675
69	0x3d9b894a	0.07594545
70	0xbd657657	-0.05602106
71	0xbd68cab8	-0.056833953
72	0xbdaefb97	-0.08544081
73	0xbde3d80b	-0.11125191
74	0xbd2243f4	-0.039615586
75	0xbcedccc4	-0.029028304
76	0xbe18c3ad	-0.14918394
77	0x3bcdc419	0.00627948
78	0xbcd9c369	-0.026582437
79	0xbcb7dd08	-0.022444263

linear3.weight f4 [2, 80]
0	0xbce8a352	-0.02839819
1	0x3a200961	0.0006104913
2	0x3d11eff6	0.035629235
3	0x3db624c6	0.08893733
4	0x3dea66bc	0.11445376
5	0x3dc9ef9e	0.098601565
6	0x3d30ab50	0.043132126
7	0x3baec58a	0.005333607
8	0xbdb7e389	-0.08978946
9	0x3d9348fb	0.07191654
10	0xbda0cb85	-0.07851318
11	0xbd12d521	-0.035847787
12	0x3db068e8	0.08613759
13	0x3d9cc74f	0.076552026
14	0x3da5cd7a	0.08095832
15	0xbd8dd295	-0.06924931
16	0xbdd88e28	-0.10573989
17	0xbd81b68f	-0.063336484
18	0x3d3037a8	0.043021828
19	0x3c5d9292	0.013523715
20	0x3d84ac6c	0.06478199
21	0xbcf6c472	-0.03012297
22	0xbda64844	-0.08119252
23	0xbcce8b42	-0.025212888
24	0xbd68058a	-0.056645907
25	0x3ddb2e9e	0.10702251
26	0xbc900d8a	-0.01758458
27	0xbdc9812b	-0.0983909
28	0xba97e36f	-0.0011588166
29	0x3d829687	0.06376367
30	0xbd842632	-0.06452598
31	0xbcd2eb27	-0.025746895
32	0xbdabd400	-0.08390045
33	0xbdc139ec	-0.09434876
34	0x3d263ea3	0.04058708
35	0x3d9cfe68	0.07665712
36	0x3da96977	0.08272069
37	0xbb8c9449	-0.004290138
38	0x3d9aa1dc	0.075504035
39	0x3cc48980	0.023991346
40	0x3c9fcbd7	0.019506378
41	0x3c948fa1	0.018134894
42	0x3bdcc76f	0.0067376415
43	0x3cd54944	0.026035912
44	0xbda59203	-0.0808449
45	0x3da4cc82	0.08046819
46	0x3d5eefb0	0.054427803
47	0x3d15da9d	0.03658544
48	0xbd58062d	-0.052740265
49	0xbda36f40	-0.07980204
50	0x3db98595	0.09058682
51	0xbb768271	-0.003761437
52	0xbb76f3f0	-0.003768202
53	0xbd0fafa8	-0.03507963
54	0xbd663060	-0.056198478
55	0x3b86d000	0.004114151
56	0x3d1552cc	0.036455914
57	0x3d53a360	0.05166948
58	0x3d9f58f2	0.07780637
59	0x3d7066f8	0.05869195
60	0xbdc2d388	-0.09513003
61	0x3d1e9b7c	0.0387225
62	0x3da91266	0.08255462
63	0xbcd68524	-0.026186533
64	0xbb13b564	-0.0022538537
65	0x3d913d8a	0.07091816
66	0x3da91756	0.08256404
67	0xbc6b57d6	-0.014364203
68	0xbd8ec6e8	-0.06971532
69	0x3cab6892	0.020923886
70	0xbd6a346e	-0.057178907
71	0x3cfb5dac	0.030684315
72	0x3d99a513	0.075021885
73	0xbcb7e060	-0.022445858
74	0x3b1e6ca1	0.0024173635
75	0xbcdf6651	-0.027270468
76	0x3ce620be	0.028091785
77	0x3dbbce95	0.09170262
78	0x3c4d026b	0.0125127835
79	0x3d3cdde7	0.04611006
80	0x3cc1e74f	0.023669867
81	0xbc599505	-0.013280158
82	0x3d8f9dd1	0.07012523
83	0xbdc71f01	-0.097227104
84	0xbd507e35	-0.05090161
85	0xbb9fa98b	-0.004872506
86	0x3c82417d	0.015900368
87	0x3dc66e44	0.09689
88	0xbdb4e202	-0.0883217
89	0xbd02268f	-0.031775054
90	0x3ae3c4ac	0.0017377338
91	0x3dc3dabc	0.09563205
92	0xbd5a85ae	-0.053350143
93	0xbd534a2b	-0.051584404
94	0x3d57ae22	0.0526563
95	0x3db5494f	0.08851873
96	0x3ca9c763	0.020724958
97	0x3d5d711a	0.05406294
98	0x3ca26089	0.019821422
99	0xbd29baa5	-0.041437764
100	0xbd7968e2	-0.06089104
101	0x3d814d82	0.063136116
102	0x3d97118d	0.073763944
103	0x3dcc3864	0.09971693
104	0x3ccae5b0	0.024767727
105	0x3d78c4ef	0.060734686
106	0x3d320be2	0.043468364
107	0xbd329d7e	-0.043607228
108	0x3c09a624	0.008401427
109	0x3da2ed7c	0.07955453
110	0xbb2e31b5	-0.002657992
111	0x3d16414d	0.03668337
112	0xbd1913de	-0.037372462
113	0x3bd0084e	0.0063486462
114	0xbd4c0dcf	-0.049817856
115	0xbd3dac70	-0.046307027
116	0xbcebc901	-0.02878237
117	0x3c8dbcb4	0.017301895
118	0xbd284028	-0.04107681
119	0xbcedc96d	-0.029026711
120	0x3ad98d34	0.0016597868
121	0x3d362fd6	0.044479214
122	0xbcc08acb	-0.023503682
123	0xbdb0af9b	-0.08627244
124	0x3d6eb760	0.05828035
125	0xbd6c86d8	-0.057745785
126	0xbd9c6afd	-0.07637594
127	0xbcd5b164	-0.026085563
128	0x3e2921c9	0.16516794
129	0x3d1c6e42	0.038191088
130	0x3dc69bef	0.09697711
131	0xbd6e0a0c	-0.05811505
132	0x3db94adb	0.09047481
133	0xbd90aa89	-0.07063777
134	0xbdb600b8	-0.08886856
135	0xbccc2278	-0.02491878
136	0x3dd7d363	0.10538366
137	0x3d95d44f	0.07315885
138	0x3d223bf7	0.03960797
139	0xbbcf8440	-0.006332904
140	0x3c2f7a0c	0.010710251
141	0xbd8d56f8	-0.069013536
142	0xbdb4b378	-0.088232934
143	0x3da5cbe2	0.08095528
144	0xbd92f3be	-0.071753964
145	0xbe4140c2	-0.1887236
146	0xbd998716	-0.07496469
147	0x3dbaf18f	0.09128105
148	0xbdd78bb3	-0.105246924
149	0xbd1a9cb9	-0.03774712
150	0xbcdb88bf	-0.026798604
151	0x3dad9eb5	0.084775366
152	0xbd928b44	-0.07155469
153	0xbcba3c82	-0.02273393
154	0x3d70fae6	0.058833025
155	0xbc408bf6	-0.011752119
156	0x3d80efef	0.06295764
157	0x3d142c84	0.036175266
158	0xbd1e117b	-0.03859089
159	0x3d0f8869	0.0350422

linear3.bias f4 [2]
0	0x3c827696	0.015925687
1	0xbe368d6d	-0.17827387
