checkpoints/origin/2020-11-16T11-49-49-16-classify/classify_fold0_origin_0.958462.pth (torch, 14565 bytes, 6 tensors)

linear1.weight f4 [50, 6]
0	0x3e4e935a	0.20173398
1	0xbe685c14	-0.22691375
2	0xbe2f6a98	-0.17130506
3	0x3e93e035	0.28881994
4	0x3e86da36	0.26338357
5	0x3eb364ca	0.35037833
6	0xbe318bbc	-0.1733846
7	0x3e2f037c	0.17091173
8	0x3d314fa7	0.043288853
9	0x3e8cca7f	0.27498242
10	0xbe112542	-0.14174369
11	0xbdfc0f2a	-0.1230758
12	0xbee29752	-0.44256073
13	0x3ea9ab8a	0.33138686
14	0x3e8bdff5	0.27319303
15	0x3e8e57e0	0.27801418
16	0xbe0d7e6d	-0.13817759
17	0x3e55d93b	0.20883648
18	0x3dce9baa	0.10088284
19	0xbe05056c	-0.1299035
20	0x3e125e18	0.14293706
21	0xbe77d4cc	-0.2420227
22	0x3e302232	0.17200544
23	0xbddcc833	-0.107803725
24	0xbe9d253a	-0.30692464
25	0x3d1c7b8e	0.03820377
26	0x3e98e61a	0.29863054
27	0xbe89ac93	-0.26889476
28	0xbe8ce2c0	-0.27516747
29	0x3d747a49	0.059686933
30	0xbeb3b3c7	-0.35098097
31	0x3d803559	0.06260175
32	0x3eb1028c	0.34572256
33	0xbe4d9d8f	-0.20079635
34	0xbd884568	-0.06653863
35	0x3e9d64d5	0.3074099
36	0xbe2a94c2	-0.16658309
37	0xbeb2b596	-0.34904164
38	0xbea5a35b	-0.32351193
39	0x3dc4dcef	0.09612452
40	0xbe94405f	-0.2895536
41	0xbec94c08	-0.3931582
42	0xbe032b09	-0.12809385
43	0x3d11a2df	0.035555717
44	0x3eacd8f8	0.33759284
45	0x3e7daf9e	0.24774024
46	0x3ec488f0	0.38385725
47	0x3dd4e6e8	0.10395604
48	0xbec8d35e	-0.3922376
49	0xbe02b999	-0.12766112
50	0x3e56f0b6	0.20990261
51	0x3eaebc02	0.34127814
52	0x3ea8af66	0.32946318
53	0xbdec017d	-0.11523721
54	0xbea2c270	-0.3178897
55	0xbeb5a624	-0.35478318
56	0x3d2a095c	0.041512832
57	0x3e957f04	0.29198468
58	0xbd20ad36	-0.039227687
59	0xbeb8a826	-0.36065787
60	0xbe4747ff	-0.19461058
61	0x3871aed9	5.7621717e-05
62	0xbec5eab2	-0.3865562
63	0xbde50a34	-0.11183587
64	0xbcd9e346	-0.02659763
65	0x3e21b123	0.15790229
66	0xbe4bdaa9	-0.19907631
67	0xbd2dbfb9	-0.04241917
68	0xbeba688f	-0.36407897
69	0xbe056eac	-0.13030499
70	0x3e7b3c13	0.24534635
71	0xbd2fa641	-0.04288316
72	0xbe0d217f	-0.13782309
73	0x3b15f656	0.0022882423
74	0x3e8af285	0.27138153
75	0xbe7705ab	-0.24123256
76	0x3e92173d	0.28533354
77	0xbe8c6033	-0.27417144
78	0xbdcd0550	-0.10010779
79	0xbf279f8d	-0.6547783
80	0x3e46b336	0.19404301
81	0xbefb200c	-0.49047887
82	0x3e8bb4a6	0.2728626
83	0xbed9e455	-0.42557016
84	0xbe7355c8	-0.23763192
85	0xbea6e892	-0.32599312
86	0xbeb61cf0	-0.35568953
87	0xbebe6eb2	-0.3719383
88	0xbeb426b8	-0.3518579
89	0xbdf6c3f6	-0.12049095
90	0xbecab929	-0.3959439
91	0x3e5824e2	0.2110782
92	0x3e45c956	0.19315085
93	0x3ef3306a	0.47497874
94	0xbea4425a	-0.32081872
95	0x3ed47824	0.4149791
96	0xbd12e13f	-0.035859343
97	0x3e982a70	0.29719877
98	0x3e8340db	0.25635418
99	0xbab6dbc8	-0.0013950998
100	0x3eab66bc	0.33476818
101	0xbec447f0	-0.38336134
102	0xbecabb1a	-0.39595872
103	0x3e09e6f7	0.13467012
104	0x3d95691b	0.07295438
105	0x3eb6c462	0.35696703
106	0xbee27c4b	-0.44235453
107	0x3ea91634	0.33024752
108	0xbe3a0afd	-0.18168254
109	0x3e9d027a	0.30665952
110	0x3e8215d3	0.25407276
111	0x3d58d562	0.052937873
112	0x3d6dfff0	0.05810541
113	0xbe08532f	-0.13312982
114	0x3e6409dd	0.22269388
115	0xbd827821	-0.06370569
116	0x3d66922e	0.05629175
117	0x3e82b5eb	0.25529417
118	0x3d3f14f4	0.04665084
119	0xbe9ad014	-0.30236876
120	0xbda9486c	-0.082657665
121	0xbce27a94	-0.02764634
122	0x3dc64e9b	0.096829616
123	0x3e055436	0.13020405
124	0xbf0b6722	-0.54454243
125	0xbdca373a	-0.09873815
126	0x3c62b3b1	0.013836787
127	0xbe3b79d8	-0.18308198
128	0x3e30a8f3	0.17251949
129	0x3eb09ea0	0.3449602
130	0x3e53f23b	0.20697872
131	0xbe616aff	-0.22013472
132	0xbeb03a90	-0.3441968
133	0xbe85cdbe	-0.2613353
134	0x3e118a1d	0.14212842
135	0xbddb5ad6	-0.10710685
136	0x3e0be840	0.13662815
137	0x3eb88c40	0.36044502
138	0xbed5cf9a	-0.4175995
139	0x3e0d154d	0.13777657
140	0x3ec285d1	0.3799272
141	0x3ed5f523	0.41788587
142	0xbe7118ff	-0.23544692
143	0x3cafdf2e	0.021468725
144	0xbdc25742	-0.09489299
145	0xbea6aa68	-0.32551885
146	0xbd67d209	-0.05659679
147	0xbc768ea8	-0.01504866
148	0x3e3b8701	0.18313219
149	0xbca86efb	-0.020560732
150	0xbe9a598e	-0.3014645
151	0x3df2bce7	0.118524365
152	0xbe8872ab	-0.26649985
153	0x3d9d61e6	0.07684688
154	0xbdbabf6f	-0.09118544
155	0xbe8ae596	-0.27128285
156	0x3ed917ea	0.42401057
157	0xbcb9f40f	-0.022699384
158	0xbebb0b1a	-0.36531907
159	0xbe4f2f60	-0.20232916
160	0x3d75b1dc	0.059984073
161	0xbe3fc233	-0.18726425
162	0x3e6d2af3	0.23160915
163	0x3e6aa5f3	0.22914867
164	0x3e9151fb	0.2838286
165	0xbe64a7de	-0.22329661
166	0x3e8828cc	0.26593626
167	0x3ddc5f59	0.107603736
168	0xbe5bd933	-0.21469574
169	0x3e15a00d	0.14611836
170	0xbecb94a7	-0.3976185
171	0xbea76d98	-0.327008
172	0xbe9f1b96	-0.31075734
173	0x3e0f2546	0.13979062
174	0xbdd1e368	-0.102484524
175	0x3d835bdc	0.06414005
176	0x3dbb378e	0.091414556
177	0x3cb6002d	0.02221688
178	0x3e6ff367	0.23432694
179	0xbac0438b	-0.0014668567
180	0x3d5acc4d	0.053417493
181	0x3e8e3e14	0.27781737
182	0x3deda87b	0.11604401
183	0x3dc77e8f	0.09740936
184	0xbe531a3e	-0.2061548
185	0x3eae64f5	0.340614
186	0xbeefc90c	-0.46833074
187	0x3d9afe5d	0.07568047
188	0x3e4b8c6e	0.19877788
189	0x3e27f704	0.16402823
190	0xbe84aada	-0.259116
191	0x3ea7fc6b	0.32809767
192	0x3ea58bc8	0.32333207
193	0xbda27dda	-0.079341605
194	0x3e733aa7	0.23752843
195	0xbd239dde	-0.039945476
196	0x3eab3792	0.33440834
197	0x3e861442	0.2618733
198	0x3e60c283	0.219492
199	0xbe6e79f3	-0.23288707
200	0xbe437cc5	-0.19090565
201	0x3d1f6f7e	0.038924687
202	0x3f02946b	0.5100772
203	0x3e841744	0.25799
204	0x3e5d6642	0.2162104
205	0xbeeeb702	-0.46624
206	0x3ccd5aa1	0.02506763
207	0xbeeeda30	-0.4665084
208	0x3eb5951d	0.35465327
209	0x3d3c4466	0.045963667
210	0xbd9b78f1	-0.07591427
211	0x3ee171a3	0.4403201
212	0xbeab5c5b	-0.334689
213	0xbf1c6182	-0.61086285
214	0x3e878eb1	0.26476052
215	0xbe852445	-0.26004234
216	0xbd596d53	-0.053082775
217	0xbf1b9c6e	-0.6078557
218	0x3e274be7	0.16337548
219	0xbeb202ff	-0.3476791
220	0x3eae3747	0.34026548
221	0xbe81402c	-0.25244272
222	0xbdac378f	-0.084090345
223	0x3e9584d9	0.29202917
224	0xbe198748	-0.14993012
225	0xbf3b0018	-0.7304702
226	0x3d91a425	0.07111386
227	0xbe8f264e	-0.27958912
228	0xbed71c7d	-0.42013922
229	0x3e1ccbb4	0.15312082
230	0x3dc931b7	0.098239355
231	0x3eeb5afc	0.45967853
232	0xbec6c257	-0.38820145
233	0xbca47dc6	-0.020079505
234	0xbe909dd9	-0.28245428
235	0xbedf658d	-0.43632165
236	0x3e884889	0.2661784
237	0xbe082e40	-0.13298893
238	0xbe93385a	-0.2875393
239	0xbdb7110e	-0.089388
240	0xbe923f60	-0.28563976
241	0x3eac0380	0.3359642
242	0xbcc91617	-0.024546666
243	0x3e91ae91	0.28453496
244	0xbc871fcf	-0.01649466
245	0xbd11b206	-0.035570167
246	0x3a4be2e7	0.00077776465
247	0x3e725700	0.23666
248	0x3e55c137	0.20874487
249	0x3eb7a93f	0.35871312
250	0x3cf9b659	0.030482458
251	0xbe965aa2	-0.29366022
252	0xbe988036	-0.29785317
253	0xbe29dd17	-0.16588245
254	0xbd6b023a	-0.05737517
255	0xbe4c7856	-0.1996778

linear1.bias f4 [50]
0	0x3edc6f11	0.43053487
1	0xbe916dfd	-0.28404227
2	0x3e16ebb6	0.14738354
3	0xbe40ed07	-0.18840419
4	0xbd9528ea	-0.07283194
5	0x3e702f14	0.23455459
6	0xbd7b29af	-0.06131905
7	0x3ed9ffb8	0.4257791
8	0x3da439de	0.0801885
9	0xbe710522	-0.23537114
10	0xbe9e239d	-0.30886546
11	0xbd412fd0	-0.04716474
12	0xbd0e321d	-0.03471576
13	0x3e3a92e3	0.18220095
14	0x3c2cbddd	0.010543314
15	0xbc0dddc3	-0.008658829
16	0xbe964c8a	-0.2935527
17	0xbe5870e2	-0.21136811
18	0xbe342efc	-0.17596048
19	0xbe0c6d5c	-0.13713592
20	0xbefc4550	-0.4927163
21	0x3e816276	0.25270432
22	0xbe4e559e	-0.20149848
23	0xbe3b482a	-0.18289247
24	0xbeafc7e2	-0.34332186
25	0x3e345afc	0.17612833
26	0x3d5ef504	0.054432884
27	0xbe1aa103	-0.15100484
28	0xbecca078	-0.39966178
29	0xbdf66790	-0.12031472
30	0xbee72f97	-0.45153496
31	0x3dcbd4b9	0.09952683
32	0x3e0aad04	0.13542563
33	0x3eee3377	0.4652364
34	0xbe2efb2a	-0.17087999
35	0x3ea850e0	0.32874203
36	0xbe75ce81	-0.24004556
37	0x3edf1018	0.43566966
38	0xbf081276	-0.5315317
39	0xbdbad37e	-0.0912237
40	0xbe77ad7d	-0.24187274
41	0xbcece9d4	-0.028920092
42	0xbeb0edd8	-0.3455646
43	0x3e453b8b	0.19260995
44	0xbdc6a62e	-0.09699665
45	0x3e433ccd	0.19066162
46	0xbeb0c395	-0.34524217
47	0x3d1c1e17	0.038114633
48	0x3e773b7e	0.24143788
49	0xbeaefb9a	-0.34176332

linear2.weight f4 [50, 50]
0	0x3e8f8c28	0.28036618
1	0xbd7690bb	-0.06019662
2	0xbd3f5881	-0.046715263
3	0x3cee5e37	0.02909766
4	0xbe0dbc37	-0.1384133
5	0xbc6eb4ac	-0.014569443
6	0x3d8c3f25	0.06847981
7	0xbd16f5cc	-0.036855504
8	0x3bff5c6e	0.007793001
9	0xbdee62ca	-0.11639936
10	0x3da7ed2d	0.081995346
11	0x3e009e70	0.12560439
12	0x3de296f5	0.11063949
13	0x3d0c3850	0.03423339
14	0xbdfd3bf8	-0.12364954
15	0x3dcbd7a6	0.09953241
16	0xbe13f255	-0.14447911
17	0x3cab1933	0.02088604
18	0x3cfa9609	0.03058912
19	0xbe0108ba	-0.12600985
20	0x3d492970	0.049111784
21	0x3d918a8f	0.07106506
22	0xbcefbc16	-0.029264491
23	0xbcaacfaf	-0.020850984
24	0x3d793a1b	0.06084643
25	0xbdf8d082	-0.12149145
26	0x3e75fda9	0.24022545
27	0x3d307992	0.04308469
28	0xbd7fb6e8	-0.062430292
29	0xbdca99be	-0.09892605
30	0x3d912bf0	0.070884585
31	0xbdcd6620	-0.100292444
32	0x3dfd50da	0.12368937
33	0x3e280a31	0.16410138
34	0x3e3c33bb	0.18379109
35	0x3e418f94	0.18902427
36	0xbdb81fdc	-0.08990452
37	0x3e213069	0.15741123
38	0x3cbb4448	0.022859707
39	0xbc59b593	-0.01328792
40	0x3d0df516	0.03465756
41	0xbd5c9bad	-0.0538594
42	0xbd173d23	-0.03692354
43	0xbcede285	-0.029038677
44	0xbd8849f6	-0.06654732
45	0x3da74c78	0.08168882
46	0x3e31cff5	0.17364486
47	0xbd2d2ad0	-0.042277157
48	0x3dd2fbab	0.10301908
49	0x3dce6ef1	0.10079754
50	0xbda62791	-0.081130154
51	0x3dc8cda5	0.098048486
52	0x3da0c3cc	0.07849845
53	0x3c5e9b49	0.013586828
54	0x3d5f2b31	0.05448455
55	0x3da54a0c	0.08070764
56	0x3cbc194b	0.02296128
57	0x3a15450f	0.00056941895
58	0x3d29fc44	0.041500345
59	0x3df11105	0.11770824
60	0xbdc9c377	-0.09851735
61	0x3de6d796	0.112715885
62	0x3de05177	0.10953038
63	0xbd662e0a	-0.05619625
64	0x3d8b94cb	0.068154894
65	0x3d178c64	0.03699912
66	0x3d1c3055	0.03813203
67	0xbd8ccfaa	-0.06875546
68	0xbddae554	-0.10688272
69	0xbd2ea7c3	-0.04264046
70	0xbd96d0eb	-0.07364067
71	0xbda53dbc	-0.080684155
72	0xbd224b4c	-0.03962259
73	0x3e0096be	0.12557504
74	0x3e0f0cef	0.13969778
75	0x3cc090df	0.02350658
76	0xbb8d88c1	-0.004319281
77	0x3d5e4599	0.054265592
78	0x3cb7c2af	0.0224317
79	0x3a4ce110	0.00078155193
80	0xbd6c7136	-0.057725154
81	0xbe042a16	-0.1290668
82	0xbe11a030	-0.14221263
83	0x3e0cf165	0.1376396
84	0xbd445136	-0.04792901
85	0xbd6e9d05	-0.058255214
86	0x3c767b66	0.015044069
87	0xbd9656ad	-0.07340751
88	0xbdc035ff	-0.09385299
89	0xbdaaf910	-0.08348286
90	0xbe1f208d	-0.15539761
91	0x3d5cce94	0.053907946
92	0x3d8a50d8	0.06753701
93	0xbd6347e2	-0.055488475
94	0xbd9eec57	-0.07759922
95	0xbda785d6	-0.08179824
96	0xbd003c11	-0.031307284
97	0xbd952698	-0.07282752
98	0x3df3965e	0.11893915
99	0x3e087d3c	0.13329023
100	0x3ddbe3b4	0.1073679
101	0xbdf7a5fa	-0.120922044
102	0x3d48a78b	0.048987906
103	0xbd4dc26b	-0.05023424
104	0xbdd79bd7	-0.10527771
105	0xbde12c10	-0.109947324
106	0x3d92aa44	0.07161382
107	0x3d1fc39b	0.039004903
108	0xbdb5059b	-0.0883896
109	0x3db55bc7	0.08855396
110	0x3d84e0ce	0.064881906
111	0xbd7ffce0	-0.06249702
112	0x3e1041dc	0.14087623
113	0xbdcf59b2	-0.1012453
114	0xbd75ccd1	-0.06000978
115	0xbe07e0dd	-0.13269372
116	0xbd89e585	-0.067332305
117	0x3dd0da12	0.101978436
118	0xbde6c61d	-0.11268256
119	0xbdad177c	-0.08451745
120	0x3da32b78	0.079672754
121	0xbd69aea2	-0.05705131
122	0xbc90cd82	-0.017676119
123	0xbd24a93c	-0.040200457
124	0x3d09b2b0	0.033617675
125	0x3d8bac2c	0.068199486
126	0x3e0236e8	0.12716258
127	0xbdc5379d	-0.09629748
128	0xbda18b20	-0.07887864
129	0xbdd5944d	-0.10428677
130	0xbdb261fe	-0.08710097
131	0x3c1c4d56	0.009539923
132	0xbda50877	-0.08058255
133	0x3c92ae73	0.01790545
134	0x3d84e2f6	0.06488602
135	0x3db05301	0.08609582
136	0xbe10ce4b	-0.14141195
137	0xbcb322b5	-0.021867136
138	0xbdbd1a5d	-0.09233544
139	0x3bbb8a6e	0.005723289
140	0x3d236c74	0.03989835
141	0xbcb0e793	-0.021594798
142	0xbc8c96bf	-0.017161725
143	0xbc82a18e	-0.015946176
144	0xbe03c93e	-0.12869737
145	0xbc87d6e9	-0.01658197
146	0x3b83fd3e	0.0040279916
147	0xbdb93059	-0.09042425
148	0x3df18737	0.11793368
149	0x3ccc9864	0.02497501
150	0xbe0065e1	-0.12538864
151	0xbc5c8b3e	-0.013460932
152	0x3ba098b7	0.0049010175
153	0x3dada319	0.08478374
154	0x3ddc6d11	0.1076299
155	0x3c716e8b	0.014735828
156	0x3d4d550c	0.050129935
157	0xbddc8f45	-0.10769514
158	0xbdc03974	-0.09385958
159	0x3d505cab	0.050869625
160	0xbc8fdcbd	-0.01756131
161	0xbe0d2381	-0.13783075
162	0x3de84af0	0.11342418
163	0xbdb0fb5c	-0.08641693
164	0xbc56d9ab	-0.0131134195
165	0x3a1f880b	0.00060856406
166	0x3db300e0	0.08740401
167	0xbb3db65d	-0.0028947808
168	0xbd7af712	-0.06127078
169	0xbdb5b5ef	-0.08872592
170	0x3d8e6a5f	0.069538824
171	0x3c7756e2	0.015096398
172	0x3cefdffa	0.029281605
173	0xbdb2c23e	-0.08728455
174	0x3a89b06d	0.001050485
175	0xbd85d4ab	-0.06534704
176	0xbe3281b1	-0.17432286
177	0xbc19e7ec	-0.009393673
178	0xbbdc7256	-0.006727497
179	0x3cc935b6	0.024561744
180	0x3e084259	0.1330656
181	0xbdc92b55	-0.09822718
182	0x3dd530be	0.104096875
183	0xbe6375ba	-0.22212878
184	0x3c724fe9	0.01478956
185	0xbe881294	-0.26576674
186	0x3daa636a	0.08319743
187	0x3d4c9acc	0.049952313
188	0xbc93d832	-0.018047426
189	0x3dfdb60b	0.123882376
190	0x3e27cd17	0.1638683
191	0xbcdca869	-0.026935773
192	0xbde8a602	-0.113597885
193	0x3d173fd4	0.036926106
194	0x3dc01847	0.093796305
195	0xbdaac36d	-0.08338056
196	0x3d8601b9	0.06543297
197	0xbdeecc63	-0.116600774
198	0xbdcb442e	-0.099251136
199	0xbc27d535	-0.010243704
200	0xbdeaf07e	-0.114716515
201	0x3ddb955c	0.107218474
202	0x3caf313d	0.021385783
203	0xbe1127c8	-0.14175332
204	0xbcdd22c1	-0.026994111
205	0x3d47f661	0.04881895
206	0x3e0b435f	0.13599919
207	0xbcaf3ae1	-0.02139038
208	0xbda6da51	-0.08147109
209	0xbd73a065	-0.059479136
210	0x3dfce076	0.123475
211	0xbda64143	-0.081179164
212	0xbd50eab9	-0.0510051
213	0xbde9358a	-0.11387165
214	0xbdeee513	-0.11664786
215	0xbe1601c9	-0.14649118
216	0x3ddf4790	0.10902321
217	0xbde0fb9e	-0.10985492
218	0xbd8c2a55	-0.06844012
219	0xbd4f0c17	-0.05054864
220	0x3d4c5b68	0.04989186
221	0x3c90cffb	0.017677298
222	0x3d20e213	0.0392781
223	0x3dd7c4f8	0.10535616
224	0x3de2e9e7	0.110797696
225	0x3d8f7a4f	0.070057504
226	0x3da4df0c	0.08050355
227	0x3c94b0e8	0.018150762
228	0x3c3c7300	0.0115020275
229	0xbd540d6c	-0.051770613
230	0xbcb82d69	-0.02248259
231	0x3ae05afb	0.0017116958
232	0xbd248bc2	-0.040172346
233	0xbd271b93	-0.04079778
234	0xbdd47f61	-0.10375858
235	0xbde746e9	-0.11292822
236	0xbd48b7a2	-0.04900325
237	0xbd370e63	-0.044691455
238	0xbcb2adb2	-0.02181134
239	0xbd25e820	-0.040504575
240	0x3c906e48	0.017630711
241	0x3dd8a05b	0.105774604
242	0xbda0bdb8	-0.07848686
243	0x3e0a384f	0.13498043
244	0xbe12593d	-0.14291854
245	0xbe1561de	-0.14588115
246	0xbce3f480	-0.027826548
247	0xbd1555f9	-0.036458943
248	0x3d8fbac7	0.07018047
249	0xbc7bbf31	-0.015365408
250	0xbd2809a2	-0.04102481
251	0x3d38b793	0.045096945
252	0x3ded49ab	0.11586317
253	0xbdaed8f5	-0.08537475
254	0x3e04bdae	0.12962982
255	0xbd973efa	-0.07385059

linear2.bias f4 [50]
0	0x3dc9bd1c	0.09850523
1	0xbe5c24dc	-0.21498436
2	0xbdbb69d5	-0.09151045
3	0x3c2a8c18	0.0104093775
4	0xbdf3bd77	-0.11901372
5	0xbbed2c37	-0.007237937
6	0xbdbcbf2c	-0.09216151
7	0x3e9e811c	0.30957878
8	0xbdcf04f0	-0.10108364
9	0xbd938554	-0.07203165
10	0xbdfcdbf7	-0.123466425
11	0xbe2463eb	-0.1605374
12	0x3cf3dfcf	0.029769806
13	0x3b22fb8b	0.002486917
14	0x3e0d626e	0.13807079
15	0x3e024c54	0.1272443
16	0x3e04bb0b	0.12961976
17	0xbd0c2712	-0.034216948
18	0xbd7391bb	-0.05946515
19	0x3e729dd6	0.23693022
20	0xbdfd2f17	-0.12362497
21	0x3e2ec193	0.1706603
22	0xbdb2e9cb	-0.08735999
23	0xbd5fdea2	-0.05465568
24	0xbd8e3e4d	-0.06945477
25	0xbd43d0d7	-0.047806587
26	0x3c2897db	0.010290111
27	0x3e1d9631	0.15389325
28	0xbba49c72	-0.0050235325
29	0x3c2c9771	0.010534153
30	0x3d2d87cf	0.042365845
31	0xbdc1494b	-0.09437808
32	0x3e2528d2	0.16128853
33	0xbb88f715	-0.004179845
34	0xbe7bf599	-0.24605407
35	0x3e2dd7f5	0.16976912
36	0x3e1a9be0	0.15098524
37	0x3d7769f0	0.060403764
38	0x3d70a2d7	0.058749046
39	0x3d89712e	0.067110404
40	0x3e33a2ff	0.17542647
41	0xbdce16f4	-0.10062972
42	0x3e5a2873	0.21304493
43	0xbd987bc3	-0.07445481
44	0xbde018d4	-0.109422356
45	0xbdc0900a	-0.09402473
46	0x3db2c6c2	0.08729316
47	0x3d7db4dd	0.061940063
48	0x3e1993e9	0.1499783
49	0xbd030dcf	-0.03199559

linear3.weight f4 [2, 50]
0	0x3c19b62a	0.00938181
1	0x3db44025	0.08801297
2	0x3dfe10e5	0.12405566
3	0xbcb14b1f	-0.021642266
4	0x3da7bda1	0.08190466
5	0x3c40ad63	0.011760089
6	0xbda60140	-0.08105707
7	0x3e35a762	0.17739633
8	0xbe2dfc9f	-0.16990899
9	0xbd90eaa0	-0.07076001
10	0xbd3909e0	-0.045175433
11	0x3d441a80	0.047876835
12	0xbdda653c	-0.1066384
13	0x3d493658	0.049124092
14	0x3d732846	0.05936458
15	0x3ddb604c	0.107117265
16	0xbd7588c2	-0.059944876
17	0xbdc3cd8d	-0.0956069
18	0x3e174b70	0.14774871
19	0xbc123303	-0.008923295
20	0xbdffe60b	-0.12495049
21	0x3c10e9ef	0.008844837
22	0xbd6e0c55	-0.05811723
23	0x3dd9e90f	0.106401555
24	0xbda85d85	-0.082209624
25	0x3c5927c9	0.013254114
26	0xbdf5108f	-0.11966049
27	0x3ddc777a	0.10764976
28	0x3d828564	0.063730985
29	0x3dddc078	0.10827726
30	0xbd94083b	-0.07228132
31	0xbd7b2336	-0.061312877
32	0x3dde9519	0.10868282
33	0x3e053dae	0.1301181
34	0xbca59156	-0.020210903
35	0x3dd6c764	0.104872495
36	0x3e0b6976	0.13614449
37	0xbd20b184	-0.039231792
38	0x3d1b65bb	0.037938815
39	0x3c3927a6	0.011300957
40	0x3defe9e7	0.11714535
41	0x3cedd849	0.029033797
42	0x3c6e08c1	0.014528454
43	0xbd7681f4	-0.060182527
44	0x3e0daca1	0.13835384
45	0xbd9881f5	-0.07446662
46	0xbe693ac4	-0.22776324
47	0x3c889243	0.016671306
48	0x3ddd8699	0.10816688
49	0xbdd95f4f	-0.10613882
50	0xbd44e81a	-0.04807291
51	0x3df434bc	0.11924121
52	0xbd87cb87	-0.06630617
53	0x3d05362f	0.032522377
54	0x3d83bc60	0.06432414
55	0x3cb9f912	0.022701774
56	0x3c310772	0.010804998
57	0xbdd97586	-0.10618119
58	0x3d757c8b	0.059933227
59	0xbe0ab5d3	-0.13545923
60	0x3d146c87	0.036236312
61	0x3de124c8	0.109933436
62	0xbdf6a7b4	-0.120437056
63	0x3d9760a5	0.0739148
64	0xbdb3cae0	-0.0877893
65	0x3cdd7d1c	0.027037196
66	0x3d86b446	0.06577353
67	0xbd80815d	-0.06274674
68	0x3b7c5f72	0.0038509038
69	0xbd034564	-0.032048598
70	0xbdfb05a1	-0.12256933
71	0xbd8bdd41	-0.0682931
72	0x3e0aa8e7	0.13540994
73	0x3dc2d403	0.09513094
74	0xbd821b2c	-0.06352839
75	0xbd16b52a	-0.036793865
76	0xbc495c3f	-0.01229006
77	0xbdcf4e12	-0.101223126
78	0xbd096411	-0.033542696
79	0x3d87b619	0.06626529
80	0x3d8b99ec	0.06816468
81	0xbd93d44d	-0.072182275
82	0x3cede7df	0.029041229
83	0xbde843ff	-0.11341094
84	0x3da5f857	0.08104008
85	0xbda9c95e	-0.08290361
86	0x3cc41b53	0.02393881
87	0x3c3a8b1f	0.011385708
88	0xbd32d3a8	-0.043658882
89	0xbdab4381	-0.08362485
90	0x3d51e928	0.051247746
91	0x3d607fd8	0.05480942
92	0xbdd8646e	-0.105660304
93	0x3da6e86a	0.08149798
94	0x3da1c33d	0.07898567
95	0x3bebf378	0.0072006546
96	0x3e4a9386	0.19782838
97	0xbe01f94d	-0.12692757
98	0xbc0ff2d5	-0.008785923
99	0x3daaf7ea	0.08348067

linear3.bias f4 [2]
0	0x3e1b073b	0.15139477
1	0xbe1bf1b1	-0.15228917
