checkpoints/origin/2020-11-16T11-49-49-16-classify/classify_fold0_origin_0.960769.pth (torch, 14565 bytes, 6 tensors)

linear1.weight f4 [50, 6]
0.20247735 -0.22754243 -0.1716909 0.28825393 0.26732805 0.35088962 -0.17208025 0.1771386
0.042687614 0.27843776 -0.14069287 -0.1218351 -0.44301924 0.32653496 0.27265233 0.2814033
-0.13938223 0.21270873 0.102206774 -0.13052252 0.14246048 -0.23605327 0.16596094 -0.10313598
-0.30108598 0.038830675 0.2994796 -0.26052693 -0.28037181 0.06665852 -0.34856725 0.061371714
0.3451931 -0.19719951 -0.05068196 0.306423 -0.16658309 -0.34904164 -0.32351193 0.09612452
-0.2895536 -0.3931582 -0.12826826 0.033811558 0.33702445 0.2457126 0.37933746 0.105632596
-0.39103857 -0.12811144 0.21033324 0.34761694 0.33377725 -0.11405619 -0.3178897 -0.35478318
0.041512832 0.29198468 -0.039227687 -0.36065787 -0.19461058 5.7621717e-05 -0.3865562 -0.11183587
-0.02659763 0.15790229 -0.19907631 -0.04241917 -0.36407897 -0.13030499 0.24534635 -0.04288316
-0.14371546 0.0023070818 0.2709171 -0.25056258 0.2779927 -0.28051457 -0.10156688 -0.65417016
0.19382855 -0.50022596 0.27277374 -0.43287995 -0.23763192 -0.32599312 -0.35568953 -0.3719383
-0.3518579 -0.12049095 -0.39340186 0.21006234 0.192926 0.486965 -0.32136008 0.42201772
-0.03440909 0.29582572 0.25451568 -0.001357141 0.34676966 -0.38591403 -0.3944857 0.13475254
0.07326877 0.378373 -0.45035943 0.3424404 -0.1838581 0.3056407 0.25378078 0.0504689
0.049721815 -0.13559267 0.21918733 -0.06226589 0.055681847 0.24800591 0.04423319 -0.30780894
-0.08110252 -0.028091943 0.09693783 0.14209615 -0.54835683 -0.092253104 0.010426256 -0.1814348
0.17366235 0.34911075 0.20508823 -0.22208256 -0.3475276 -0.2670486 0.140995 -0.10556849
0.12782197 0.36234307 -0.41585395 0.13661098 0.37971315 0.42992374 -0.23463051 0.025592942
-0.09489299 -0.32551885 -0.05659679 -0.01504866 0.18313219 -0.020560732 -0.3014645 0.118524365
-0.26649985 0.07684688 -0.09118544 -0.27128285 0.4268586 -0.022781642 -0.3651532 -0.20590156
0.06441533 -0.18879363 0.23139235 0.23019484 0.28334004 -0.22986925 0.26555705 0.10501161
-0.21469574 0.14611836 -0.3976185 -0.327008 -0.31075734 0.13979062 -0.09576642 0.063195035
0.09007657 0.025793668 0.24095692 0.0025383611 0.05556186 0.2772384 0.11551355 0.10566306
-0.20776863 0.34679222 -0.4681747 0.07455786 0.19825782 0.17526296 -0.26185244 0.33276975
0.3226712 -0.078127466 0.2379142 -0.044879284 0.33797783 0.25691268 0.21984212 -0.23550865
-0.19253968 0.027835581 0.5130563 0.25776926 0.21455298 -0.46550182 0.024892045 -0.47165722
0.3500187 0.04255459 -0.07717204 0.44134077 -0.33480987 -0.65413225 0.27049524 -0.27027223
-0.053856336 -0.60799676 0.16309872 -0.3543975 0.33799568 -0.25741518 -0.08449352 0.2933392
-0.14938395 -0.7727029 0.07783621 -0.2900002 -0.42010337 0.15346937 0.098093055 0.47209787
-0.3957183 -0.01690072 -0.2838228 -0.42982036 0.26525044 -0.13650095 -0.29291674 -0.09429898
-0.28421304 0.33730018 -0.023911787 0.2731736 -0.008979361 -0.040689513 -0.0005630723 0.23673996
0.20798934 0.35383144 0.03193378 -0.29707766 -0.29785317 -0.16588245 -0.05737517 -0.1996778
00000000: 3956 4f3e e200 69be bdcf 2fbe 0596 933e
00000010: 39df 883e cea7 b33e ce35 30be d263 353e
00000020: 35d9 2e3d 658f 8e3e cb11 10be ae84 f9bd
00000030: 6bd3 e2be 972f a73e 1699 8b3e 1814 903e
00000040: 37ba 0ebe 51d0 593e c951 d13d b2a7 05be
00000050: 29e1 113e f3b7 71be aaf1 293e f538 d3bd
00000060: f127 9abe ea0c 1f3d 6455 993e c963 85be
00000070: e58c 8fbe 4384 883d 6877 b2be e860 7b3d
00000080: 26bd b03e abee 49be e397 4fbd 7ae3 9c3e
00000090: c294 2abe 96b5 b2be 5ba3 a5be efdc c43d
000000a0: 5f40 94be 084c c9be c158 03be fd7d 0a3d
000000b0: 788e ac3e 159c 7b3e 8538 c23e e755 d83d
000000c0: 3536 c8be a52f 03be 9961 573e d9fa b13e
000000d0: dae4 aa3e 4b96 e9bd 70c2 a2be 24a6 b5be
000000e0: 5c09 2a3d 047f 953e 36ad 20bd 26a8 b8be
000000f0: ff47 47be d9ae 7138 b2ea c5be 340a e5bd
00000100: 46e3 d9bc 23b1 213e a9da 4bbe b9bf 2dbd
00000110: 8f68 babe ac6e 05be 133c 7b3e 41a6 2fbd
00000120: 252a 13be 6932 173b a5b5 8a3e bd49 80be
00000130: 0f55 8e3e 9b9f 8fbe 4c02 d0bd b277 27bf
00000140: fe7a 463e cf0e 00bf 00a9 8b3e 71a2 ddbe
00000150: c855 73be 92e8 a6be f01c b6be b26e bebe
00000160: b826 b4be f6c3 f6bd f86b c9be 951a 573e
00000170: 658e 453e 7a53 f93e 4f89 a4be b512 d83e
00000180: 8cf0 0cbd 7876 973e e14f 823e 18e2 b1ba
00000190: cb8b b13e 8696 c5be 08fa c9be 92fc 093e
000001a0: f00d 963d 1bba c13e 8395 e6be 5954 af3e
000001b0: 4c45 3cbe f07c 9c3e 8eef 813e 7ab8 4e3d
000001c0: 1aa9 4b3d ced8 0abe a572 603e 850a 7fbd
000001d0: a612 643d 43f5 7d3e dd2d 353d 2299 9dbe
000001e0: 1419 a6bd 1321 e6bc 5787 c63d a781 113e
000001f0: 1d61 0cbf 32ef bcbd e3d2 2a3c 0bca 39be
00000200: 8bd4 313e a5be b23e a602 523e 9c69 63be
00000210: 23ef b1be 98ba 88be fe60 103e 4b34 d8bd
00000220: c3e3 023e 0885 b93e cfea d4be c0e3 0b3e
00000230: c369 c23e f71e dc3e fb42 70be 4aa8 d13c
00000240: 4257 c2bd 68aa a6be 09d2 67bd a88e 76bc
00000250: 0187 3b3e fb6e a8bc 8e59 9abe e7bc f23d
00000260: ab72 88be e661 9d3d 6fbf babd 96e5 8abe
00000270: 368d da3e 91a0 babc 5cf5 babe dcd7 52be
00000280: 2fec 833d 1e53 41be 1ef2 6c3e 32b8 6b3e
00000290: f211 913e d862 6bbe 18f7 873e 5410 d73d
000002a0: 33d9 5bbe 0da0 153e a794 cbbe 986d a7be
000002b0: 961b 9fbe 4625 0f3e 2f21 c4bd 666c 813d
000002c0: 117a b83d 3e4d d33c 69bd 763e a25a 263b
000002d0: d594 633d 31f2 8d3e 5e92 ec3d e065 d83d
000002e0: 4dc1 54be c08e b13e 98b4 efbe cbb1 983d
000002f0: 1904 4b3e 2278 333e 8611 86be cc60 aa3e
00000300: 2935 a53e 4b01 a0bd c89f 733e 57d3 37bd
00000310: 6e0b ad3e 0f8a 833e 4b1e 613e 2e29 71be
00000320: 1f29 45be 7207 e43c a857 033f 55fa 833e
00000330: c7b3 5b3e 4156 eebe 67ea cb3c 0e7d f1be
00000340: a735 b33e b94d 2e3d 600c 9ebd 6bf7 e13e
00000350: 336c abbe 3675 27bf 5a7e 8a3e 1f61 8abe
00000360: 7698 5cbd ada5 1bbf 5a03 273e 9773 b5be
00000370: c50d ad3e eccb 83be f00a adbd 8e30 963e
00000380: 1bf8 18be dbcf 45bf 9768 9f3d e87a 94be
00000390: ca17 d7be 1327 1d3e 03e5 c83d d0b6 f13e
000003a0: 979b cabe 6173 8abc 3951 91be 6a11 dcbe
000003b0: e8ce 873e e8c6 0bbe 2ff9 95be d31f c1bd
000003c0: 5f84 91be 9cb2 ac3e a7e2 c3bc 69dd 8b3e
000003d0: 2b1e 13bc 0caa 26bd 249b 13ba f66b 723e
000003e0: 28fb 543e 6529 b53e ffcc 023d 901a 98be
000003f0: 3680 98be 17dd 29be 3a02 6bbd 5678 4cbe

linear1.bias f4 [50]
0.43454707 -0.28298113 0.14614165 -0.19470447 -0.07831166 0.25037375 -0.06131905 0.4213538
0.08432142 -0.23537114 -0.30886546 -0.04716474 -0.041931853 0.1821711 0.010543314 -0.0093888715
-0.281506 -0.21965915 -0.18426768 -0.13945289 -0.49676698 0.25065413 -0.21033841 -0.18227588
-0.34332186 0.17612833 0.058816306 -0.15121032 -0.39966178 -0.11365345 -0.45331082 0.09658929
0.13917594 0.46827957 -0.17544948 0.33474973 -0.24226524 0.44263917 -0.5392709 -0.09661608
-0.234124 -0.02726515 -0.3455646 0.18897928 -0.104235165 0.18469529 -0.35316658 0.044923995
0.2393208 -0.3451347
00000000: f47c de3e e7e2 90be 28a6 153e 9c60 47be
00000010: dd61 a0bd fd30 803e af29 7bbd afbb d73e
00000020: b5b0 ac3d 2205 71be 9d23 9ebe d02f 41bd
00000030: bcc0 2bbd 108b 3a3e ddbd 2c3c c8d3 19bc
00000040: 8e21 90be 54ee 60be abb0 3cbe bdcc 0ebe
00000050: 3e58 febe bd55 803e f462 57be 87a6 3abe
00000060: e2c7 afbe fc5a 343e 5ee9 703d e1d6 1abe
00000070: 78a0 ccbe 24c3 e8bd 5b18 e8be 9bd0 c53d
00000080: 2384 0e3e 57c2 ef3e 07a9 33be 5164 ab3e
00000090: 6114 78be 9aa1 e23e a80d 0abf a7de c5bd
000000a0: 34be 6fbe 2a5b dfbc d8ed b0be c983 413e
000000b0: 3f79 d5bd c320 3d3e 40d2 b4be 3902 383d
000000c0: 8310 753e 7fb5 b0be

linear2.weight f4 [50, 50]
0.28653684 -0.06032655 -0.04576749 0.029130721 -0.13712558 -0.013641288 0.06847981 -0.036631867
0.007960615 -0.11639936 0.081995346 0.12560439 0.11123066 0.03195023 -0.12364954 0.100798525
-0.14396931 0.020680096 0.031312466 -0.12752378 0.051476195 0.07025296 -0.028493384 -0.019745857
0.06084643 -0.12149145 0.24411023 0.04333049 -0.062430292 -0.098511524 0.07157935 -0.09901813
0.123319864 0.17597586 0.17910619 0.1945738 -0.09199212 0.15983911 0.022462776 -0.012747499
0.035048734 -0.05344453 -0.03692354 -0.033473153 -0.06639451 0.08199824 0.17255293 -0.041949518
0.102216855 0.10178215 -0.081130154 0.09766717 0.0781791 0.013214519 0.054259803 0.08062485
0.02296128 0.00033982357 0.041468117 0.11770824 -0.09851735 0.112715885 0.10875513 -0.057015914
0.068154894 0.037256636 0.03712389 -0.06748317 -0.10757893 -0.04351403 -0.07319463 -0.08083178
-0.03806776 0.12535244 0.13969778 0.02350658 -0.004319281 0.05377726 0.0224317 0.00032818265
-0.057866916 -0.1286556 -0.14219654 0.1376396 -0.04810511 -0.064027816 0.014684557 -0.07612666
-0.09390502 -0.08289244 -0.15639248 0.05314045 0.06753701 -0.05471459 -0.077397004 -0.08267568
-0.033353876 -0.07371351 0.118491195 0.13329582 0.1073679 -0.120922044 0.048987906 -0.05023424
-0.10527771 -0.109947324 0.07161382 0.039004903 -0.0883896 0.08855396 0.064881906 -0.06249702
0.14087623 -0.1012453 -0.06000978 -0.13269372 -0.067332305 0.101978436 -0.11268256 -0.08451745
0.079672754 -0.05705131 -0.017676119 -0.040200457 0.033617675 0.068199486 0.12716258 -0.09629748
-0.07887864 -0.10428677 -0.08710097 0.009539923 -0.08058255 0.01790545 0.06488602 0.08609582
-0.14141195 -0.021867136 -0.09233544 0.005723289 0.03989835 -0.021594798 -0.017161725 -0.015946176
-0.12869737 -0.01658197 0.0040279916 -0.09042425 0.11793368 0.02497501 -0.12962031 -0.011475109
0.005709059 0.084808536 0.10769326 0.015247434 0.050129935 -0.1067687 -0.094124526 0.050869625
-0.01756131 -0.13783075 0.11359334 -0.08717816 -0.0131134195 0.0015751087 0.08821667 0.0011524978
-0.06044827 -0.08790156 0.06900895 0.015241591 0.029294454 -0.086814344 0.001050485 -0.06534704
-0.17433128 -0.008092327 -0.006727497 0.02516332 0.13456434 -0.09746211 0.10547704 -0.22717412
0.016684009 -0.27077246 0.08271907 0.048863817 -0.014767318 0.123405315 0.16518843 -0.025964184
-0.113597885 0.040432464 0.09420902 -0.082111485 0.06795526 -0.11503761 -0.096514165 -0.009667091
-0.114716515 0.107218474 0.021385783 -0.14175332 -0.026994111 0.04881895 0.13599919 -0.02139038
-0.08147109 -0.059479136 0.123475 -0.081179164 -0.0510051 -0.11387165 -0.11664786 -0.14649118
0.10902321 -0.10985492 -0.06844012 -0.05054864 0.04989186 0.017677298 0.0392781 0.10535616
0.110797696 0.070057504 0.08050355 0.018150762 0.0115020275 -0.051770613 -0.02248259 0.0017116958
-0.040172346 -0.04079778 -0.10375858 -0.11292822 -0.04900325 -0.044691455 -0.02181134 -0.040504575
0.017630711 0.105774604 -0.07848686 0.13498043 -0.14291854 -0.14588115 -0.027826548 -0.036458943
0.07018047 -0.015365408 -0.04102481 0.043996684 0.115279585 -0.08467756 0.12930833 -0.074021205
00000000: f5b4 923e f918 77bd b176 3bbd 8da3 ee3c
00000010: a66a 0cbe b57f 5fbc 253f 8c3d 4c0b 16bd
00000020: 3d6d 023c ca62 eebd 2ded a73d 709e 003e
00000030: e6cc e33d 3fde 023d f83b fdbd 756f ce3d
00000040: b16c 13be 4e69 a93c 8041 003d 9895 02be
00000050: b4d8 523d c9e0 8f3d f56a e9bc 10c2 a1bc
00000060: 1b3a 793d 82d0 f8bd 08f8 793e 507b 313d
00000070: e8b6 7fbd 69c0 c9bd 3298 923d 04ca cabd
00000080: 208f fc3d 0433 343e 9d67 373e 5b3e 473e
00000090: 5d66 bcbd ddac 233e db03 b83c e3da 50bc
000000a0: 438f 0f3d a7e8 5abd 233d 17bd 251b 09bd
000000b0: d8f9 87bd b1ee a73d b7b1 303e 42d3 2bbd
000000c0: 1257 d13d 2973 d03d 9127 a6bd ba05 c83d
000000d0: 5d1c a03d b681 583c 873f 5e3d a41e a53d
000000e0: 4b19 bc3c 592a b239 79da 293d 0511 f13d
000000f0: 77c3 c9bd 96d7 e63d 02bb de3d 8589 69bd
00000100: cb94 8b3d 6a9a 183d 380f 183d 9e34 8abd
00000110: 5852 dcbd c43b 32bd 11e7 95bd 228b a5bd
00000120: f1ec 1bbd 645c 003e ef0c 0f3e df90 c03c
00000130: c188 8dbb 8b45 5c3d afc2 b73c ee0f ac39
00000140: dc05 6dbd 4bbe 03be f89b 11be 65f1 0c3e
00000150: dd09 45bd 0421 83bd 7f97 703c 4be8 9bbd
00000160: 4651 c0bd 83c3 a9bd 5a25 20be cda9 593d
00000170: d850 8a3d 681c 60bd 5282 9ebd de51 a9bd
00000180: 139e 08bd 1cf7 96bd 83ab f23d b37e 083e
00000190: b4e3 db3d faa5 f7bd 8ba7 483d 6bc2 4dbd
000001a0: d79b d7bd 102c e1bd 44aa 923d 9bc3 1f3d
000001b0: 9b05 b5bd c75b b53d cee0 843d e0fc 7fbd
000001c0: dc41 103e b259 cfbd d1cc 75bd dde0 07be
000001d0: 85e5 89bd 12da d03d 1dc6 e6bd 7c17 adbd
000001e0: 782b a33d a2ae 69bd 82cd 90bc 3ca9 24bd
000001f0: b0b2 093d 2cac 8b3d e836 023e 9d37 c5bd
00000200: 208b a1bd 4d94 d5bd fe61 b2bd 564d 1c3c
00000210: 7708 a5bd 73ae 923c f6e2 843d 0153 b03d
00000220: 4bce 10be b522 b3bc 5d1a bdbd 6e8a bb3b
00000230: 746c 233d 93e7 b0bc bf96 8cbc 8ea1 82bc
00000240: 3ec9 03be e9d6 87bc 3efd 833b 5930 b9bd
00000250: 3787 f13d 6498 cc3c 30bb 04be 1802 3cbc
00000260: 0f13 bb3b 19b0 ad3d 498e dc3d 60d0 793c
00000270: 0c55 4d3d 8ca9 dabd 5cc4 c0bd ab5c 503d
00000280: bddc 8fbc 8123 0dbe a0a3 e83d 778a b2bd
00000290: abd9 56bc e173 ce3a f1aa b43d 690f 973a
000002a0: 9b98 77bd bc05 b4bd 9054 8d3d deb7 793c
000002b0: ecfa ef3c b8cb b1bd 6db0 893a abd4 85bd
000002c0: e683 32be ae95 04bc 5672 dcbb 4f23 ce3c
000002d0: 3ccb 093e 379a c7bd 5904 d83d 55a0 68be
000002e0: e7ac 883c b0a2 8abe 9e68 a93d 6d25 483d
000002f0: 9ff2 71bc edbb fc3d 2827 293e d7b2 d4bc
00000300: 02a6 e8bd 839c 253d a9f0 c03d 112a a8bd
00000310: 212c 8b3d d798 ebbd 38a9 c5bd b862 1ebc
00000320: 7ef0 eabd 5c95 db3d 3d31 af3c c827 11be
00000330: c122 ddbc 61f6 473d 5f43 0b3e e13a afbc
00000340: 51da a6bd 65a0 73bd 76e0 fc3d 4341 a6bd
00000350: b9ea 50bd 8a35 e9bd 13e5 eebd c901 16be
00000360: 9047 df3d 9efb e0bd 552a 8cbd 170c 4fbd
00000370: 685b 4c3d fbcf 903c 13e2 203d f8c4 d73d
00000380: e7e9 e23d 4f7a 8f3d 0cdf a43d e8b0 943c
00000390: 0073 3c3c 6c0d 54bd 692d b8bc fb5a e03a
000003a0: c28b 24bd 931b 27bd 617f d4bd e946 e7bd
000003b0: a2b7 48bd 630e 37bd b2ad b2bc 20e8 25bd
000003c0: 486e 903c 5ba0 d83d b8bd a0bd 4f38 0a3e
000003d0: 3d59 12be de61 15be 80f4 e3bc f955 15bd
000003e0: c7ba 8f3d 31bf 7bbc a209 28bd de35 343d
000003f0: b417 ec3d 6e6b adbd 6769 043e 6e98 97bd

linear2.bias f4 [50]
0.09171498 -0.21899413 -0.09151045 0.014348278 -0.11901372 -0.010141307 -0.089260206 0.3149296
-0.11148944 -0.07203165 -0.123466425 -0.16069075 0.03020613 0.002486917 0.13526621 0.12402728
0.12961976 -0.02850446 -0.0671898 0.23579334 -0.12096153 0.1626869 -0.084682204 -0.05465568
-0.06945477 -0.047806587 0.0025408915 0.1515189 -0.0077549373 0.012280881 0.042365845 -0.09448737
0.16297995 -0.003940477 -0.24965614 0.16695017 0.14520726 0.0651263 0.055896387 0.06479497
0.17188972 -0.0983665 0.21051723 -0.07791786 -0.1194042 -0.09402473 0.097308144 0.06860079
0.15641794 -0.03808702
00000000: 10d5 bb3d ff3f 60be d569 bbbd 0a15 6b3c
00000010: 77bd f3bd b927 26bc 0ece b6bd 743e a13e
00000020: 9354 e4bd 5485 93bd f7db fcbd 1e8c 24be
00000030: d972 f73c 8bfb 223b 3a83 0a3e 0402 fe3d
00000040: 0bbb 043e 2f82 e9bc ce9a 89bd cf73 713e
00000050: aeba f7bd 6597 263e dd6d adbd a2de 5fbd
00000060: 4d3e 8ebd d7d0 43bd 1685 263b c527 1b3e
00000070: 211d febb c035 493c cf87 2d3d 9882 c1bd
00000080: 37e4 263e 1e1f 81bb dca5 7fbe fcf4 2a3e
00000090: 36b1 143e f060 853d 9cf3 643d 3ab3 843d
000000a0: dc03 303e 6074 c9bd d491 573e 6693 9fbd
000000b0: 308a f4bd 0a90 c0bd 7e49 c73d 927e 8c3d
000000c0: 062c 203e 2301 1cbd

linear3.weight f4 [2, 50]
0.00854675 0.0884035 0.12405566 -0.022121463 0.08190466 0.010653642 -0.0819931 0.22192316
-0.1783472 -0.07076001 -0.045175433 0.042233635 -0.10614221 0.049124092 0.060124267 0.10648971
-0.059944876 -0.09647862 0.1469867 -0.013577166 -0.12523447 0.008023197 -0.057582688 0.106401555
-0.082209624 0.013254114 -0.12019102 0.108015165 0.063089415 0.10841697 -0.07228132 -0.059531264
0.10860004 0.13446335 -0.023917735 0.10513463 0.13545334 -0.03963239 0.03870619 0.012718585
0.117143594 0.028238662 0.014248219 -0.061565854 0.13889337 -0.07446662 -0.25905675 0.024958229
0.11188434 -0.10816936 -0.047915306 0.11873411 -0.06630617 0.033002205 0.06432414 0.023471393
0.011711654 -0.1436145 0.06805311 -0.13545923 0.036236312 0.116210364 -0.121090986 0.0739148
-0.08879304 0.027260493 0.06577353 -0.061431568 0.0036504578 -0.028400833 -0.12240087 -0.06824947
0.13488573 0.09513094 -0.06352839 -0.036793865 -0.011799438 -0.102573365 -0.033655178 0.06618973
0.06816468 -0.07423237 0.029117335 -0.11846275 0.084706955 -0.08345314 0.024082659 0.011838133
-0.044595692 -0.08604614 0.051142264 0.05543422 -0.10605393 0.082778275 0.078029744 0.0072006546
0.22842973 -0.13598727 -0.012783143 0.0853213
00000000: ab07 0c3c e50c b53d e510 fe3d 1238 b5bc
00000010: a1bd a73d 9d8c 2e3c 00ec a7bd d33f 633e
00000020: a6a0 36be a0ea 90bd e009 39bd 2dfd 2c3d
00000030: 1661 d9bd 5836 493d dd44 763d 4717 da3d
00000040: c288 75bd 9596 c5bd ae83 163e c372 5ebc
00000050: 773d 00be ba73 033c d3db 6bbd 0fe9 d93d
00000060: 855d a8bd c927 593c b626 f6bd 0e37 dd3d
00000070: 0635 813d b709 de3d 3b08 94bd 0ed7 73bd
00000080: b369 de3d c3b0 093e 20ef c3bc d350 d73d
00000090: 48b4 0a3e 9355 22bd 628a 1e3d 9d61 503c
000000a0: fbe8 ef3d c454 e73c 5d71 693c 7a2c 7cbd
000000b0: 103a 0e3e f581 98bd 16a3 84be 3375 cc3c
000000c0: 9e23 e53d e687 ddbd d742 44bd de2a f33d
000000d0: 87cb 87bd 522d 073d 60bc 833d 1447 c03c
000000e0: 3de2 3f3c ae0f 13be 6e5f 8b3d d3b5 0abe
000000f0: 876c 143d b3ff ed3d 8dfe f7bd a560 973d
00000100: 20d9 b5bd 6651 df3c 46b4 863d ab9f 7bbd
00000110: 853c 6f3b dda8 e8bc 4fad fabd 61c6 8bbd
00000120: 7c1f 0a3e 03d4 c23d 2c1b 82bd 2ab5 16bd
00000130: 6e52 41bc fc11 d2bd 03da 09bd 7b8e 873d
00000140: ec99 8b3d 2407 98bd 7a87 ee3c 999c f2bd
00000150: d77a ad3d 7be9 aabd ff48 c53c bbf4 413c
00000160: f9a9 36bd f538 b0bd 8d7a 513d fe0e 633d
00000170: ce32 d9bd a887 a93d 0fce 9f3d 78f3 eb3b
00000180: 7ce9 693e 3f40 0bbe 6370 51bc efbc ae3d

linear3.bias f4 [2]
0.1483286 -0.1498632
00000000: 74e3 173e bd75 19be
