checkpoints/origin/2020-11-16T11-33-21-16-classify/classify_fold0_origin_0.950769.pth (torch, 14565 bytes, 6 tensors)

linear1.weight f4 [50, 6]
0.10252222 0.31025705 -0.28101537 0.2384646 0.11694179 0.15794022 -0.09359824 0.06297822
-0.00538171 -0.16765806 0.28265736 0.06953131 -0.06232019 0.00013562366 -0.25892702 0.13329978
-0.2934063 0.35523537 0.4536676 -0.3487166 -0.30676982 -0.31742716 -0.006997103 -0.15298267
-0.31586146 0.12801059 -0.26612473 0.18756452 0.31831682 -0.20868517 -0.09263202 -0.2073682
-0.28548807 0.02502413 -0.37047076 -0.36203802 -0.28697786 -0.16003361 -0.04170479 0.100193895
0.4041912 -0.4019259 0.15523769 -0.19567646 -0.16402748 -0.29435042 0.29617676 -0.11344115
0.18470797 -0.025895689 0.16558664 -0.044741694 0.27942875 0.057809036 -0.104286775 -0.32636723
0.28538278 0.01636568 -0.2977861 0.087434106 0.2700272 -0.027330926 -0.18753032 -0.35537535
-0.35228783 0.14742811 0.17470348 -0.18791229 0.03356979 0.36421138 0.34761903 0.35567936
-0.15266408 0.3732749 -0.18901327 -0.29251197 -0.10298343 -0.11385428 -0.35565087 0.1839353
-0.05403073 -0.11350314 0.0058401106 -0.2792426 0.055012807 0.35286292 -0.30705845 0.12998886
0.23780921 0.12129226 0.080399476 -0.380299 -0.2189674 -0.24274988 0.3108108 -0.38179365
0.30533266 -0.29002255 0.1942945 -0.2700703 -0.2264409 0.060282532 0.3692632 0.10239573
-0.25772092 -0.3615485 0.14380863 0.23253442 -0.1823228 0.3673563 -0.37750235 -0.03995224
0.22740707 0.0049001332 -0.29418212 -0.16025704 -0.19280645 0.083539076 0.23941633 -0.27205306
-0.13182917 0.3328096 -0.067263246 0.3507233 0.12915047 -0.024348423 0.28178346 -0.27225253
0.25326464 -0.12257862 -0.19594048 0.34133354 0.22554247 0.1866305 -0.1666918 -0.33492756
0.38189995 0.21155599 0.07955131 -0.014124561 -0.17516136 -0.2803864 -0.24316126 -0.22992285
0.25084376 0.067607015 -0.06835421 0.029133733 0.20984487 -0.29362163 -0.33689982 -0.19175118
0.12117878 -0.041496273 -0.29151765 0.41693783 0.30136883 -0.37806875 0.12634063 -0.111451246
0.35884356 -0.21456282 0.15055019 0.1937342 -0.1189304 0.051757015 -0.24136227 0.05446079
-0.29007784 -0.2904116 -0.28687555 0.0005906226 0.3077305 0.40299597 -0.2247414 0.13946739
0.058836535 0.013180583 -0.32508385 0.13365002 -0.12554148 0.26022422 0.3164123 0.09124195
0.41717315 -0.19334167 -0.24232751 0.39984334 0.24368213 -0.12799323 -0.05335699 -0.16484869
0.39671806 -0.0896459 0.38598585 -0.35594746 -0.33093524 -0.2626468 0.24589083 0.32098737
-0.098706335 -0.13390142 0.23641679 0.34920126 -0.38845384 0.24201892 0.23792154 0.03440603
0.09327503 0.26692733 0.29230824 0.0024977338 -0.19979323 0.28814843 -0.00077475363 -0.21842737
0.06573718 -0.35869575 0.29083273 0.23725434 0.38269275 0.118759856 0.277434 0.044306885
-0.029979762 -0.3224282 -0.24596979 -0.12614553 -0.024727719 -0.087362505 -0.15902215 0.15832414
0.30492014 -0.25499684 0.28783378 0.26601547 0.02278166 -0.38514265 0.22644517 0.39318302
0.38793865 0.12010998 -0.05504827 -0.3600482 -0.024367653 0.11073321 -0.38759267 -0.27999187
-0.084073104 0.08396272 0.27742788 0.37363786 0.034979895 0.27131906 -0.2610018 0.16133498
00000000: 2bf7 d13d 03da 9e3e 3fe1 8fbe 1030 743e
00000010: 2d7f ef3d 15bb 213e 6fb0 bfbd bafa 803d
00000020: 0e59 b0bb 8eae 2bbe 77b8 903e 6e66 8e3d
00000030: 7543 7fbd 3336 0e39 1592 84be bd7f 083e
00000040: 5a39 96be 69e1 b53e 1f47 e83e fb8a b2be
00000050: ef10 9dbe d085 a2be f447 e5bb 7da7 1cbe
00000060: 98b8 a1be 3515 033e 8041 88be ea10 403e
00000070: 6cfa a23e 91b1 55be dbb5 bdbd 5458 54be
00000080: 7e2b 92be 67ff cc3c 58ae bdbe 0c5d b9be
00000090: c3ee 92be dadf 23be a4d2 2abd 7532 cd3d
000000a0: 26f2 ce3e 3bc9 cdbe a1f6 1e3e 695f 48be
000000b0: d2f6 27be 19b5 96be 7ba4 973e d553 e8bd
000000c0: 1624 3d3e 3223 d4bc 8b8f 293e 1143 37bd
000000d0: 4911 8f3e 2bc9 6c3d 4e94 d5bd 9b19 a7be
000000e0: b11d 923e 5211 863c 6b77 98be a710 b33d
000000f0: 0141 8a3e 1be5 dfbc f307 40be c2f3 b5be
00000100: 125f b4be 65f7 163e 78e5 323e 146c 40be
00000110: 7a80 093d ea79 ba3e 1ffb b13e 9b1b b63e
00000120: f953 1cbe e31d bf3e b28c 41be 21c4 95be
00000130: fae8 d2bd 6f2c e9bd df17 b6be 8959 3c3e
00000140: 544f 5dbd 5674 e8bd 665e bf3b e3f8 8ebe
00000150: 1c55 613d 73aa b43e c436 9dbe cd1b 053e
00000160: 4284 733e 1468 f83d 7ba8 a43d 8db6 c2be
00000170: fd38 60be 6d93 78be 9822 9f3e 757a c3be
00000180: 9054 9c3e d67d 94be 23f5 463e a846 8abe
00000190: 20e0 67be d1ea 763d 1110 bd3e dab4 d13d
000001a0: fff3 83be e31c b9be 9242 133e 811d 6e3e
000001b0: d4b2 3abe 2016 bc3e fd47 c1be f6a4 23bd
000001c0: 66dd 683e 4c91 a03b 0a9f 96be 6c1a 24be
000001d0: 0e6f 45be 8916 ab3d 8e29 753e 8a4a 8bbe
000001e0: 3afe 06be 0566 aa3e 50c1 89bd 0192 b33e
000001f0: 0540 043e 5876 c7bc ec45 903e af64 8bbe
00000200: e7ab 813e 800a fbbd 9fa4 48be 45c3 ae3e
00000210: 9bf4 663e 111c 3f3e 41b1 2abe a07b abbe
00000220: 6488 c33e 22a2 583e cceb a23d b46a 67bc
00000230: 805d 33be ce8e 8fbe 44ff 78be e570 6bbe
00000240: 986e 803e 8c75 8a3d 4bfd 8bbd dea9 ee3c
00000250: 93e1 563e 9355 96be 227e acbe 6c5a 44be
00000260: 952c f83d fff7 29bd cd41 95be e078 d53e
00000270: 044d 9a3e 3a92 c1be 705f 013e 8d40 e4bd
00000280: 58ba b73e 5bb6 5bbe d429 1a3e 4262 463e
00000290: c891 f3bd 2aff 533d ac27 77be 4712 5f3d
000002a0: 1585 94be d4b0 94be 5ae1 92be 03d4 1a3a
000002b0: da8e 9d3e 7d55 ce3e 9c22 66be 8ad0 0e3e
000002c0: 94fe 703d 5ff3 573c 6471 a6be 8ddb 083e
000002d0: f28d 00be 1c3c 853e cb00 a23e 0fdd ba3d
000002e0: b897 d53e 5cfb 45be b424 78be 44b8 cc3e
000002f0: cf87 793e a810 03be dc8c 5abd 18ce 28be
00000300: a11e cb3e 4598 b7bd f09f c53e bf3e b6be
00000310: 5870 a9be a479 86be ceca 7b3e 7558 a43e
00000320: 8c26 cabd 741d 09be 3e17 723e 82ca b23e
00000330: 6ce3 c6be cfd3 773e b4a1 733e 56ed 0c3d
00000340: fb06 bf3d b3aa 883e 6da9 953e 05b1 233b
00000350: 9996 4cbe 3188 933e d618 4bba 6dab 5fbe
00000360: 37a1 863d f8a6 b7be 07e8 943e cdf2 723e
00000370: 4ef0 c33e 5e38 f33d d40b 8e3e 237b 353d
00000380: 1e98 f5bc 4f15 a5be 81df 7bbe 4b2c 01be
00000390: c991 cabc 1deb b2bd b4d6 22be b91f 223e
000003a0: 7e1e 9c3e f28e 82be f35e 933e 2e33 883e
000003b0: 9ba0 ba3c 6b31 c5be 3ee1 673e 494f c93e
000003c0: e59f c63e 39fc f53d 4b7a 61bd 3d58 b8be
000003d0: ac9e c7bc 18c8 e23d 8c72 c6be 185b 8fbe
000003e0: 852e acbd a6f4 ab3d 070b 8e3e 764d bf3e
000003f0: 1447 0f3d 55ea 8a3e 07a2 85be ff34 253e

linear1.bias f4 [50]
-0.37759274 0.002966229 -0.21339694 -0.016334698 -0.26040158 -0.2999078 0.21687032 0.31399235
0.019287298 -0.30076712 -0.052639667 0.23436286 0.36023673 -0.3711911 -0.23033327 -0.4004228
-0.30084965 0.3663143 -0.25608867 0.24505664 -0.13262491 -0.42153215 -0.063585885 0.26407248
0.41979653 -0.43282515 -0.030350985 0.22320965 0.29466188 -0.31373122 0.038103785 0.22699413
-0.36693418 -0.0073144217 -0.3557619 0.03974516 0.2124385 -0.25296515 0.30403933 0.11516357
0.28777337 0.03330774 0.21331765 0.27404732 0.22002643 -0.25250578 -0.26899827 -0.1935355
0.28218317 -0.26925996
00000000: d653 c1be 1165 423b ba84 5abe 58d0 85bc
00000010: 5b53 85be 848d 99be 4113 5e3e 9bc3 a03e
00000020: 6500 9e3c 26fe 99be b19c 57bd d1fc 6f3e
00000030: f370 b83e c30c bebe 7cdc 6bbe 3804 cdbe
00000040: f708 9abe 8c8d bb3e 0e1e 83be 21f0 7a3e
00000050: d3ce 07be 10d3 d7be 5139 82bd 8234 873e
00000060: 92ef d63e 429b ddbe a1a2 f8bc 1291 643e
00000070: ecdd 963e 61a1 a0be b712 1c3d 2671 683e
00000080: ccde bbbe d1ad efbb 6c26 b6be d2cb 223d
00000090: 7a89 593e a684 81be 0bab 9b3e e1da eb3d
000000a0: 0857 933e b26d 083d f16f 5a3e ee4f 8c3e
000000b0: 9c4e 613e 7048 81be 24ba 89be 2c2e 46be
000000c0: 507a 903e 71dc 89be

linear2.weight f4 [50, 50]
0.07177409 0.01821154 -0.0454576 0.06297346 0.07371302 0.03186137 -0.032216396 0.012907363
-0.10308224 0.04284114 0.047992792 -0.020950899 0.11112103 0.086456984 -0.1025328 -0.102721296
-0.04181764 0.10420012 0.06153801 -0.02703761 -0.060249668 0.11862224 0.08621259 0.117309384
-0.07620865 0.10926885 0.112186946 0.052225076 -0.06637271 0.08886519 -0.10339918 0.15540145
0.026471587 -0.108792156 0.06394769 0.111238346 -0.01827493 -0.14482437 -0.09693702 -0.06449193
-0.08651859 0.066988595 0.077186376 0.101588115 0.110141605 -0.052367833 -0.10893037 0.090420924
-0.13112201 0.062767394 -0.052304864 -0.13771768 -0.045796297 -0.08418779 0.07957811 -0.09128917
0.11439914 0.041791905 -0.09083413 0.10936042 0.06875119 -0.104037106 -0.13543794 -0.032196686
-0.10648323 0.014564991 -0.027000234 -0.08566528 0.08591231 -0.036542635 0.08552842 -0.06949066
-0.12697622 -0.016040416 0.13928379 0.0038881986 -0.13692942 -0.017234234 0.110469185 0.030966606
0.120333776 -0.07244416 -0.11091556 0.0572333 -0.12330228 -0.01800719 0.13762778 0.01576766
-0.09845906 0.07248002 -0.0521851 -0.1147508 -0.01399412 -0.093374915 -0.014187557 -0.030650977
0.020569365 0.074436314 -0.005881374 0.10352079 0.033661112 -0.022615915 -0.10908361 -0.035379503
-0.0015603439 0.09750217 -0.13268362 0.007544293 0.1471126 -0.076004714 0.09095898 0.11569512
0.0399085 -0.06724652 0.03263594 0.09357793 0.046965636 0.09748614 0.08108353 -0.10448391
-0.0733991 -0.029928371 0.16439922 0.14357992 0.15577236 0.02028674 0.03464312 0.14588958
-0.014035879 -0.021187996 -0.04766104 0.074991494 0.04960481 0.0013451251 0.04485983 0.19255258
0.07132421 0.09892355 -0.08599899 -0.0848566 0.1636815 0.046685897 -0.018133238 -0.10343163
0.017723186 -0.1094247 0.20973092 0.025604783 -0.027172351 0.11445754 0.14060858 -0.063043244
-0.018428825 0.11790921 0.00035679838 0.02348886 -0.12230155 -0.029634876 -0.03982939 -0.028804434
0.06669156 -0.1000853 0.05393738 -0.08648124 -0.010489127 -0.059918962 0.048650466 0.0463379
-0.091278546 0.10775392 -0.076053664 -0.022862837 -0.06680897 -0.03643932 -0.0042188517 -0.03950014
0.0064626443 -0.025224725 0.10384325 -0.13626927 0.041524366 0.0589605 0.09790739 -0.024313912
-0.12947646 0.1729584 0.0035423478 0.07554578 0.14086172 0.0444484 0.07311241 -0.095473625
-0.03203572 0.079788156 -0.068784066 -0.07571879 0.14569718 -0.090048075 0.11509442 0.010525234
-0.044866733 -0.14751422 -0.1394935 -0.123823516 -0.08170772 -0.017050695 -0.10705595 -0.12707962
-0.02824823 0.060567733 0.021977723 -0.11675975 -0.0070087537 -0.07386671 0.027818788 -0.023920191
0.012242791 0.07896918 -0.0021731758 -0.0036275794 0.12552874 -0.038827512 -0.079944946 -0.07823541
0.08476182 -0.056990344 -0.10140552 0.009719896 0.119805105 -0.03910302 -0.11337611 -0.12587832
0.13960056 -0.025830178 -0.029696586 -0.13743979 0.045582965 -0.11494921 -0.09410795 -0.005775898
0.009148542 -0.056179814 -0.15680906 0.04328242 0.12259925 0.12690727 -0.09866251 -0.03449717
0.12907803 -0.08168075 -0.1320801 0.077131875 0.10275164 0.05244976 -0.09448004 0.083484754
00000000: 4bfe 923d 5e30 953c c031 3abd 3bf8 803d
00000010: daf6 963d 1181 023d 57f5 03bd 6779 533c
00000020: c81c d3bd 317a 2f3d 1794 443d 38a1 abbc
00000030: 6c93 e33d 5c10 b13d b7fc d1bd 8b5f d2bd
00000040: f948 2bbd df66 d53d 480f 7c3d fa7d ddbc
00000050: 5bc8 76bd 38f0 f23d 3a90 b03d e73f f03d
00000060: 4813 9cbd 59c8 df3d 45c2 e53d f6e9 553d
00000070: 6aee 87bd f4fe b53d f3c2 d3bd 8f21 1f3e
00000080: f1da d83c 6cce debd 02f7 823d eed0 e33d
00000090: 4eb5 95bc d74c 14be eb86 c6bd 5814 84bd
000000a0: a930 b1bd 5131 893d e413 9e3d 6e0d d03d
000000b0: ec91 e13d a77f 56bd e316 dfbd 9b2e b93d
000000c0: d944 06be 318c 803d a03d 56bd dd05 0dbe
000000d0: e694 3bbd a66a acbd d9f9 a23d d1f5 babd
000000e0: 194a ea3d fd2d 2b3d 3f07 babd 5bf8 df3d
000000f0: 6dcd 8c3d 6811 d5bd 3eb0 0abe ace0 03bd
00000100: e113 dabd 00a2 6e3c 982f ddbc 4771 afbd
00000110: cbf2 af3d bbad 15bd 8629 af3d 1f51 8ebd
00000120: 0e06 02be 3167 83bc 69a0 0e3e 26d1 7e3b
00000130: 3a37 0cbe cf2e 8dbc ab3d e23d aead fd3c
00000140: 8e71 f63d 9b5d 94bd b227 e3bd 776d 6a3d
00000150: e885 fcbd d183 93bc 4cee 0c3e 2e2b 813c
00000160: e7a4 c9bd 6870 943d 0bc0 55bd 7802 ebbd
00000170: 9847 65bc 593b bfbd ed72 68bc c217 fbbc
00000180: 1681 a83c 1172 983d 8ab8 c0bb b502 d43d
00000190: 3ce0 093d 0345 b9bc 3a67 dfbd 19ea 10bd
000001a0: 7484 ccba 38af c73d 37de 07be 1e36 f73b
000001b0: afa4 163e 5ca8 9bbd b448 ba3d 90f1 ec3d
000001c0: 1877 233d 8bb8 89bd 43ad 053d c9a5 bf3d
000001d0: 0a5f 403d d0a6 c73d 1f0f a63d a9fb d5bd
000001e0: 4452 96bd 582c f5bc 4558 283e 9d06 133e
000001f0: ca82 1f3e 6130 a63c f2e5 0d3d 1464 153e
00000200: bef6 65bc 7392 adbc 3938 43bd 2495 993d
00000210: 6a2e 4b3d e94e b03a f1be 373d 812c 453e
00000220: 6d12 923d 6e98 ca3d 3d20 b0bd 4cc9 adbd
00000230: 209c 273e b639 3f3d 288c 94bc f6d3 d3bd
00000240: 3730 913c 0f1a e0bd b4c3 563e 1fc1 d13c
00000250: 8d98 debc b768 ea3d b2fb 0f3e d11c 81bd
00000260: 0cf8 96bc 627a f13d ab10 bb39 b66b c03c
00000270: 3c79 fabd d7c4 f2bc 2424 23bd 47f7 ebbc
00000280: 9695 883d 86f9 ccbd 71ed 5c3d 141d b1bd
00000290: 96da 2bbc 966d 75bd b645 473d cfcc 3d3d
000002a0: 3ff0 babd 16ae dc3d 06c2 9bbd d84a bbbc
000002b0: 24d3 88bd 6541 15bd 4b3e 8abb e6ca 21bd
000002c0: 97c4 d33b 15a4 cebc c5ab d43d 2c8a 0bbe
000002d0: 7415 2a3d 9180 713d ab83 c83d f82d c7bc
000002e0: 7a95 04be 021c 313e bc26 683b bfb7 9a3d
000002f0: 0e3e 103e 870f 363d f6bb 953d ad87 c3bd
00000300: e337 03bd f967 a33d a9de 8cbd 7412 9bbd
00000310: a431 153e 206b b8bd a0b6 eb3d 0872 2c3c
00000320: 2ec6 37bd f80d 17be 62d7 0ebe 2f97 fdbd
00000330: 6156 a7bd e6ad 8bbc 2640 dbbd 2921 02be
00000340: d568 e7bc df15 783d a00a b43c bc1f efbd
00000350: b0a9 e5bb 6e47 97bd 3ae4 e33c 47f4 c3bc
00000360: fd95 483c 98ba a13d d76b 0ebb afbc 6dbb
00000370: 9b8a 003e 9909 1fbd 2dba a3bd e339 a0bd
00000380: 9b97 ad3d b56e 69bd b3ad cfbd 3340 1f3c
00000390: 615c f53d 7d2a 20bd bc31 e8bd 3fe6 00be
000003a0: 73f3 0e3e cf99 d3bc 4146 f3bc 04bd 0cbe
000003b0: 34b5 3a3d 7e6a ebbd abbb c0bd bf43 bdbb
000003c0: c4e3 153c ce1c 66bd 8e92 20be e848 313d
000003d0: 5115 fb3d fbf3 013e 920f cabd e84c 0dbd
000003e0: 082d 043e 3d48 a7bd 0140 07be 51f7 9d3d
000003f0: 746f d23d 8fd5 563d c07e c1bd 0efa aa3d

linear2.bias f4 [50]
-0.13446786 0.07110959 0.046553854 0.13949831 -0.10829769 0.046140403 -0.117256045 0.025094371
-0.06635068 0.07737242 0.12121976 -0.070854805 -0.16019274 -0.1422329 -0.039522998 -0.070047915
0.092616275 0.02675652 0.0028648172 0.04119069 0.0076112496 -0.010675424 0.16444683 -0.038854036
0.03283903 0.05898743 0.017765956 0.12673967 0.081740834 -0.060092136 0.06947514 0.08292706
0.031006174 -0.015184173 -0.15754932 -0.07751667 -0.14934072 -0.029346243 0.11586666 -0.039152868
0.09375429 0.021268677 -0.08390161 0.078811176 0.024163663 -0.023372935 -0.04311249 -0.096711025
-0.061537404 -0.10003062
00000000: f1b1 09be e8a1 913d 41af 3e3d a5d8 0e3e
00000010: 2ecb ddbd b8fd 3c3d f023 f0bd b692 cd3c
00000020: dee2 87bd 6e75 9e3d 1142 f83d 531c 91bd
00000030: 9109 24be 80a5 11be dee2 21bd 4875 8fbd
00000040: 9aad bd3d 7d30 db3c a8bf 3b3b 92b7 283d
00000050: ca67 f93b f9e7 2ebc c064 283e 6925 1fbd
00000060: 3882 063d ce9c 713d e989 913c 0bc8 013e
00000070: bd67 a73d 2c23 76bd fb48 8e3d aad5 a93d
00000080: a900 fe3c 0ac7 78bc 9c54 21be 0fc1 9ebd
00000090: c6ec 18be 8867 f0bc 804b ed3d c25e 20bd
000000a0: 4002 c03d a63b ae3c 9bd4 abbd c167 a13d
000000b0: e0f2 c53c 9978 bfbc b996 30bd 6e10 c6bd
000000c0: a50e 7cbd dbdc ccbd

linear3.weight f4 [2, 50]
-0.13183895 -0.011856364 0.0687898 0.07691058 0.06032848 0.031162042 -0.019045727 0.090311125
-0.010585671 0.12235356 0.10364515 0.011701641 -0.12419531 -0.13471478 -0.0050720945 0.054908946
0.11273918 0.06360702 -0.061624017 0.07015644 -0.083510324 -0.114096664 0.03766393 0.13667116
0.118432984 0.07526975 0.08293056 0.090421714 0.103968754 -0.13840303 0.13093938 0.09027832
-0.010844014 -0.11378333 -0.123191364 0.10762698 0.019004738 -0.08896459 -0.08442246 0.052700996
0.13696939 0.076058775 0.0797891 0.09542039 -0.09989563 -0.08156064 -0.09739875 0.07878114
-0.14538293 -0.05806602 0.055440016 -0.011611323 -0.12016893 -0.040085185 0.0859965 0.040441673
0.0890374 -0.031090975 0.14003946 0.0071525113 0.03231627 -0.06390321 -0.0077863024 -0.06560207
0.057609875 -0.094537154 -0.08714376 -0.029595593 0.033944495 0.07756058 0.061806794 0.107334964
-0.094892934 0.14028166 0.017592885 -0.03932448 0.11437529 -0.13912886 -0.13256696 0.0027473508
0.035557225 -0.12835291 0.08226256 0.09286326 0.020396763 -0.15075389 0.1109818 0.09917028
0.0057017654 -0.1132794 -0.046478122 -0.07121534 0.08368996 -0.014058573 0.0079919 -0.03824704
-0.0056372364 0.12337717 -0.03181976 0.14433159
00000000: ca00 07be 3241 42bc abe1 8c3d 4b83 9d3d
00000010: ff1a 773d 8a47 ff3c c905 9cbc 0af5 b83d
00000020: 866f 2dbc 8194 fa3d e943 d43d 3db8 3f3c
00000030: 1c5a febd acf2 09be d033 a6bb 34e8 603d
00000040: cde3 e63d 6644 823d 7769 7cbd 2eae 8f3d
00000050: 7607 abbd 83ab e9bd 7e45 1a3d 86f3 0b3e
00000060: fe8c f23d 0727 9a3d 7fd7 a93d 052f b93d
00000070: 92ed d43d 86b9 0dbe f914 063e d7e3 b83d
00000080: 17ab 31bc 3c07 e9bd c14b fcbd 896b dc3d
00000090: d3af 9b3c 1133 b6bd afe5 acbd 00dd 573d
000000a0: b441 0c3e b4c4 9b3d 7868 a33d c46b c33d
000000b0: 1496 ccbd 4409 a7bd ff78 c7bd 0258 a13d
000000c0: 43df 14be a3d6 6dbd 1215 633d 6b3d 3ebc
000000d0: 211b f6bd 5d30 24bd ef1e b03d 2ba6 253d
000000e0: 3e59 b63d 80b2 febc 8166 0f3e 9d5f ea3b
000000f0: 115e 043d b0df 82bd 3d24 ffbb 615a 86bd
00000100: 55f8 6b3d b29c c1bd 6d78 b2bd 7572 f2bc
00000110: 6209 0b3d 15d8 9e3d 1f29 7d3d 6fd2 db3d
00000120: 3a57 c2bd ffa5 0f3e f41e 903c b512 21bd
00000130: 983d ea3d cc77 0ebe a2bf 07be e60c 343b
00000140: 74a4 113d f26e 03be 4679 a83d 182f be3d
00000150: 1d17 a73c 3a5f 1abe 6d4a e33d ca19 cb3d
00000160: e0d5 ba3b 08ff e7bd d85f 3ebd 59d9 91bd
00000170: a465 ab3d ee55 66bc 75f0 023c eea8 1cbd
00000180: 91b8 b8bb 2bad fc3d 7055 02bd a9cb 133e

linear3.bias f4 [2]
0.02948159 -0.122314975
00000000: 6083 f13c 4680 fabd
