checkpoints/origin/2020-11-16T11-33-21-16-classify/classify_fold0_origin_0.956923.pth (torch, 14565 bytes, 6 tensors)

linear1.weight f4 [50, 6]
000000 50 2c ca 3d e4 9e a3 3e 71 29 90 be 3a 64 73 3e
       0.09871733 0.3195716 -0.28156617 0.23768702
000010 aa bf 04 3e ca b4 0b 3e 41 90 d6 bd 91 c4 6e 3d
       0.12963739 0.13643184 -0.10476733 0.05829293
000020 92 b1 36 bc 74 68 47 be b3 70 92 3e d3 59 7c 3d
       -0.0111507345 -0.1947344 0.28601608 0.0616091
000030 e1 09 80 bd 2d 24 84 b8 1d ac 84 be ae 4b 08 3e
       -0.06251884 -6.300989e-05 -0.25912562 0.1331012
000040 61 53 96 be 61 c7 b5 3e 96 b4 fe 3e fd b2 97 be
       -0.29360488 0.35503677 0.4974715 -0.29628745
000050 34 a7 7b be d0 3a 9b be 3c 2c 5f 3d b9 1f d7 bd
       -0.24575502 -0.30318308 0.054485545 -0.105040975
000060 98 b8 a1 be 35 15 03 3e 80 41 88 be ea 10 40 3e
       -0.31586146 0.12801059 -0.26612473 0.18756452
000070 6c fa a2 3e 91 b1 55 be db b5 bd bd 54 58 54 be
       0.31831682 -0.20868517 -0.09263202 -0.2073682
000080 7e 2b 92 be 67 ff cc 3c 58 ae bd be 0c 5d b9 be
       -0.28548807 0.02502413 -0.37047076 -0.36203802
000090 c3 ee 92 be da df 23 be a4 d2 2a bd 75 32 cd 3d
       -0.28697786 -0.16003361 -0.04170479 0.100193895
0000a0 26 f2 ce 3e 3b c9 cd be c2 d3 1d 3e 4f 58 49 be
       0.4041912 -0.4019259 0.1541281 -0.19662593
0000b0 ee ff 28 be a0 21 97 be ff ba 96 3e 51 91 ea bd
       -0.1650388 -0.2951784 0.29439542 -0.11453498
0000c0 88 1e 39 3e 78 77 ff bc 74 16 1c 3e c0 64 46 bd
       0.18078053 -0.031184897 0.1524294 -0.048435926
0000d0 0f a2 95 3e 6c 80 25 3d e6 26 e7 bd 08 c6 aa be
       0.29225203 0.040405676 -0.11286716 -0.3335421
0000e0 33 ee 81 3e b7 d8 66 3c a6 50 ab be 76 40 84 3d
       0.25377044 0.014089755 -0.33459967 0.064576074
0000f0 57 cf 89 3e 70 ae 46 bd 41 1c 41 be 00 fa b5 be
       0.26916 -0.0485062 -0.18858434 -0.35542297
000100 89 98 b6 be 1a a5 15 3e bf d1 32 3e 86 ab 40 be
       -0.3566325 0.14613762 0.17462824 -0.18815431
000110 77 88 f5 3c 69 08 ba 3e 25 da bb 3e 70 69 b3 3e
       0.029972298 0.3633454 0.3668987 0.3504138
000120 84 73 26 be c7 d5 c0 3e 78 67 47 be 07 e7 e4 be
       -0.16255003 0.376631 -0.19473064 -0.4470751
000130 10 8a b1 bd 0a 3d 24 be 40 a9 b3 be 65 5c 4c 3e
       -0.086689115 -0.1603891 -0.35090065 0.1995712
000140 f8 32 4e bd 09 6d 93 be 85 3a 50 3d 7f b5 a7 be
       -0.050341576 -0.28794125 0.05083706 -0.32755658
000150 a1 e8 3e 3d 66 27 b9 3e 6e 1c 9e be b8 b7 00 3e
       0.04660857 0.3616287 -0.30881065 0.12570083
000160 9c 8d 86 3e 92 9e 76 3d 7b a8 a4 3d 8d b6 c2 be
       0.26279914 0.06020982 0.080399476 -0.380299
000170 fd 38 60 be 6d 93 78 be 98 22 9f 3e 75 7a c3 be
       -0.2189674 -0.24274988 0.3108108 -0.38179365
000180 bf 17 9b 3e f8 32 a5 be 10 d5 3b 3e 2a f7 8f be
       0.30291554 -0.3226545 0.18342996 -0.2811826
000190 94 8a 5a be 3e cd 57 3d 16 61 bc 3e 8b 7c a9 3d
       -0.21341926 0.05268597 0.3679282 0.08275708
0001a0 4b 3b 85 be e6 3e b9 be 74 a1 0f 3e fe ed 6c 3e
       -0.260218 -0.361808 0.14026433 0.23137662
0001b0 d4 b2 3a be 20 16 bc 3e fd 47 c1 be f6 a4 23 bd
       -0.1823228 0.3673563 -0.37750235 -0.03995224
0001c0 66 dd 68 3e 4c 91 a0 3b 0a 9f 96 be 6c 1a 24 be
       0.22740707 0.0049001332 -0.29418212 -0.16025704
0001d0 0e 6f 45 be 89 16 ab 3d 8e 29 75 3e 8a 4a 8b be
       -0.19280645 0.083539076 0.23941633 -0.27205306
0001e0 26 54 0b be 18 6a a4 3e 81 e3 a3 bd 00 8b b3 3e
       -0.13606319 0.32112193 -0.08002377 0.35066986
0001f0 a1 de 00 3e fc 79 13 bd f5 66 88 3e 3f 0c 86 be
       0.12584926 -0.036005005 0.2664105 -0.26181218
000200 f9 3a 6d 3e 0f 72 fe bd 5b 1a 6f be fd 9e a1 3e
       0.23167028 -0.12424099 -0.23349898 0.3156661
000210 61 29 60 3e d5 29 44 3e 46 9e 2c be 37 98 f0 be
       0.21890785 0.19156583 -0.16857252 -0.4699113
000220 6d a7 ca 3e f4 cf 36 3e 16 e7 a2 3d 30 93 67 bc
       0.3958086 0.17852765 0.079542324 -0.014134213
000230 e1 5f 33 be be 8f 8f be 44 01 79 be e7 72 6b be
       -0.17517044 -0.28039354 -0.24316889 -0.2299305
000240 69 a3 79 3e 16 01 96 3d 5f 0d b5 bd b3 b1 ec 3c
       0.24378742 0.07324426 -0.08840441 0.028893327
000250 53 f2 32 3e 7b 9a 9f be f8 58 bd be 3b c8 11 be
       0.17475252 -0.31172547 -0.3698194 -0.14236538
000260 74 e2 d8 3d aa 42 85 bc dd fd b6 be 03 18 d2 3e
       0.105900675 -0.01626714 -0.35740557 0.41033944
000270 f5 37 9a 3e 9d 11 e6 be 58 d7 ef 3d 42 bc eb bd
       0.30120817 -0.44935313 0.117109954 -0.11510517
000280 bc 65 b9 3e 13 f8 5f be 8c 01 13 3e 1b 1e 46 3e
       0.3621043 -0.21871977 0.14356059 0.19347422
000290 95 fb 04 be 17 46 50 3d b6 07 71 be e2 1e d0 3c
       -0.12986596 0.050848093 -0.23538098 0.025405351
0002a0 15 85 94 be d4 b0 94 be 5a e1 92 be 03 d4 1a 3a
       -0.29007784 -0.2904116 -0.28687555 0.0005906226
0002b0 da 8e 9d 3e 7d 55 ce 3e 37 fa 78 be 9f 4b 0c 3e
       0.3077305 0.40299597 -0.243142 0.13700722
0002c0 88 26 67 3d 87 04 64 3d 71 f0 bf be f9 2d 0c 3e
       0.05643323 0.05566838 -0.3748813 0.13689412
0002d0 94 66 0b be c7 a4 81 3e 77 29 97 3e e4 bb b3 3d
       -0.13613349 0.25321028 0.29523823 0.08776072
0002e0 af 16 d3 3e 88 2c 5e be 3e a9 79 be d8 bd c6 3e
       0.41228244 -0.21696675 -0.24380967 0.38816714
0002f0 a6 b6 76 3e c1 ae c2 bd 5c b3 a1 bd ab 0c 21 be
       0.24093112 -0.09505988 -0.07895538 -0.15727489
000300 5e 71 c9 3e 06 8e c9 bd 11 71 bf 3e 99 91 b5 be
       0.39344305 -0.09841542 0.3739095 -0.35462645
000310 50 8b b5 be 6e 09 88 be f5 07 79 3e 96 34 a4 3e
       -0.3545785 -0.26569694 0.24319442 0.3207137
000320 94 67 dc bd 32 bc 0c be 32 d1 61 3e 86 ba b1 3e
       -0.107619435 -0.13743666 0.22052458 0.3471262
000330 eb c2 c9 be 29 40 77 3e ab 06 73 3e e9 2e 96 3d
       -0.39406523 0.24145569 0.23733012 0.07333166
000340 f4 5b 85 3d bf 98 8c 3e 12 dd 95 3e ec f0 24 bd
       0.06511679 0.27460286 0.29270226 -0.040268824
000350 35 81 4c be 37 a1 93 3e a9 13 17 3c e9 e8 5f be
       -0.19971164 0.28833935 0.009220996 -0.21866192
000360 d4 2f 80 3d cb dd c7 be 49 66 8c 3e 53 30 6f 3e
       0.062591225 -0.39036402 0.27421787 0.23358278
000370 3e 75 c3 3e 60 b9 de 3d 1a 72 95 3e c7 4a 2e 3d
       0.38175386 0.10875201 0.29188615 0.042551782
000380 13 13 79 bc d8 3d aa be 3f d4 6a be 61 67 ea bd
       -0.015202302 -0.33250308 -0.22932528 -0.11445499
000390 6d 32 cc bc b6 4c b3 bd c3 0a 23 be aa eb 21 3e
       -0.024926389 -0.08754866 -0.15922074 0.15812555
0003a0 01 10 9c 3e fa a8 82 be 47 5b 90 3e f4 37 86 3e
       0.3048096 -0.25519544 0.2819464 0.26214564
0003b0 46 42 55 3c 10 a1 cc be 40 db 6e 3e d4 aa c2 3e
       0.013016289 -0.3996663 0.23325825 0.38020957
0003c0 6f 17 c7 3e 05 92 ef 3d bc c0 6b bd b0 da cb be
       0.38885066 0.11697773 -0.057556853 -0.39815283
0003d0 8b f1 13 bc 4d 50 d3 3d 8c 72 c6 be 18 5b 8f be
       -0.009029756 0.103180505 -0.38759267 -0.27999187
0003e0 85 2e ac bd a6 f4 ab 3d 07 0b 8e 3e 76 4d bf 3e
       -0.084073104 0.08396272 0.27742788 0.37363786
0003f0 ba 66 0c 3d 8a f7 86 3e e4 cb 88 be 17 65 25 3e
       0.034277655 0.26360732 -0.26718056 0.16151844

linear1.bias f4 [50]
000000 66 70 ba be e2 4c e2 3b bc b8 5a be db 20 39 3d
       -0.36413878 0.006906138 -0.21359533 0.04519735
000010 5b 53 85 be 84 8d 99 be 41 13 5e 3e 45 da 9f 3e
       -0.26040158 -0.2999078 0.21687032 0.31221214
000020 c2 fb 05 3d 27 cf ac be c1 6d 69 bd fb e3 81 3e
       0.032710798 -0.33751795 -0.056989435 0.25369248
000030 37 46 c1 3e 83 6f a6 be 5e 45 51 be 38 04 cd be
       0.37748882 -0.32506952 -0.20436618 -0.4004228
000040 b9 39 93 be 18 c0 b9 3e 0e 1e 83 be 21 f0 7a 3e
       -0.28754976 0.36279368 -0.25608867 0.24505664
000050 df 00 0b be 75 6e eb be 91 12 48 bd 98 33 87 3e
       -0.13574551 -0.4598271 -0.04884583 0.2640655
000060 7c 58 c5 3e 1c 74 ff be 89 9d da bc db a9 6b 3e
       0.3854407 -0.49893272 -0.026686447 0.23014013
000070 ec dd 96 3e 37 87 ba be f8 bb 08 3d 29 a9 4d 3e
       0.29466188 -0.36431286 0.033382386 0.2008406
000080 61 37 c8 be a8 fe b8 bc 58 e4 c4 be 9f 6b 4b 3d
       -0.3910475 -0.022582367 -0.38455462 0.049663182
000090 53 f5 58 3e c5 47 71 be 8f 9c 9b 3e 95 05 fb 3d
       0.21187334 -0.23562534 0.30392882 0.12256924
0000a0 9b 7f 9b 3e b2 6d 08 3d 24 2a 53 3e 1d e1 66 3e
       0.30370793 0.03330774 0.20621544 0.22546811
0000b0 d4 18 38 3e 81 a8 8f be 12 5d 7e be 0a fe 58 be
       0.17978221 -0.28058246 -0.24840191 -0.21190658
0000c0 6a aa 97 3e 94 c0 95 be
       0.29622203 -0.29248488

linear2.weight f4 [50, 50]
000000 a7 a8 82 3d 4e 56 1b 3c 0e 02 3b bd 3b f8 80 3d
       0.06379824 0.009481026 -0.045656256 0.06297346
000010 da f6 96 3d 11 81 02 3d 57 f5 03 bd 67 79 53 3c
       0.07371302 0.03186137 -0.032216396 0.012907363
000020 8a b2 e1 bd 52 1a 1e 3d 17 94 44 3d 0f 01 bb bc
       -0.11020382 0.03859932 0.047992792 -0.022827653
000030 2c 35 b9 3d d3 85 92 3d c4 ac 0e be 8b 5f d2 bd
       0.09043345 0.07154431 -0.13933092 -0.102721296
000040 b7 4d 53 bd 9f 5e d5 3d 48 0f 7c 3d fa 7d dd bc
       -0.051587787 0.10418438 0.06153801 -0.02703761
000050 62 ed 92 bd 8b 5a eb 3d fe 42 84 3d e7 3f f0 3d
       -0.071741834 0.11491879 0.0645809 0.117309384
000060 47 92 ab bd 46 35 e7 3d 10 26 c1 3d 90 9d 31 3d
       -0.083775096 0.11289458 0.09431088 0.043363154
000070 6a ee 87 bd b0 b8 c0 3d 93 34 e1 bd 91 9c 17 3e
       -0.06637271 0.09410226 -0.10996356 0.14805819
000080 5f 67 8f 3c 26 c0 fa bd f8 da 7a 3d d8 68 e3 3d
       0.017505346 -0.12243681 0.06124398 0.11103982
000090 a6 e0 ba bc 5e 82 2f be 13 ef c6 bd 2e 79 98 bd
       -0.022812199 -0.17139575 -0.097135685 -0.07444988
0000a0 ac 29 da bd 51 31 89 3d 1a 82 93 3d 62 19 c7 3d
       -0.106524795 0.066988595 0.07202549 0.09721638
0000b0 af 73 d6 3d 13 1e 5d bd d9 06 30 be bf e1 ad 3d
       0.10471284 -0.05398376 -0.17190112 0.08490323
0000c0 a0 64 0d be 94 e0 66 3d a0 3d 56 bd dd 05 0d be
       -0.13807917 0.05636652 -0.052304864 -0.13771768
0000d0 e6 94 3b bd a6 6a ac bd d9 f9 a2 3d d1 f5 ba bd
       -0.045796297 -0.08418779 0.07957811 -0.09128917
0000e0 19 4a ea 3d fd 2d 2b 3d 3f 07 ba bd 5b f8 df 3d
       0.11439914 0.041791905 -0.09083413 0.10936042
0000f0 6d cd 8c 3d 68 11 d5 bd 3e b0 0a be ac e0 03 bd
       0.06875119 -0.104037106 -0.13543794 -0.032196686
000100 e1 13 da bd 00 a2 6e 3c 98 2f dd bc 47 71 af bd
       -0.10648323 0.014564991 -0.027000234 -0.08566528
000110 cb f2 af 3d bb ad 15 bd 86 29 af 3d 1f 51 8e bd
       0.08591231 -0.036542635 0.08552842 -0.06949066
000120 0e 06 02 be 31 67 83 bc 69 a0 0e 3e 26 d1 7e 3b
       -0.12697622 -0.016040416 0.13928379 0.0038881986
000130 3a 37 0c be cf 2e 8d bc ab 3d e2 3d ae ad fd 3c
       -0.13692942 -0.017234234 0.110469185 0.030966606
000140 8e 71 f6 3d 9b 5d 94 bd b2 27 e3 bd 77 6d 6a 3d
       0.120333776 -0.07244416 -0.11091556 0.0572333
000150 e8 85 fc bd d1 83 93 bc 4c ee 0c 3e 2e 2b 81 3c
       -0.12330228 -0.01800719 0.13762778 0.01576766
000160 e7 a4 c9 bd 68 70 94 3d 0b c0 55 bd 78 02 eb bd
       -0.09845906 0.07248002 -0.0521851 -0.1147508
000170 98 47 65 bc 59 3b bf bd ed 72 68 bc c2 17 fb bc
       -0.01399412 -0.093374915 -0.014187557 -0.030650977
000180 16 81 a8 3c 11 72 98 3d 8a b8 c0 bb b5 02 d4 3d
       0.020569365 0.074436314 -0.005881374 0.10352079
000190 0c 1c 1a 3d 81 a3 5a bc 12 ff de bd 46 66 0f bc
       0.037624404 -0.013344646 -0.108884946 -0.008752411
0001a0 74 84 cc ba 38 af c7 3d 37 de 07 be 31 da 82 3c
       -0.0015603439 0.09750217 -0.13268362 0.015973182
0001b0 da 84 10 3e 35 9e a0 bd ef 15 c3 3d a2 62 eb 3d
       0.14113179 -0.078426756 0.09525668 0.11493422
0001c0 46 61 80 3d 67 6b 1f bd bb 33 6f 3d c9 a5 bf 3d
       0.062685534 -0.038920786 0.058398943 0.09357793
0001d0 88 df 4b 3d fa 52 a1 3d 1f 0f a6 3d a9 fb d5 bd
       0.049773723 0.07877155 0.08108353 -0.10448391
0001e0 ef b1 89 bd c9 c9 0d bd cc ee 30 3e 50 08 13 3e
       -0.06723391 -0.034616265 0.17278594 0.1435864
0001f0 79 31 1f 3e a1 71 7c 3c 9b ee 2f 3d ff e2 17 3e
       0.15546216 0.015407951 0.04295216 0.14832686
000200 be f6 65 bc bf 36 05 bd 6d d8 5c bd 54 4a 92 3d
       -0.014035879 -0.032522913 -0.053917337 0.07143083
000210 34 48 3b 3d 2f 39 fb 3b 5f 23 1a 3d a6 76 45 3e
       0.045723155 0.007666729 0.03763139 0.19283542
000220 ff a9 8b 3d 1f e7 cb 3d 15 b8 af bd a1 0e b1 bd
       0.068195336 0.09956192 -0.08580033 -0.08645368
000230 fc 71 2e 3e b6 39 3f 3d 24 cf 7b bc 83 72 df bd
       0.17035669 0.046685897 -0.01536921 -0.10910513
000240 7e 54 40 3c d6 3b f0 bd c2 ff 7f 3e dd 43 b2 3c
       0.0117388945 -0.11730163 0.24999908 0.021760875
000250 ef e7 09 bd c5 7b eb 3d 55 72 0d 3e 0a f0 8f bd
       -0.033668455 0.114982165 0.13813145 -0.07028206
000260 69 57 95 bc 4b 7f 11 3e ab 10 bb 39 b6 6b c0 3c
       -0.018230157 0.14208715 0.00035679838 0.02348886
000270 3c 79 fa bd 04 c0 ba bc 51 ea 11 bd ce ec 94 bc
       -0.12230155 -0.022796638 -0.035623852 -0.018179324
000280 95 05 8e 3d 9d e1 c0 bd 80 f4 3b 3d 50 d3 b2 bd
       0.069346584 -0.09418032 0.04588747 -0.08731711
000290 3e 07 d3 bc 96 6d 75 bd 34 92 7f 3d 1d 92 0e 3d
       -0.02576029 -0.059918962 0.06239529 0.034807313
0002a0 3f f0 ba bd 16 ae dc 3d 1f 0e a7 bd 7b ab 49 bc
       -0.091278546 0.10775392 -0.0815699 -0.012308951
0002b0 4f b0 a9 bd f2 3a 15 bd 0c dc 43 bc cd bb 0f bd
       -0.08285581 -0.036433168 -0.011954319 -0.03509121
0002c0 dd d5 cb 3c 50 f1 00 bd c5 ab d4 3d e2 c6 25 be
       0.024882251 -0.031480134 0.10384325 -0.16189149
0002d0 0d 69 1e 3d 8f 25 55 3d 8e 5a d5 3d 90 fb fc bc
       0.038674403 0.05203777 0.104176626 -0.030881673
0002e0 66 ce 08 be 72 80 31 3e 8c 95 56 3c 14 f2 99 3d
       -0.13359985 0.17334154 0.013097178 0.07516876
0002f0 1d 72 10 3e a8 be 20 3d 1e 43 8b 3d ad 87 c3 bd
       0.14106031 0.039244324 0.06799911 -0.095473625
000300 14 f0 01 bd 14 d8 a4 3d 0e fe 8d bd 77 72 9d bd
       -0.031723097 0.08049026 -0.06933223 -0.07687848
000310 53 7c 3a 3e ad 50 c9 bd 30 38 ed 3d 48 6f f5 3b
       0.18211488 -0.09829841 0.115829825 0.0074900724
000320 1c 5e 67 bd bc 18 1b be 62 d7 0e be 95 af 0a be
       -0.056486234 -0.15146154 -0.1394935 -0.13543542
000330 61 56 a7 bd e6 ad 8b bc 26 40 db bd 33 21 02 be
       -0.08170772 -0.017050695 -0.10705595 -0.12707977
000340 61 a2 f1 bc 07 80 67 3d 60 67 b3 3c 02 22 fb bd
       -0.029496374 0.05651858 0.021899879 -0.12262346
000350 d7 d3 1c bd 57 c5 07 be b2 fa af bc 47 f4 c3 bc
       -0.038287964 -0.13258873 -0.021481846 -0.023920191
000360 7e b5 a1 3b 4a 34 a6 3d d7 6b 0e bb af bc 6d bb
       0.0049349656 0.08115442 -0.0021731758 -0.0036275794
000370 6e 0b f0 3d 02 b5 2e bd 6b 26 82 bd e3 39 a0 bd
       0.1172093 -0.04265309 -0.06354984 -0.07823541
000380 d3 73 f6 3d ca 52 79 bd fc 32 e2 bd 9b e1 31 3c
       0.120338105 -0.06086997 -0.11044881 0.010857011
000390 61 5c f5 3d 11 c1 f3 bc ff 22 e3 bd a8 df f8 bd
       0.119805105 -0.029755147 -0.11090659 -0.12152034
0003a0 f0 13 0d 3e 2f c4 c9 bc b3 be e5 bc 1c c1 0c be
       0.13777137 -0.02462968 -0.028045034 -0.1374554
0003b0 84 68 2b 3d 1c 72 dc bd ab bb c0 bd ad e6 d7 bb
       0.04184772 -0.10763952 -0.09410795 -0.006588778
0003c0 c4 89 f1 3b ce 1c 66 bd 96 bf 4d be 3d 9b 3a 3d
       0.0073711593 -0.056179814 -0.20092615 0.045558203
0003d0 0a 66 00 3e 56 75 02 3e 32 d6 07 be 98 2c ea bc
       0.12538925 0.12740073 -0.13265303 -0.028585717
0003e0 7f f0 05 3e cf 7a a2 bd 41 75 0f be ae 35 8a 3d
       0.13080023 -0.0793358 -0.14009573 0.0674852
0003f0 74 6f d2 3d a8 85 61 3d c0 7e c1 bd 0e fa aa 3d
       0.10275164 0.055059105 -0.09448004 0.083484754

linear2.bias f4 [50]
000000 68 0f 3e be e8 a1 91 3d 3e 1a 81 3d 5d 0e 0f 3e
       -0.18560565 0.07110959 0.063038334 0.13970323
000010 f9 c2 d5 bd 7f 02 34 3d f0 8b f0 bd 87 84 1c 3d
       -0.10437579 0.043947693 -0.11745441 0.038212325
000020 60 68 a3 bd fc 9a af 3d 51 e3 fb 3d 53 1c 91 bd
       -0.07978892 0.08574483 0.122992165 -0.070854805
000030 67 77 36 be 2e d1 2e be de e2 21 bd fa ea 64 bd
       -0.17818986 -0.17071983 -0.039522998 -0.055888154
000040 8f 98 d9 3d c8 bf 2c 3d a3 93 3a 3b a3 2e 1b 3d
       0.10624801 0.042175084 0.0028469346 0.037886273
000050 6d cc 02 bd f3 7f 2f bc fb fe 36 3e 69 25 1f bd
       -0.031933237 -0.010711658 0.17870705 -0.038854036
000060 70 57 3e 3d 34 4c 95 3d 20 b3 76 3c f7 47 eb 3d
       0.046470106 0.07289925 0.015057355 0.114883356
000070 b5 21 c4 3d 2c 23 76 bd fb 48 8e 3d aa d5 a9 3d
       0.095767416 -0.060092136 0.06947514 0.08292706
000080 a9 00 fe 3c 22 0d fa bc 54 07 31 be c1 ca 83 bd
       0.031006174 -0.03052384 -0.17287952 -0.064351566
000090 1b c1 24 be 72 93 91 bd 80 4b ed 3d fd ae bc bc
       -0.16089289 -0.07108201 0.11586666 -0.02303266
0000a0 32 a6 dc 3d 6b b0 f4 3c 65 29 96 bd 0d 08 81 3d
       0.10773887 0.029869279 -0.07332114 0.06300364
0000b0 e3 16 ea 3b 25 cd 22 bd 03 56 71 bd 6e 10 c6 bd
       0.0071438416 -0.039746422 -0.058919918 -0.096711025
0000c0 1c 1b b2 bd ed ec ec bd
       -0.08696577 -0.115686275

linear3.weight f4 [2, 50]
000000 c2 a7 03 be 32 41 42 bc d1 c2 84 3d 79 45 ae 3d
       -0.12856963 -0.011856364 0.06482471 0.085093446
000010 b0 36 4d 3d 41 ca ed 3c c9 05 9c bc 39 36 b1 3d
       0.050100982 0.029027106 -0.019045727 0.0865292
000020 e8 0a 75 bc 4b 05 f9 3d 56 b3 d4 3d 3d b8 3f 3c
       -0.0149562135 0.12159213 0.10385768 0.011701641
000030 93 11 f7 bd 6e e8 0c be d0 33 a6 bb bf 56 5d 3d
       -0.12063899 -0.1376054 -0.0050720945 0.054037806
000040 6d 3a dc 3d 2d 77 83 3d 77 69 7c bd 3c 2c 8f 3d
       0.10753331 0.06419215 -0.061624017 0.06990859
000050 08 fa af bd 83 ab e9 bd 3c d4 0f 3d 86 f3 0b 3e
       -0.085926116 -0.114096664 0.03511451 0.13667116
000060 10 6b e4 3d 81 85 8b 3d c4 e8 ab 3d 97 25 b7 3d
       0.11153233 0.06812573 0.08394006 0.089427166
000070 3d 55 cd 3d 86 b9 0d be f9 14 06 3e d7 e3 b8 3d
       0.100260235 -0.13840303 0.13093938 0.09027832
000080 17 ab 31 bc 8d 93 df bd b9 6c 01 be 1a a7 e3 3d
       -0.010844014 -0.10916815 -0.1263913 0.111158565
000090 65 99 8d 3c b9 62 bf bd af e5 ac bd 88 91 32 3d
       0.017285058 -0.09345002 -0.08442246 0.04359582
0000a0 c1 24 09 3e b0 26 9c 3d 36 e7 a9 3d 80 fd c2 3d
       0.13392927 0.076245666 0.08296053 0.095210075
0000b0 93 2b cf bd 34 21 a1 bd 5d 37 c4 bd 02 58 a1 3d
       -0.10115733 -0.07867661 -0.09580872 0.07878114
0000c0 bd ec 10 be cf 12 69 bd d8 66 64 3d 6b 3d 3e bc
       -0.14152808 -0.056902703 0.055762142 -0.011611323
0000d0 94 1a f4 bd 2c a5 2f bd 8e d1 bf 3d 28 d3 12 3d
       -0.11919132 -0.04288213 0.09366141 0.035845906
0000e0 16 f1 b5 3d 6a 2d d8 bc 46 10 14 3e 25 57 8f ba
       0.08883874 -0.026388843 0.14459333 -0.0010936005
0000f0 4d 8d 03 3d b0 df 82 bd b5 b4 ff bb 45 52 68 bd
       0.032117177 -0.06390321 -0.0078035244 -0.056719083
000100 55 f8 6b 3d 20 ff bf bd 81 75 a5 bd d6 43 ec bc
       0.057609875 -0.09374833 -0.08079053 -0.02884094
000110 8e 3b 0a 3d 64 3a 9c 3d 6a e3 86 3d 4b 6a db 3d
       0.033748202 0.07628325 0.065863445 0.10713633
000120 ba 84 be bd ff a5 0f 3e 66 55 98 3c fa 6c 14 bd
       -0.09302659 0.14028166 0.018595409 -0.03623674
000130 10 7a e6 3d d6 6c 0e be aa 93 01 be e6 0c 34 3b
       0.1125375 -0.13908705 -0.12653986 0.0027473508
000140 74 a4 11 3d f2 6e 03 be 46 79 a8 3d fc 96 b5 3d
       0.035557225 -0.12835291 0.08226256 0.088666886
000150 b6 76 c9 3c 30 30 24 be 2e f2 e1 3d ec ec d8 3d
       0.024592739 -0.16034007 0.1103252 0.10592064
000160 e0 d5 ba 3b fd 0e e2 bd f9 c5 35 bd e1 6f a8 bd
       0.0057017654 -0.11038015 -0.044378255 -0.08224464
000170 d3 63 a0 3d 6e b4 5f bc d6 9b 5e 3c 55 08 22 bd
       0.0783154 -0.013653858 0.013586959 -0.039558727
000180 0f 58 f2 bb 2b ad fc 3d d9 8e e8 bc fe 7a 12 3e
       -0.0073957513 0.12337717 -0.028388428 0.1430473

linear3.bias f4 [2]
000000 d4 b6 36 3d 06 ee 09 be
       0.044607952 -0.13469705
