checkpoints/origin/2020-11-16T11-33-21-16-classify/classify_fold0_origin_0.948462.pth (torch, 14565 bytes, 6 tensors)

linear1.weight f4 [50, 6]
000000 c5 f1 dd 3d 83 a3 9f 3e 88 23 8d be a0 10 7a 3e
       0.108371295 0.31179437 -0.2756617 0.24420404
000010 a4 12 f2 3d e3 40 28 3e 4b fa bc bd b5 e0 81 3d
       0.11819962 0.16431002 -0.09227427 0.063416876
000020 61 fe 9e bb 2c 73 2a be 39 5b 91 3e d2 6a 8f 3d
       -0.0048521017 -0.16645497 0.2838991 0.07002796
000030 0f cb 67 bd 6a 2c c0 3b 07 a3 81 be d7 5d 0e 3e
       -0.056590136 0.0058646696 -0.25319692 0.13902985
000040 8a 4a 93 be 77 d0 b8 3e b9 67 e7 3e 55 b6 b3 be
       -0.28767806 0.36096546 0.45196322 -0.35100046
000050 99 17 9e be f5 44 a3 be 7a ad 16 bc a7 97 1e be
       -0.3087738 -0.31888548 -0.0091966335 -0.15487538
000060 98 b8 a1 be 35 15 03 3e 80 41 88 be ea 10 40 3e
       -0.31586146 0.12801059 -0.26612473 0.18756452
000070 6c fa a2 3e 91 b1 55 be db b5 bd bd 54 58 54 be
       0.31831682 -0.20868517 -0.09263202 -0.2073682
000080 7e 2b 92 be 67 ff cc 3c 58 ae bd be 0c 5d b9 be
       -0.28548807 0.02502413 -0.37047076 -0.36203802
000090 c3 ee 92 be da df 23 be a4 d2 2a bd 75 32 cd 3d
       -0.28697786 -0.16003361 -0.04170479 0.100193895
0000a0 26 f2 ce 3e 3b c9 cd be 36 10 1f 3e 4f 4b 48 be
       0.4041912 -0.4019259 0.15533528 -0.19559978
0000b0 ef df 27 be 75 ab 96 be ec b8 97 3e dd 21 e8 bd
       -0.16394018 -0.29427686 0.29633272 -0.11334584
0000c0 08 bf 37 3e 05 81 bf bc 4b 53 28 3e ea 87 4e bd
       0.17943966 -0.023376951 0.16438024 -0.050422587
0000d0 d9 b5 8e 3e e1 ab 64 3d 7e 4a df bd 6b bd a6 be
       0.27873114 0.05582798 -0.1090288 -0.3256639
0000e0 c3 85 91 3e 49 f8 2f 3c 55 3b 98 be 97 4e ad 3d
       0.28422365 0.010740348 -0.29732767 0.084622554
0000f0 26 43 8a 3e f0 a0 dd bc 74 03 40 be b1 f3 b5 be
       0.27004355 -0.02705428 -0.18751317 -0.35537484
000100 ce 53 b4 be 72 fc 16 3e 94 32 38 3e 12 f9 43 be
       -0.35220188 0.14744738 0.17988044 -0.19137982
000110 df 0f 10 3d 05 64 bd 3e 22 f9 b0 3e eb 3c b8 3e
       0.035171386 0.3699037 0.34565073 0.35983977
000120 01 d5 18 be 0b e7 bf 3e 9a 63 3f be 2e 22 8f be
       -0.14925005 0.3748096 -0.18690339 -0.27955765
000130 27 b1 ce bd 4a 2a e0 bd a2 d1 b2 be 19 4d 3f 3e
       -0.10092383 -0.10945566 -0.34925562 0.18681754
000140 75 32 4d bd 30 a1 c5 bd 6a 5c 19 3c 41 7e 8a be
       -0.050096948 -0.09649885 0.009360412 -0.2704945
000150 8b 68 4f 3d 7d 7a b4 3e 05 71 9d be bb bd fe 3d
       0.05063681 0.352497 -0.3075029 0.12438532
000160 22 7b 72 3e 8f cc f8 3d 7b a8 a4 3d 8d b6 c2 be
       0.23679784 0.121483915 0.080399476 -0.380299
000170 fd 38 60 be 6d 93 78 be 98 22 9f 3e 75 7a c3 be
       -0.2189674 -0.24274988 0.3108108 -0.38179365
000180 5a d1 9a 3e 38 ac 93 be bb c1 44 3e 9e 05 8d be
       0.30237848 -0.2884233 0.19214527 -0.27543348
000190 9e 17 6a be 87 4f 75 3d 6b 24 bd 3e 96 6a d7 3d
       -0.22860572 0.059890296 0.36941847 0.105183765
0001a0 19 c5 83 be c4 19 b9 be 68 ba 13 3e 92 37 6e 3e
       -0.2573631 -0.3615247 0.14426577 0.23263386
0001b0 d4 b2 3a be 20 16 bc 3e fd 47 c1 be f6 a4 23 bd
       -0.1823228 0.3673563 -0.37750235 -0.03995224
0001c0 66 dd 68 3e 4c 91 a0 3b 0a 9f 96 be 6c 1a 24 be
       0.22740707 0.0049001332 -0.29418212 -0.16025704
0001d0 0e 6f 45 be 89 16 ab 3d 8e 29 75 3e 8a 4a 8b be
       -0.19280645 0.083539076 0.23941633 -0.27205306
0001e0 eb c0 0c be 13 4d aa 3e 61 39 8d bd 61 9f b0 3e
       -0.13745467 0.33261928 -0.0689571 0.34496596
0001f0 84 fc 03 3e 9c 0c f3 bc d8 6a 92 3e 3a a9 8b be
       0.12889296 -0.029669099 0.2859714 -0.27277547
000200 78 0c 82 3e b3 88 ef bd 6c ab 48 be 21 96 af 3e
       0.25400138 -0.11695995 -0.19596642 0.34294227
000210 44 df 69 3e fa 90 40 3e ee a3 28 be 2e 35 a5 be
       0.22839075 0.18805304 -0.16468784 -0.32267135
000220 fc 75 c4 3e f8 21 5d 3e 08 ec a2 3d c5 68 67 bc
       0.38371265 0.2159499 0.07955176 -0.0141241
000230 60 5d 33 be c3 8e 8f be 29 ff 78 be ca 70 6b be
       -0.17516088 -0.28038606 -0.24316086 -0.22992244
000240 ef 8d 7b 3e 0d ef 8c 3d 8b 6a 90 bd 91 d3 bf 3c
       0.24565862 0.06881533 -0.070515715 0.023416312
000250 0d 3d 5c 3e 27 a2 98 be f6 88 ac be 78 5f 4e be
       0.21507664 -0.29811212 -0.33698243 -0.20153606
000260 e4 10 f4 3d 67 75 31 bd d1 a3 93 be 38 2c d4 3e
       0.11917284 -0.043324854 -0.2883592 0.41439986
000270 16 98 97 3e 2c 84 be be 90 94 01 3e b3 e5 ef bd
       0.2960822 -0.37210214 0.12654328 -0.117137335
000280 ec 51 b8 3e be 49 5e be 40 39 15 3e 98 20 48 3e
       0.36 -0.21707818 0.1457262 0.19543684
000290 08 ca f5 bd 9c af 3c 3d b2 d0 74 be 13 76 51 3d
       -0.12001425 0.04606591 -0.23907736 0.051137995
0002a0 15 85 94 be d4 b0 94 be 5a e1 92 be 03 d4 1a 3a
       -0.29007784 -0.2904116 -0.28687555 0.0005906226
0002b0 da 8e 9d 3e 7d 55 ce 3e d2 45 67 be f2 b6 0c 3e
       0.3077305 0.40299597 -0.22585228 0.13741663
0002c0 9e 82 6c 3d 8f 7a 2c 3c 4e 98 a5 be da cc 06 3e
       0.057741754 0.010527267 -0.32342762 0.13164082
0002d0 01 52 02 be 22 bb 85 3e 61 6e a2 3e 8e 6b b1 3d
       -0.12726595 0.26119334 0.31724837 0.086630926
0002e0 44 c2 d5 3e ed d3 45 be 6d ce 78 be cc 2c cc 3e
       0.41749775 -0.19319125 -0.24297495 0.39877927
0002f0 d0 21 79 3e dd cf 03 be 4d f6 56 bd f6 f4 29 be
       0.24329305 -0.12872262 -0.052480984 -0.16597351
000300 f6 69 c8 3e c3 a6 b6 bd c7 ea c4 3e 15 2c b9 be
       0.39143342 -0.08918526 0.3846037 -0.36166444
000310 76 6e a9 be 6d d6 87 be bc d4 76 3e 39 f7 a4 3e
       -0.33092088 -0.2653078 0.24104589 0.32219866
000320 2a a6 ca bd 04 ef 0e be 11 cb 75 3e a2 ab b1 3e
       -0.098949745 -0.13958365 0.24003245 0.34701258
000330 86 22 c7 be 11 a9 75 3e b5 6c 73 3e 13 60 09 3d
       -0.38893527 0.23990275 0.23771937 0.03353889
000340 77 b2 c2 3d 3c f5 87 3e 4d b8 92 3e 7d 99 d5 3b
       0.09506696 0.26554286 0.28656235 0.0065185414
000350 86 71 52 be 0c 97 90 3e 22 4f 05 bb d2 80 65 be
       -0.20551118 0.2824024 -0.0020341356 -0.22412422
000360 46 fe 78 3d 45 87 b3 be df 34 95 3e 2b 1f 6d 3e
       0.06078937 -0.3506414 0.291419 0.23156421
000370 2a 26 c6 3e 85 66 ed 3d 1e 95 8f 3e 5d 88 3d 3d
       0.38700992 0.1159182 0.28043455 0.046272624
000380 1a 87 d0 bc 79 a0 a4 be 94 5d 78 be d7 b9 f9 bd
       -0.025455046 -0.3215368 -0.24254447 -0.12193649
000390 f0 a0 9b bc e8 eb a7 bd 99 f8 1c be d3 fd 27 3e
       -0.01899764 -0.081992924 -0.15329207 0.1640542
0003a0 9f c0 9d 3e c9 3f 7f be b3 d7 93 3e 48 ce 88 3e
       0.3081102 -0.24926676 0.28875503 0.2671988
0003b0 da 13 c9 3c 37 17 c5 be 6a 00 69 3e 48 0b ca 3e
       0.024545599 -0.38494274 0.22754064 0.39461732
0003c0 76 fe c7 3e f2 c1 f9 3d fd 03 53 bd 5a cf b7 be
       0.39061326 0.12195195 -0.051517475 -0.35900384
0003d0 03 d5 b3 bc dc 31 e7 3d 8c 72 c6 be 18 5b 8f be
       -0.021952158 0.11288807 -0.38759267 -0.27999187
0003e0 85 2e ac bd a6 f4 ab 3d 07 0b 8e 3e 76 4d bf 3e
       -0.084073104 0.08396272 0.27742788 0.37363786
0003f0 64 36 ed 3c 55 20 89 3e f9 e3 88 be ce 54 1f 3e
       0.0289566 0.2678248 -0.2673643 0.15559694

linear1.bias f4 [50]
000000 7a b3 c0 be 10 17 89 3b cc a7 54 be fe d4 97 bc
       -0.3763693 0.0041836575 -0.20767134 -0.01853418
000010 5b 53 85 be 84 8d 99 be 41 13 5e 3e 0a d8 a0 3e
       -0.26040158 -0.2999078 0.21687032 0.31414825
000020 75 e2 97 3c 0c c4 99 be 9a 42 57 bd bb fa 6d 3e
       0.0185406 -0.30032384 -0.05255375 0.23240177
000030 f7 75 b9 3e 8c 48 bc be ba f6 6c be 38 04 cd be
       0.36222813 -0.367741 -0.23140994 -0.4004228
000040 48 26 9b be fc c8 bb 3e 0e 1e 83 be 21 f0 7a 3e
       -0.30302644 0.36676776 -0.25608867 0.24505664
000050 15 0b 08 be 03 d2 d7 be 18 48 7d bd 8a 34 87 3e
       -0.13285477 -0.42152414 -0.061836332 0.26407272
000060 62 95 d9 3e c8 f8 db be 5d 6a ef bc e6 d4 66 3e
       0.42496783 -0.42963243 -0.029225523 0.22542152
000070 ec dd 96 3e 84 bf 9f be 8a 43 1d 3d a0 63 69 3e
       0.29466188 -0.31200802 0.03839449 0.2279191
000080 21 d9 bb be bd e6 74 bb 41 35 b5 be 99 a9 1d 3d
       -0.36689094 -0.0037368976 -0.35392192 0.03849182
000090 50 ee 5d 3e e9 91 7f be f8 4c 9d 3e c7 01 ee 3d
       0.2167294 -0.24958004 0.30722785 0.11621433
0000a0 47 8e 94 3e b2 6d 08 3d f6 d1 57 3e 6f b3 8d 3e
       0.290148 0.03330774 0.21076187 0.2767596
0000b0 9b 37 60 3e b4 9d 80 be 4a bb 8a be 20 23 47 be
       0.21896212 -0.25120318 -0.27096015 -0.19446993
0000c0 91 72 91 3e 16 3d 88 be
       0.2840772 -0.26609105

linear2.weight f4 [50, 50]
000000 b5 81 9f 3d 3a 19 95 3c 5e b9 22 bd 3b f8 80 3d
       0.077884115 0.018200506 -0.03972756 0.06297346
000010 da f6 96 3d 11 81 02 3d 57 f5 03 bd 67 79 53 3c
       0.07371302 0.03186137 -0.032216396 0.012907363
000020 9b 65 d0 bd 31 86 31 3d 17 94 44 3d 26 aa 81 bc
       -0.1017563 0.043340866 0.047992792 -0.015828203
000030 15 14 e5 3d b4 a9 b3 3d 9e 34 c2 bd 8b 5f d2 bd
       0.11185471 0.08772603 -0.09482692 -0.102721296
000040 80 c6 28 bd 85 67 d5 3d 48 0f 7c 3d fa 7d dd bc
       -0.04120493 0.104201354 0.06153801 -0.02703761
000050 ca a7 65 bd 23 3b f6 3d 2f bf b0 3d e7 3f f0 3d
       -0.05606822 0.12022998 0.086302154 0.117309384
000060 bb a1 90 bd b1 a1 df 3d 43 1b ec 3d 50 bd 67 3d
       -0.07062098 0.10919512 0.11528637 0.056577027
000070 6a ee 87 bd 14 5d b3 3d 3a 8b d3 bd 26 94 1e 3e
       -0.06637271 0.087579876 -0.1032929 0.15486202
000080 b0 88 d9 3c 54 64 de bd 34 b1 81 3d 50 8b ef 3d
       0.026554435 -0.1085898 0.06332627 0.116964936
000090 bb 84 7d bc a6 a9 15 be ba ca ba bd e8 d1 85 bd
       -0.01547354 -0.14615497 -0.09120698 -0.06534177
0000a0 c1 21 b3 bd 51 31 89 3d 62 e9 a9 3d 02 8c d5 3d
       -0.087466724 0.066988595 0.08296467 0.10427095
0000b0 2d 2f e5 3d fb a3 51 bd 2d 4a d8 bd 99 0c b8 3d
       0.11190639 -0.051181775 -0.10561023 0.08986778
0000c0 98 e3 05 be 39 3e 80 3d a0 3d 56 bd dd 05 0d be
       -0.13075101 0.06261868 -0.052304864 -0.13771768
0000d0 e6 94 3b bd a6 6a ac bd d9 f9 a2 3d d1 f5 ba bd
       -0.045796297 -0.08418779 0.07957811 -0.09128917
0000e0 19 4a ea 3d fd 2d 2b 3d 3f 07 ba bd 5b f8 df 3d
       0.11439914 0.041791905 -0.09083413 0.10936042
0000f0 6d cd 8c 3d 68 11 d5 bd 3e b0 0a be ac e0 03 bd
       0.06875119 -0.104037106 -0.13543794 -0.032196686
000100 e1 13 da bd 00 a2 6e 3c 98 2f dd bc 47 71 af bd
       -0.10648323 0.014564991 -0.027000234 -0.08566528
000110 cb f2 af 3d bb ad 15 bd 86 29 af 3d 1f 51 8e bd
       0.08591231 -0.036542635 0.08552842 -0.06949066
000120 0e 06 02 be 31 67 83 bc 69 a0 0e 3e 26 d1 7e 3b
       -0.12697622 -0.016040416 0.13928379 0.0038881986
000130 3a 37 0c be cf 2e 8d bc ab 3d e2 3d ae ad fd 3c
       -0.13692942 -0.017234234 0.110469185 0.030966606
000140 8e 71 f6 3d 9b 5d 94 bd b2 27 e3 bd 77 6d 6a 3d
       0.120333776 -0.07244416 -0.11091556 0.0572333
000150 e8 85 fc bd d1 83 93 bc 4c ee 0c 3e 2e 2b 81 3c
       -0.12330228 -0.01800719 0.13762778 0.01576766
000160 e7 a4 c9 bd 68 70 94 3d 0b c0 55 bd 78 02 eb bd
       -0.09845906 0.07248002 -0.0521851 -0.1147508
000170 98 47 65 bc 59 3b bf bd ed 72 68 bc c2 17 fb bc
       -0.01399412 -0.093374915 -0.014187557 -0.030650977
000180 16 81 a8 3c 11 72 98 3d 8a b8 c0 bb b5 02 d4 3d
       0.020569365 0.074436314 -0.005881374 0.10352079
000190 18 63 e3 3c 95 d0 b0 bc 6c 23 eb bd ea 53 15 bd
       0.027757213 -0.021583835 -0.114813656 -0.03645698
0001a0 74 84 cc ba 38 af c7 3d 37 de 07 be 59 40 e4 3b
       -0.0015603439 0.09750217 -0.13268362 0.0069656787
0001b0 9a ac 14 3e 40 cf 99 bd 9d 7d b9 3d e3 7c e1 3d
       0.14518967 -0.07510233 0.09057162 0.110101484
0001c0 36 8b 22 3d 4f 99 8e bd f3 60 d2 3c c9 a5 bf 3d
       0.039683543 -0.06962835 0.025680995 0.09357793
0001d0 0b 29 42 3d 5d 0a c9 3d 1f 0f a6 3d a9 fb d5 bd
       0.047402423 0.0981643 0.08108353 -0.10448391
0001e0 cc da a0 bd cd c1 06 bd 02 1d 2a 3e 5f 06 13 3e
       -0.07854232 -0.032899667 0.16612628 0.14357899
0001f0 32 fc 19 3e 27 fc b8 3c 6e 15 f6 3c bc 20 10 3e
       0.15037611 0.022581173 0.030039515 0.14074987
000200 be f6 65 bc 25 93 8e bc e7 7b 3c bd 48 8f a0 3d
       -0.014035879 -0.017404148 -0.0460166 0.07839829
000210 ec 42 54 3d 9c 1a be 3a 22 48 47 3d a5 4b 3f 3e
       0.051821634 0.001450378 0.048652776 0.186812
000220 92 01 89 3d fa 72 d1 3d 71 dc bb bd e9 34 a6 bd
       0.06689753 0.10227008 -0.09172905 -0.081155606
000230 f4 0f 2b 3e b6 39 3f 3d 35 4e c4 bc f1 c6 db bd
       0.16705304 0.046685897 -0.023963073 -0.107313044
000240 2a 8c 79 3c 00 82 e4 bd 25 d3 54 3e 94 da ec 3c
       0.015231172 -0.11157608 0.2078367 0.02891282
000250 6c ae d5 bc 59 d3 f0 3d bf 46 0a 3e 7d 0b 73 bd
       -0.026084147 0.11759061 0.1350355 -0.059337128
000260 d0 e8 c5 bc 4c dc ef 3d ab 10 bb 39 b6 6b c0 3c
       -0.024158865 0.1171194 0.00035679838 0.02348886
000270 3c 79 fa bd 44 f0 f5 bc db 22 24 bd 86 58 f0 bc
       -0.12230155 -0.030021794 -0.040072303 -0.029339086
000280 84 2e 88 3d fb 43 d8 bd 59 19 6b 3d f1 f7 ad bd
       0.06649497 -0.10559841 0.05739722 -0.08494557
000290 d6 bd 77 bc 96 6d 75 bd 5b f3 44 3d 31 67 3f 3d
       -0.015120944 -0.059918962 0.048083644 0.04672927
0002a0 3f f0 ba bd 16 ae dc 3d fa 14 a0 bd c4 0b cc bc
       -0.091278546 0.10775392 -0.07816501 -0.024907954
0002b0 9d 70 7e bd 11 42 15 bd 1d 52 11 bc 3a 7a 20 bd
       -0.062119115 -0.03643996 -0.008869675 -0.039179064
0002c0 d7 07 25 3b 8a 8c e5 bc c5 ab d4 3d c6 94 05 be
       0.0025181675 -0.028021116 0.10384325 -0.13045034
0002d0 90 26 35 3d d4 56 81 3d 44 01 cc 3d 15 20 ab bc
       0.04422623 0.06315389 0.09961179 -0.020889321
0002e0 cc 9b 00 be 64 3c 2b 3e c4 b1 ac b9 94 af a5 3d
       -0.12559432 0.16722256 -0.00032938842 0.080901295
0002f0 f5 5f 0a 3e 8d 7d 47 3d 13 7a 9e 3d ad 87 c3 bd
       0.13513167 0.04870372 0.077381276 -0.095473625
000300 4b 59 1a bd cf 50 9f 3d 8f 55 8d bd 1c 3d 9a bd
       -0.037682813 0.07779085 -0.06901085 -0.07531187
000310 ec 0d 12 3e 39 78 af bd 61 86 ef 3d 6d 11 5c 3c
       0.14263123 -0.085678525 0.116955526 0.013431889
000320 a5 89 36 bd c5 c7 17 be 62 d7 0e be 68 55 fc bd
       -0.04456486 -0.148223 -0.1394935 -0.123209774
000330 61 56 a7 bd e6 ad 8b bc 26 40 db bd df 20 02 be
       -0.08170772 -0.017050695 -0.10705595 -0.12707852
000340 9a 27 fa bc 63 52 6f 3d 6e 33 b4 3c 2f 78 f0 bd
       -0.030536462 0.05842818 0.02199718 -0.11741673
000350 b2 15 20 bc a1 85 91 bd 84 84 fd 3c 47 f4 c3 bc
       -0.009770798 -0.07105566 0.030946977 -0.023920191
000360 f2 c6 2a 3c 3a a9 a1 3d d7 6b 0e bb af bc 6d bb
       0.010423409 0.078936055 -0.0021731758 -0.0036275794
000370 e3 40 fd 3d 07 74 26 bd d6 31 ac bd e3 39 a0 bd
       0.12365892 -0.040637996 -0.08407943 -0.07823541
000380 00 d2 9e 3d fb 2f 70 bd 16 3e d3 bd d0 6b 13 3c
       0.07754898 -0.058639508 -0.10314576 0.0089978725
000390 61 5c f5 3d cc 16 32 bd 58 29 ee bd d3 2e 04 be
       0.119805105 -0.043478772 -0.116289794 -0.12908487
0003a0 dd 69 0c 3e 66 8a db bc b8 c0 04 bd df a1 0c be
       0.13712259 -0.026799392 -0.032410353 -0.13733624
0003b0 5e fb 32 3d 68 9d ee bd ab bb c0 bd 49 04 f7 bb
       0.043696754 -0.116511166 -0.09410795 -0.0075383526
0003c0 2a 5e 0b 3c ce 1c 66 bd c3 42 14 be 2f d0 26 3d
       0.008506337 -0.056179814 -0.14478593 0.040725883
0003d0 d4 bf f4 3d 34 4d ff 3d 72 8a ce bd 76 04 1c bd
       0.11950651 0.12465897 -0.10085 -0.03809019
0003e0 e6 3a 01 3e bc 1e ae bd bf 1d 07 be 00 47 9d 3d
       0.12620124 -0.08501956 -0.13194941 0.07679558
0003f0 74 6f d2 3d 9f 1b 58 3d c0 7e c1 bd 0e fa aa 3d
       0.10275164 0.052760717 -0.09448004 0.083484754

linear2.bias f4 [50]
000000 d7 1b 08 be e8 a1 91 3d ea f9 42 3d 39 3f 10 3e
       -0.1329187 0.07110959 0.047601618 0.14086618
000010 24 20 e5 bd 0f aa 32 3d 12 6c e4 bd 22 e5 c9 3c
       -0.11187771 0.04361921 -0.11153425 0.024645392
000020 9b 79 8c bd 7d 31 9a 3d b8 fd f9 3d 53 1c 91 bd
       -0.06859132 0.075289704 0.12206596 -0.070854805
000030 16 69 22 be f9 66 0e be de e2 21 bd 44 f8 8d bd
       -0.158604 -0.13906468 -0.039522998 -0.069321185
000040 e5 ab bd 3d 30 22 d4 3c 0a 8d 5d 3b 92 d9 2c 3d
       0.09261302 0.025895208 0.003380599 0.04219968
000050 b8 14 fa 3b a8 c8 1d bc db 72 29 3e 69 25 1f bd
       0.0076318644 -0.00963036 0.1654772 -0.038854036
000060 f9 e5 ff 3c 4b 78 6f 3d 00 0c 8e 3c c3 7b 02 3e
       0.03123759 0.05846433 0.017339706 0.12742524
000070 11 3f a8 3d 2c 23 76 bd fb 48 8e 3d aa d5 a9 3d
       0.08215154 -0.060092136 0.06947514 0.08292706
000080 a9 00 fe 3c 55 ae 77 bc ac 77 20 be 81 4b 9b bd
       0.031006174 -0.015117248 -0.15670651 -0.075827606
000090 59 75 1b be ac 5f e9 bc 80 4b ed 3d b7 36 1c bd
       -0.15181483 -0.028488003 0.11586666 -0.038138118
0000a0 4f 05 bf 3d 09 6c a0 3c 23 29 af bd ab 39 a4 3d
       0.093271844 0.019582765 -0.08552768 0.08018812
0000b0 3a a5 cf 3c bb 0d ae bc 7c c8 2b bd 6e 10 c6 bd
       0.02534734 -0.021246782 -0.041939244 -0.096711025
0000c0 dc 0a 72 bd c1 82 cf bd
       -0.059092388 -0.10132361

linear3.weight f4 [2, 50]
000000 f3 5c 08 be 32 41 42 bc 36 7b 8a 3d cc c9 9a 3d
       -0.13316707 -0.011856364 0.06761782 0.07558021
000010 9e e1 74 3d 6a 1d fc 3c c9 05 9c bc 45 49 b8 3d
       0.059785478 0.030775744 -0.019045727 0.0899835
000020 20 a0 29 bc a2 fb f7 3d df 1e d4 3d 3d b8 3f 3c
       -0.010353118 0.12108542 0.10357451 0.011701641
000030 9c dd ff bd 9b 61 09 be d0 33 a6 bb ed 0c 60 3d
       -0.124934405 -0.1341614 -0.0050720945 0.054699827
000040 85 cf e6 3d fb 01 7f 3d 77 69 7c bd 05 f0 8e 3d
       0.1127005 0.062257748 -0.061624017 0.06979374
000050 00 8e ab bd 83 ab e9 bd 4c 57 19 3d 86 f3 0b 3e
       -0.08376694 -0.114096664 0.03743677 0.13667116
000060 4f 34 f2 3d fa 0c 9b 3d bd ab a8 3d 06 3f af 3d
       0.11826383 0.075708345 0.082358815 0.08556943
000070 bf 7d d4 3d 86 b9 0d be f9 14 06 3e d7 e3 b8 3d
       0.10375547 -0.13840303 0.13093938 0.09027832
000080 17 ab 31 bc 28 b4 ea bd 92 4e fc bd a2 30 dc 3d
       -0.010844014 -0.11460143 -0.123196736 0.107514635
000090 64 bc 96 3c 55 3a b6 bd af e5 ac bd e9 2b 5b 3d
       0.018400379 -0.08897845 -0.08442246 0.053508673
0000a0 15 e2 0b 3e 10 fb 9b 3d 77 92 a3 3d f5 e2 c3 3d
       0.13660462 0.07616246 0.0798692 0.09564773
0000b0 75 18 cd bd 33 c3 a7 bd 18 f4 c7 bd 02 58 a1 3d
       -0.100144304 -0.08191528 -0.09763354 0.07878114
0000c0 e5 cc 15 be 5c de 71 bd bb 73 73 3d 6b 3d 3e bc
       -0.14628942 -0.05904995 0.05943654 -0.011611323
0000d0 6b aa ec bd 08 8d 21 bd 49 66 a4 3d e6 4b 16 3d
       -0.11555942 -0.03944114 0.08027322 0.036693476
0000e0 72 15 c2 3d 77 6a 0b bd 24 41 0d 3e 40 a9 24 3c
       0.094767466 -0.03403708 0.1379438 0.010050118
0000f0 9e c6 1b 3d b0 df 82 bd b0 b8 40 bc 94 7a 83 bd
       0.038031213 -0.06390321 -0.011762783 -0.06419864
000100 55 f8 6b 3d e8 3f bd bd d9 e6 b5 bd f9 7e d0 bc
       0.057609875 -0.09240705 -0.08881921 -0.02545117
000110 b4 39 22 3d ea 91 a0 3d 63 86 77 3d 3a 8e e7 3d
       0.03960581 0.07840331 0.060430896 0.113064244
000120 21 62 b9 bd ff a5 0f 3e 77 1e b4 3c 58 e0 0e bd
       -0.0905192 0.14028166 0.021987183 -0.03488192
000130 8b 5f ec 3d 1f d9 08 be 6f e9 06 be e6 0c 34 3b
       0.11541661 -0.13364075 -0.13174985 0.0027473508
000140 74 a4 11 3d f2 6e 03 be 46 79 a8 3d 64 dc bd 3d
       0.035557225 -0.12835291 0.08226256 0.09270552
000150 eb 81 be 3c 4b 4a 1b be 0d 37 ec 3d 51 8d c4 3d
       0.02325531 -0.1516506 0.115339376 0.095972665
000160 a8 d5 ba 3b b3 9b dd bd 57 80 4d bd 34 03 92 bd
       0.0057017393 -0.10820713 -0.050171223 -0.07129517
000170 44 ee b5 3d 5e 81 0a bc fe 48 e7 3b 27 7b 1b bd
       0.08883336 -0.008453695 0.007058262 -0.037959244
000180 c8 0b c4 ba 2b ad fc 3d 9d d1 11 bd ee e5 0e 3e
       -0.0014957124 0.12337717 -0.035600293 0.13954899

linear3.bias f4 [2]
000000 fc 5c e7 3c d6 c7 fe bd
       0.02824258 -0.124404594
