checkpoints/origin/2020-11-16T11-33-21-16-classify/classify_fold0_origin_0.933077.pth (torch, 14565 bytes, 6 tensors)

linear1.weight f4 [50, 6]
000000 7e b5 f2 3d 7f 1f a2 3e 35 b3 87 be 0c 3e 83 3e
       0.11851023 0.31664655 -0.26503912 0.25633276
000010 66 64 f7 3d 6a 62 34 3e 0c 4d b8 bd 93 36 84 3d
       0.12079696 0.17615667 -0.089990705 0.06455722
000020 a2 0d 80 bb e4 40 28 be 3a 41 92 3e 51 53 91 3d
       -0.003907875 -0.16431004 0.2856539 0.070959695
000030 33 d7 48 bd 41 e0 5b 3c 18 89 7b be ce 1a 16 3e
       -0.049033355 0.0134201655 -0.24564016 0.14658663
000040 5e 6c 8f be f2 ae bc 3e 2f 01 e5 3e 25 e5 b5 be
       -0.28012365 0.36852223 0.44727466 -0.35526386
000050 ae f3 a0 be 6d 5f a5 be 50 e7 78 bc 66 fb 23 be
       -0.31435913 -0.32299367 -0.015191868 -0.1601387
000060 98 b8 a1 be 35 15 03 3e 80 41 88 be ea 10 40 3e
       -0.31586146 0.12801059 -0.26612473 0.18756452
000070 6c fa a2 3e 91 b1 55 be db b5 bd bd 54 58 54 be
       0.31831682 -0.20868517 -0.09263202 -0.2073682
000080 7e 2b 92 be 67 ff cc 3c 58 ae bd be 0c 5d b9 be
       -0.28548807 0.02502413 -0.37047076 -0.36203802
000090 c3 ee 92 be da df 23 be a4 d2 2a bd 75 32 cd 3d
       -0.28697786 -0.16003361 -0.04170479 0.100193895
0000a0 26 f2 ce 3e 3b c9 cd be 9d 5c 1f 3e ab 19 48 be
       0.4041912 -0.4019259 0.15562673 -0.19541042
0000b0 e2 9b 27 be 74 8e 96 be 43 f5 97 3e ad 8c e7 bd
       -0.16368058 -0.29405558 0.29679307 -0.11306129
0000c0 b8 ef 2e 3e f4 28 bd bc 89 b4 25 3e 92 2b 81 bd
       0.17083633 -0.023090817 0.1618215 -0.063071385
0000d0 e1 27 8c 3e cc 34 65 3d c2 df ec bd 22 19 a5 be
       0.27374175 0.055958554 -0.11566116 -0.32245737
0000e0 6d 23 91 3e b6 0c c2 3a 96 b9 97 be e1 4c a8 3d
       0.2834734 0.0014804814 -0.29633778 0.082177885
0000f0 26 46 8a 3e 4c 7c de bc 74 ff 3f be b6 f3 b5 be
       0.27006644 -0.027158879 -0.18749791 -0.355375
000100 db 42 b4 be b5 ff 16 3e 68 e9 3f 3e 2c b0 51 be
       -0.35207257 0.14745982 0.18741381 -0.2047736
000110 2e 57 18 3d 31 58 c2 3e 32 f5 b0 3e 6d 30 ba 3e
       0.037192516 0.3795791 0.3456207 0.3636507
000120 87 db 13 be 3c 06 c0 3e ce c3 3c be 62 b1 80 be
       -0.14439212 0.37504756 -0.18434069 -0.25135332
000130 12 29 d0 bd 8e 68 c9 bd 99 98 b4 be 43 cc 3a 3e
       -0.101640835 -0.09834395 -0.35272673 0.18241982
000140 b8 11 56 bd 8e 4e a3 bd 90 84 5a 3a b8 ed 88 be
       -0.05226299 -0.079739675 0.00083357934 -0.26743865
000150 61 68 21 3d 08 66 b2 3e 20 c6 9f be a2 5a 0e 3e
       0.039406184 0.3484347 -0.31205845 0.13901761
000160 d0 86 68 3e 83 45 f3 3d 7b a8 a4 3d 8d b6 c2 be
       0.22707677 0.11878493 0.080399476 -0.380299
000170 fd 38 60 be 6d 93 78 be 98 22 9f 3e 75 7a c3 be
       -0.2189674 -0.24274988 0.3108108 -0.38179365
000180 0e 22 9a 3e 6f e4 8c be 2d 8d 44 3e 56 34 8f be
       0.30104107 -0.2751803 0.1919448 -0.27969617
000190 ed 39 6a be 1c 08 7d 3d b0 2c bd 3e 93 29 dc 3d
       -0.2287366 0.06177531 0.36948156 0.10750117
0001a0 dc a8 83 be 2a 15 b9 be 68 e6 13 3e 4b 4d 6e 3e
       -0.25714767 -0.3614896 0.14443362 0.23271672
0001b0 d4 b2 3a be 20 16 bc 3e fd 47 c1 be f6 a4 23 bd
       -0.1823228 0.3673563 -0.37750235 -0.03995224
0001c0 66 dd 68 3e 4c 91 a0 3b 0a 9f 96 be 6c 1a 24 be
       0.22740707 0.0049001332 -0.29418212 -0.16025704
0001d0 0e 6f 45 be 89 16 ab 3d 8e 29 75 3e 8a 4a 8b be
       -0.19280645 0.083539076 0.23941633 -0.27205306
0001e0 40 a0 17 be f6 d4 a9 3e 06 4e 96 bd 08 8c ab 3e
       -0.14807224 0.3317029 -0.073391005 0.33505273
0001f0 61 f6 03 3e 04 64 38 bd 4b 38 94 3e c9 22 8d be
       0.12886955 -0.045017257 0.28949198 -0.275656
000200 e6 06 81 3e a4 47 e2 bd 43 5b 4a be fd d8 ae 3e
       0.25200576 -0.110488206 -0.19761376 0.34149924
000210 4d 7d 6c 3e c6 b3 3e 3e 13 ef 26 be cb bc 96 be
       0.23094673 0.18623266 -0.16302137 -0.29440913
000220 b1 d9 c2 3e 5f ad 69 3e 3d eb a2 3d 60 6f 67 bc
       0.3805671 0.22820042 0.079550244 -0.014125675
000230 ca 5d 33 be f6 8e 8f be 83 ff 78 be 24 71 6b be
       -0.17516246 -0.28038758 -0.2431622 -0.22992378
000240 b8 b9 74 3e 49 89 83 3d e3 9f 97 bd 83 f3 07 3b
       0.23898971 0.064226694 -0.07403543 0.002074451
000250 41 30 63 3e 82 11 9a be ea 17 ac be 1c c8 5b be
       0.22186376 -0.30091482 -0.33611995 -0.21463054
000260 1b ed f2 3d ff 8b 45 bd 2e f2 8b be f8 b7 cf 3e
       0.118616305 -0.048229214 -0.27333206 0.40570045
000270 6d d4 93 3e c2 9f b9 be 67 60 03 3e 0f d2 03 be
       0.28873006 -0.36254698 0.12829743 -0.128731
000280 ec 3f b8 3e 6f 69 5d be c4 e5 0a 3e 39 c9 4b 3e
       0.3598627 -0.21622251 0.13564211 0.19900979
000290 e6 29 fd bd cc 47 e8 3c 4a 66 73 be 01 12 2b 3d
       -0.12361507 0.028354548 -0.23769489 0.041765217
0002a0 15 85 94 be d4 b0 94 be 5a e1 92 be 03 d4 1a 3a
       -0.29007784 -0.2904116 -0.28687555 0.0005906226
0002b0 da 8e 9d 3e 7d 55 ce 3e e5 f4 6c be c8 d7 09 3e
       0.3077305 0.40299597 -0.23140295 0.1346122
0002c0 f7 ce 5b 3d f5 73 23 39 4a f6 a2 be 04 66 fb 3d
       0.053664174 0.00015588089 -0.3182853 0.12275317
0002d0 e9 30 05 be 6b f2 87 3e 26 76 a2 3e 86 2f a3 3d
       -0.13006939 0.26552138 0.31730765 0.07968049
0002e0 18 19 d5 3e 6b 27 45 be 33 3b 7a be ff 89 cc 3e
       0.41620708 -0.19253318 -0.24436645 0.39949033
0002f0 e7 8e 78 3e e9 de 05 be b2 f3 46 bd 08 fb 2d be
       0.24273263 -0.13073315 -0.04857225 -0.16990292
000300 0e 54 c4 3e 98 84 bb bd bc a5 c3 3e 45 ad bd be
       0.3834538 -0.091561496 0.38212383 -0.37046257
000310 69 bb a9 be 5b e1 89 be 45 92 73 3e bc 72 a6 3e
       -0.33150795 -0.26929745 0.23786266 0.3250941
000320 3b b7 c3 bd c0 53 19 be 46 80 7e 3e 21 18 b2 3e
       -0.09556433 -0.14973354 0.2485362 0.34784034
000330 69 a2 c7 be b6 5a 72 3e 22 61 73 3e c0 c5 0a 3d
       -0.38991097 0.23667416 0.23767522 0.033879995
000340 a5 7c cc 3d d7 bc 85 3e 3a 46 87 3e 9a 2f f3 3b
       0.099847116 0.26120636 0.26420766 0.007421446
000350 d0 c9 6a be c2 69 84 3e 52 4a ef bb c4 97 7d be
       -0.22928548 0.25861937 -0.007302561 -0.24764925
000360 96 26 6f 3d 29 44 b1 be 06 b7 95 3e c2 d7 6c 3e
       0.058386408 -0.34622315 0.29241198 0.2312918
000370 fb 9b c6 3e b1 e0 f1 3d 6a 5e 90 3e 1f da 42 3d
       0.3879088 0.118104346 0.28197032 0.047571298
000380 ea 39 da bc 3b a6 a3 be 79 d0 7d be bc e0 e2 bd
       -0.026638944 -0.3196276 -0.24786557 -0.11078021
000390 7a cf 38 bc e3 16 99 bd 79 11 15 be ae e4 2f 3e
       -0.011279935 -0.074750684 -0.14557447 0.17177078
0003a0 26 fd 9f 3e ad 58 77 be dc 75 94 3e 7a cd 89 3e
       0.31247824 -0.24154921 0.2899617 0.2691458
0003b0 bd f8 e3 3c 0c 74 c5 be b1 77 67 3e 1d d2 cc 3e
       0.027828569 -0.385651 0.22604252 0.40004054
0003c0 a5 24 c9 3e 45 c9 ff 3d 1c ea 4a bd 91 e3 b7 be
       0.3928577 0.12489561 -0.04953967 -0.35915807
0003d0 bb f2 d9 bc c6 0f f6 3d 8c 72 c6 be 18 5b 8f be
       -0.026605 0.12014727 -0.38759267 -0.27999187
0003e0 85 2e ac bd a6 f4 ab 3d 07 0b 8e 3e 76 4d bf 3e
       -0.084073104 0.08396272 0.27742788 0.37363786
0003f0 83 b6 af 3c 5a 1e 89 3e ee 5e 8b be fa 97 17 3e
       0.021449333 0.2678097 -0.27220863 0.14804068

linear1.bias f4 [50]
000000 86 63 bf be ba 12 c1 3b 51 ec 4c be a0 ea c8 bc
       -0.37380618 0.005892125 -0.20012023 -0.02452594
000010 5b 53 85 be 84 8d 99 be 41 13 5e 3e 52 14 a1 3e
       -0.26040158 -0.2999078 0.21687032 0.31460816
000020 76 ad 5c 3c 44 44 99 be 79 bb 56 bd 8f f6 6d 3e
       0.013469091 -0.29934895 -0.05242488 0.23238586
000030 bd 02 b9 3e b6 b7 c0 be 96 13 77 be 38 04 cd be
       0.36134902 -0.3764016 -0.24128565 -0.4004228
000040 63 3d 9b be 53 de bb 3e 0e 1e 83 be 21 f0 7a 3e
       -0.30320272 0.36693057 -0.25608867 0.24505664
000050 01 f7 07 be 6d 9d d8 be 70 64 85 bd 5d 34 87 3e
       -0.13277818 -0.42307606 -0.065132976 0.26407138
000060 9c f8 dc 3e 3a 44 d4 be be d3 f0 bc 6b 27 68 3e
       0.43158424 -0.41458303 -0.029397842 0.22671287
000070 ec dd 96 3e a0 0b 9d be 67 c4 17 3d e4 78 6d 3e
       0.29466188 -0.30672932 0.03705254 0.23190647
000080 67 20 bc be 1e 3e 99 3b 9b b8 b2 be 62 1d 08 3d
       -0.3674347 0.0046765944 -0.34906468 0.033231147
000090 c5 d1 5e 3e c6 91 82 be 3e 89 9f 3e e1 bb ea 3d
       0.21759708 -0.2550184 0.31159395 0.11461616
0000a0 d1 1d 92 3e b2 6d 08 3d bd 90 57 3e 0a ad 90 3e
       0.28538373 0.03330774 0.21051307 0.28257018
0000b0 2d c0 63 3e 81 3c 7b be 98 b4 8d be d1 30 43 be
       0.22241278 -0.24534799 -0.27676845 -0.1906159
0000c0 3d 74 90 3e cc a8 86 be
       0.28213683 -0.26300657

linear2.weight f4 [50, 50]
000000 7c 66 ba 3d 72 f7 95 3c 85 c5 03 bd 14 fc 80 3d
       0.091015786 0.018306468 -0.03217079 0.0629808
000010 da f6 96 3d 11 81 02 3d 57 f5 03 bd ee 89 53 3c
       0.07371302 0.03186137 -0.032216396 0.012911303
000020 41 10 ce bd 11 bd 32 3d 24 98 44 3d 02 e8 11 bc
       -0.10061694 0.04363734 0.047996655 -0.008905413
000030 06 ec ea 3d e0 90 b9 3d 92 19 9e bd 8b 5f d2 bd
       0.11470799 0.09060836 -0.07719721 -0.102721296
000040 2d 17 28 bd 71 39 d5 3d 48 0f 7c 3d fa 7d dd bc
       -0.041037727 0.10411347 0.06153801 -0.02703761
000050 ee ee 49 bd 4f c9 f8 3d d4 7c b2 3d 4a 40 f0 3d
       -0.049300127 0.121477716 0.08715215 0.11731012
000060 88 38 72 bd 71 da dc 3d cf 8b f6 3d d9 35 82 3d
       -0.059135944 0.10783852 0.12038385 0.06357927
000070 6a ee 87 bd aa b3 ab 3d 33 f8 d3 bd 13 65 1d 3e
       -0.06637271 0.083838776 -0.103500746 0.15370588
000080 8c 6a d6 3c 8a 12 e0 bd 3a f5 7b 3d dc 91 02 3e
       0.026173852 -0.10941036 0.061513163 0.12750953
000090 9b 2d 45 bc fa d0 19 be f2 4f ab bd 2e 67 8b bd
       -0.012034799 -0.15021124 -0.08364858 -0.06806789
0000a0 1d 4a b9 bd 51 31 89 3d a2 32 b9 3d 40 3c dd 3d
       -0.09047339 0.066988595 0.090428606 0.108025074
0000b0 de 67 ea 3d a6 d0 4e bd 65 be c4 bd ce 31 b6 3d
       0.11445592 -0.05049195 -0.096066274 0.08896218
0000c0 b3 82 05 be e0 77 81 3d a0 3d 56 bd dd 05 0d be
       -0.13038139 0.063216925 -0.052304864 -0.13771768
0000d0 e6 94 3b bd a6 6a ac bd d9 f9 a2 3d d1 f5 ba bd
       -0.045796297 -0.08418779 0.07957811 -0.09128917
0000e0 19 4a ea 3d fd 2d 2b 3d 3f 07 ba bd 5b f8 df 3d
       0.11439914 0.041791905 -0.09083413 0.10936042
0000f0 6d cd 8c 3d 68 11 d5 bd 3e b0 0a be ac e0 03 bd
       0.06875119 -0.104037106 -0.13543794 -0.032196686
000100 e1 13 da bd 00 a2 6e 3c 98 2f dd bc 47 71 af bd
       -0.10648323 0.014564991 -0.027000234 -0.08566528
000110 cb f2 af 3d bb ad 15 bd 86 29 af 3d 1f 51 8e bd
       0.08591231 -0.036542635 0.08552842 -0.06949066
000120 0e 06 02 be 31 67 83 bc 69 a0 0e 3e 26 d1 7e 3b
       -0.12697622 -0.016040416 0.13928379 0.0038881986
000130 3a 37 0c be cf 2e 8d bc ab 3d e2 3d ae ad fd 3c
       -0.13692942 -0.017234234 0.110469185 0.030966606
000140 8e 71 f6 3d 9b 5d 94 bd b2 27 e3 bd 77 6d 6a 3d
       0.120333776 -0.07244416 -0.11091556 0.0572333
000150 e8 85 fc bd d1 83 93 bc 4c ee 0c 3e 2e 2b 81 3c
       -0.12330228 -0.01800719 0.13762778 0.01576766
000160 e7 a4 c9 bd 68 70 94 3d 0b c0 55 bd 78 02 eb bd
       -0.09845906 0.07248002 -0.0521851 -0.1147508
000170 98 47 65 bc 59 3b bf bd ed 72 68 bc c2 17 fb bc
       -0.01399412 -0.093374915 -0.014187557 -0.030650977
000180 16 81 a8 3c 11 72 98 3d 8a b8 c0 bb b5 02 d4 3d
       0.020569365 0.074436314 -0.005881374 0.10352079
000190 41 20 80 3b 1c 4d d9 bc 59 9d fa bd d1 ff 21 bd
       0.003910095 -0.026526026 -0.12237043 -0.039550606
0001a0 74 84 cc ba 38 af c7 3d 37 de 07 be bd 07 ab 3b
       -0.0015603439 0.09750217 -0.13268362 0.0052194283
0001b0 99 ab 12 3e 5f 22 94 bd 08 d3 b6 3d 12 79 d0 3d
       0.14323272 -0.07233118 0.0892697 0.10179342
0001c0 d8 c3 e0 3c 52 f3 ad bd d8 f7 72 bb c9 a5 bf 3d
       0.027437136 -0.08493675 -0.0037073996 0.09357793
0001d0 35 fc 4b 3d 0d e2 c8 3d 1f 0f a6 3d a9 fb d5 bd
       0.04980107 0.09808741 0.08108353 -0.10448391
0001e0 54 7b c1 bd 1a fc 0b bd 7c 0f 24 3e b4 04 13 3e
       -0.09447351 -0.03417597 0.16021532 0.14357263
0001f0 43 38 06 3e 2e 76 ff 3c 5c 70 ac 3c 97 55 00 3e
       0.131074 0.031184282 0.02104967 0.1253265
000200 be f6 65 bc 3f 78 20 bc 34 92 37 bd f2 7e a7 3d
       -0.014035879 -0.009794294 -0.044817165 0.0817851
000210 78 48 61 3d a5 b2 ce ba 23 b9 62 3d f7 f8 28 3e
       0.055000752 -0.0015769793 0.05535234 0.16501223
000220 b2 d2 7d 3d b0 a8 d3 3d ce 6d cb bd ab fc 98 bd
       0.061968513 0.10334909 -0.09933053 -0.074700676
000230 df b1 2f 3e b6 39 3f 3d 9f 1a 01 bd c2 88 e9 bd
       0.17157696 0.046685897 -0.03151953 -0.114030376
000240 33 06 23 3c 15 50 e7 bd 69 5c 4b 3e e0 19 ff 3c
       0.0099502085 -0.11294571 0.1985947 0.031140268
000250 53 71 d3 bc 1f 4a f2 3d f4 0a fa 3d d6 20 70 bd
       -0.025810873 0.11830544 0.122091204 -0.058625065
000260 3e e8 01 bd 81 04 ec 3d ab 10 bb 39 b6 6b c0 3c
       -0.031715624 0.115242966 0.00035679838 0.02348886
000270 3c 79 fa bd 2f e2 fd bc 27 b4 24 bd 7d ba ed bc
       -0.12230155 -0.030991642 -0.04021087 -0.029019589
000280 bb 1d 87 3d 70 8a e3 bd bb 41 5d 3d 8a db b8 bd
       0.065974675 -0.11110389 0.054017764 -0.09026249
000290 c7 fe 04 bd 96 6d 75 bd 0c 16 48 3d 85 26 41 3d
       -0.032469537 -0.059918962 0.04884915 0.047155876
0002a0 3f f0 ba bd 16 ae dc 3d b1 87 ae bd 63 7c d1 bc
       -0.091278546 0.10775392 -0.08521975 -0.025572008
0002b0 cf 3c 7c bd 9b 44 15 bd ba d4 87 bc 1b f8 13 bd
       -0.06158143 -0.03644238 -0.016580928 -0.036125284
0002c0 8a 07 79 bb 88 7b 10 bd c5 ab d4 3d aa a1 fe bd
       -0.0037998878 -0.03527406 0.10384325 -0.12433179
0002d0 13 69 3c 3d 0a 32 87 3d c0 18 d0 3d 75 01 97 bc
       0.045998644 0.06601341 0.10160971 -0.018433312
0002e0 c4 f0 f8 bd 44 a1 21 3e 29 e1 90 bb 66 07 b2 3d
       -0.121552974 0.15784174 -0.0044213724 0.086928174
0002f0 d1 9c 02 3e e5 d0 5c 3d b7 61 a9 3d ad 87 c3 bd
       0.12755133 0.053910155 0.08270591 -0.095473625
000300 79 3f 39 bd bc 55 97 3d be 3c 92 bd 41 2e 99 bd
       -0.045226548 0.073893994 -0.07140492 -0.07479525
000310 01 f3 07 3e bd bd aa bd fa 2d f1 3d 96 18 56 3c
       0.13276292 -0.08336971 0.117763475 0.013067385
000320 a3 b3 2f bd 97 d0 19 be 62 d7 0e be 6d 35 fb bd
       -0.042895924 -0.15020977 -0.1394935 -0.122660495
000330 61 56 a7 bd e6 ad 8b bc 26 40 db bd df 20 02 be
       -0.08170772 -0.017050695 -0.10705595 -0.12707852
000340 63 b5 0a bd 81 5c 61 3d 9c 45 b4 3c 27 2d f0 bd
       -0.03386439 0.05501986 0.022005849 -0.11727362
000350 7c 8e 93 bc 87 26 95 bd 3c e2 fb 3c 47 f4 c3 bc
       -0.018012278 -0.07282739 0.030747525 -0.023920191
000360 7b c8 f9 3b c1 ba a1 3d d7 6b 0e bb af bc 6d bb
       0.007622776 0.078969486 -0.0021731758 -0.0036275794
000370 04 09 f5 3d cb 15 31 bd 69 97 b8 bd e3 39 a0 bd
       0.1196461 -0.043233674 -0.09013254 -0.07823541
000380 2a 55 ab 3d fa 97 7f bd e4 39 d7 bd 07 a6 05 3c
       0.08365853 -0.062400796 -0.10509089 0.00815726
000390 61 5c f5 3d c7 f9 59 bd 6a d9 f7 bd 15 2a 0a be
       0.119805105 -0.05321672 -0.12102015 -0.13492616
0003a0 22 84 08 3e 8a 42 ed bc e5 4b 1a bd 9f 16 0a be
       0.13331655 -0.028962392 -0.037670035 -0.13485192
0003b0 fa ad 28 3d 42 c2 f1 bd ab bb c0 bd c5 5d 36 bc
       0.041181542 -0.1180463 -0.09410795 -0.011130755
0003c0 b7 fd eb 3b ce 1c 66 bd c3 42 14 be 53 68 18 3d
       0.007201876 -0.056179814 -0.14478593 0.037208866
0003d0 fa 71 eb 3d e9 ad f7 3d 58 34 d0 bd 66 3c 36 bd
       0.11496349 0.120937176 -0.10166234 -0.044491194
0003e0 2d 4e f9 3d 3c 06 b9 bd d9 17 01 be 19 c4 a3 3d
       0.12173114 -0.09034392 -0.12606753 0.07996387
0003f0 74 6f d2 3d f4 f3 60 3d c0 7e c1 bd 0e fa aa 3d
       0.10275164 0.05492015 -0.09448004 0.083484754

linear2.bias f4 [50]
000000 59 bd 03 be e8 a1 91 3d e7 dd 2d 3d 7e 47 0d 3e
       -0.12865199 0.07110959 0.04244795 0.13796803
000010 f8 03 ed bd 75 24 36 3d 04 e5 d4 bd 29 82 b7 3c
       -0.115730226 0.044468362 -0.10395244 0.022400932
000020 1e 08 85 bd 35 d5 93 3d 00 c3 fd 3d 26 0e 91 bd
       -0.06495689 0.072184004 0.12390709 -0.07082777
000030 c2 78 20 be f1 04 0d be d6 e2 21 bd 42 db 94 bd
       -0.15671065 -0.13771416 -0.03952297 -0.072683826
000040 f3 02 b8 3d 6c f2 b6 3c a8 84 89 3b df 2c 45 3d
       0.089849375 0.022332393 0.004196722 0.048138496
000050 8b 2f 35 3c 23 29 07 bc ec f0 25 3e 69 25 1f bd
       0.011058698 -0.008249554 0.16205186 -0.038854036
000060 a4 ec f4 3c cb f3 65 3d 37 69 cd 3c 42 69 00 3e
       0.029897995 0.056140702 0.025074584 0.12540153
000070 0d 12 a2 3d 2c 23 76 bd fb 48 8e 3d aa d5 a9 3d
       0.07913599 -0.060092136 0.06947514 0.08292706
000080 a9 00 fe 3c f8 a4 4b bc 88 23 1e be 0d 6a a0 bd
       0.031006174 -0.012429468 -0.15443242 -0.078327276
000090 25 37 18 be 14 ea 96 bc 32 5c ed 3d de 8f 2c bd
       -0.14864786 -0.018422164 0.115898505 -0.04212939
0000a0 bc 18 ba 3d 29 d3 a4 3c 87 1a ae bd 56 61 ad 3d
       0.09086749 0.02012022 -0.085011534 0.08465831
0000b0 31 21 e1 3c 9c e4 a4 bc ef c1 23 bd 6e 10 c6 bd
       0.027481647 -0.02012854 -0.03997987 -0.096711025
0000c0 ca 2a 68 bd db 31 c9 bd
       -0.05668143 -0.09823962

linear3.weight f4 [2, 50]
000000 4c 67 0a be 32 41 42 bc fa cd 89 3d 48 45 98 3d
       -0.13515967 -0.011856364 0.0672874 0.07435089
000010 65 75 72 3d 0b 91 01 3d c9 05 9c bc f3 30 b8 3d
       0.059193987 0.031632464 -0.019045727 0.08993711
000020 71 ed f0 bb 2f ff f4 3d 6e 1d d3 3d d5 b5 3f 3c
       -0.007352524 0.11962735 0.10308348 0.011701067
000030 47 9e 00 be 3c d8 06 be 18 34 a6 bb 64 c8 61 3d
       -0.12560378 -0.13168424 -0.005072128 0.055122748
000040 59 9f e8 3d c5 9a 72 3d 78 69 7c bd ae 0a 8f 3d
       0.11358518 0.05922963 -0.06162402 0.06984459
000050 96 b7 aa bd 84 ab e9 bd b9 64 1a 3d 86 f3 0b 3e
       -0.083357975 -0.11409667 0.037693713 0.13667116
000060 80 15 f3 3d f8 46 9f 3d ec ac a9 3d 79 aa b8 3d
       0.11869335 0.07777208 0.08284935 0.0901689
000070 82 ee d4 3d 86 b9 0d be f9 14 06 3e d7 e3 b8 3d
       0.10397054 -0.13840303 0.13093938 0.09027832
000080 17 ab 31 bc bc bf ec bd 0e 36 fa bd 83 06 e4 3d
       -0.010844014 -0.11560008 -0.12217341 0.111340545
000090 a0 75 95 3c 0d 9c b1 bd 5b f0 ac bd 2f 03 6a 3d
       0.018244565 -0.086723424 -0.08444282 0.057131942
0000a0 37 f4 0b 3e be 52 9d 3d 39 3c a6 3d b4 61 c8 3d
       0.1366738 0.076817974 0.08116955 0.097842604
0000b0 f9 44 cc bd 54 49 a7 bd c0 7e c6 bd 02 58 a1 3d
       -0.09974093 -0.08168283 -0.096921444 0.07878114
0000c0 23 20 17 be f6 2e 6f bd af c1 85 3d 6b 3d 3e bc
       -0.14758353 -0.058394395 0.06531083 -0.011611323
0000d0 78 25 dc bd c4 1d 14 bd c8 c8 95 3d 26 d5 0f 3d
       -0.10749334 -0.0361612 0.073136866 0.035115384
0000e0 3f a2 d1 3d 0b ec 0f bd ab 5e 0b 3e 40 86 7a 3c
       0.10236024 -0.035137217 0.13610332 0.015290797
0000f0 80 5e 46 3d 45 ea 82 bd ed e4 8d bc 65 6e 83 bd
       0.048429966 -0.063923396 -0.017321074 -0.064175405
000100 5a f8 6b 3d d2 77 b5 bd 2f b6 b9 bd 42 c6 65 bc
       0.057609893 -0.088607445 -0.09067952 -0.014024319
000110 d6 3f 49 3d 7c 9c aa 3d 55 9c 6d 3d 21 29 f7 3d
       0.049133144 0.08330628 0.058010418 0.120683916
000120 ba f6 ab bd ff a5 0f 3e 5c a2 e8 3c 8b eb dd bc
       -0.08396669 0.14028166 0.028397731 -0.027089855
000130 f6 34 ff 3d 17 47 dc bd a2 73 04 be e6 0c 34 3b
       0.12461273 -0.10755747 -0.12934735 0.0027473508
000140 74 a4 11 3d f2 6e 03 be 46 79 a8 3d 21 13 c0 3d
       0.035557225 -0.12835291 0.08226256 0.093786485
000150 9f 7a da 3c 8a 84 0a be 76 ab f9 3d c6 d8 aa 3d
       0.026669798 -0.13527122 0.12190907 0.083421275
000160 78 0f ba 3b 39 c0 c5 bd fb eb 5d bd 2d 8a 98 bd
       0.0056781135 -0.09655804 -0.054180127 -0.0744823
000170 6f 81 d0 3d 2d 9a e3 3a 24 c0 d1 3b b9 54 16 bd
       0.101809375 0.0017364674 0.006401079 -0.03670189
000180 6b 23 1a 3b 2b ad fc 3d 47 44 22 bd fa 11 09 3e
       0.0023519646 0.12337717 -0.039615896 0.13385764

linear3.bias f4 [2]
000000 8a 7e d7 3c d0 b0 f7 bd
       0.026305456 -0.12094271
