checkpoints/origin/2020-11-16T11-33-21-16-classify/classify_fold0_origin_0.954615.pth (torch, 14565 bytes, 6 tensors)

linear1.weight f4 [50, 6]
000000 c5 ba d0 3d 9e cb a1 3e c9 7a 8f be c0 dc 73 3e
       0.101918735 0.3160066 -0.28023365 0.23814678
000010 1a 8e fc 3d 10 39 1c 3e 99 cf c8 bd 55 76 7a 3d
       0.12331791 0.15256143 -0.09805221 0.061148006
000020 1e aa 00 bc 1f 7e 33 be c5 b9 90 3e 74 f5 87 3d
       -0.007853059 -0.1752858 0.2826673 0.06638613
000030 e1 09 80 bd 2d 24 84 b8 1d ac 84 be ae 4b 08 3e
       -0.06251884 -6.300989e-05 -0.25912562 0.1331012
000040 61 53 96 be 61 c7 b5 3e b6 b2 ed 3e 37 3f aa be
       -0.29360488 0.35503677 0.46425408 -0.33251354
000050 cc d7 95 be 9e db 9d be a1 d7 d6 3b 39 86 10 be
       -0.29266202 -0.30831617 0.0065564667 -0.14113702
000060 98 b8 a1 be 35 15 03 3e 80 41 88 be ea 10 40 3e
       -0.31586146 0.12801059 -0.26612473 0.18756452
000070 6c fa a2 3e 91 b1 55 be db b5 bd bd 54 58 54 be
       0.31831682 -0.20868517 -0.09263202 -0.2073682
000080 7e 2b 92 be 67 ff cc 3c 58 ae bd be 0c 5d b9 be
       -0.28548807 0.02502413 -0.37047076 -0.36203802
000090 c3 ee 92 be da df 23 be a4 d2 2a bd 75 32 cd 3d
       -0.28697786 -0.16003361 -0.04170479 0.100193895
0000a0 26 f2 ce 3e 3b c9 cd be 7c 82 1e 3e 36 c1 48 be
       0.4041912 -0.4019259 0.15479463 -0.19604954
0000b0 d0 60 28 be 47 e0 96 be 3e 47 97 3e 1e 38 e9 bd
       -0.16443181 -0.29467985 0.2954654 -0.11387657
0000c0 35 56 3b 3e 68 a9 e1 bc a8 7c 23 3e 4e 84 3b bd
       0.18294604 -0.0275466 0.15965521 -0.045780472
0000d0 d1 c5 92 3e 69 85 42 3d 0d fa db bd dd 8d a8 be
       0.28666547 0.04749051 -0.10741053 -0.32920733
0000e0 0d a0 8b 3e 67 86 7d 3c 85 a3 9d be 74 cb 9c 3d
       0.27270547 0.015473939 -0.30788818 0.07655993
0000f0 bb 36 8a 3e a3 6e ec bc 07 1e 40 be 2d f4 b5 be
       0.2699488 -0.02886135 -0.18761455 -0.35537854
000100 f4 94 b4 be bc dd 16 3e 4a f6 32 3e 24 61 40 be
       -0.35269892 0.14733022 0.17476764 -0.18787056
000110 8c f8 0c 3d 2b 75 ba 3e ba 12 b3 3e 2a 8e b6 3e
       0.03441672 0.36417517 0.34975225 0.35655338
000120 e4 13 1e be 50 ba c0 3e 35 98 42 be a1 e3 af be
       -0.15437275 0.37642145 -0.19003375 -0.34353355
000130 1a e8 c2 bd 88 71 06 be c9 d5 b4 be f7 6e 43 3e
       -0.09516926 -0.13129246 -0.35319355 0.19085298
000140 3a 1e 59 bd 5f 8d 34 be f1 0b c9 3c be e6 9a be
       -0.053007342 -0.17632054 0.024541827 -0.30254167
000150 88 7b 5c 3d 64 cb b7 3e 79 a8 9c be ae 3f 04 3e
       0.053828746 0.35897362 -0.30597284 0.12914917
000160 d1 2a 80 3e 70 66 c6 3d 7b a8 a4 3d 8d b6 c2 be
       0.25032666 0.09687507 0.080399476 -0.380299
000170 fd 38 60 be 6d 93 78 be 98 22 9f 3e 75 7a c3 be
       -0.2189674 -0.24274988 0.3108108 -0.38179365
000180 e8 cb 9b 3e f1 3e 9e be f6 7a 44 3e 10 2c 88 be
       0.30429006 -0.30907395 0.19187531 -0.26596117
000190 ff fc 6c be 23 30 78 3d d6 aa bc 3e 0e 00 b7 3d
       -0.23143385 0.06059278 0.36849087 0.08935557
0001a0 45 dc 84 be 40 2b b9 be cc eb 10 3e 92 93 6d 3e
       -0.25949302 -0.3616581 0.1415245 0.23200825
0001b0 d4 b2 3a be 20 16 bc 3e fd 47 c1 be f6 a4 23 bd
       -0.1823228 0.3673563 -0.37750235 -0.03995224
0001c0 66 dd 68 3e 4c 91 a0 3b 0a 9f 96 be 6c 1a 24 be
       0.22740707 0.0049001332 -0.29418212 -0.16025704
0001d0 0e 6f 45 be 89 16 ab 3d 8e 29 75 3e 8a 4a 8b be
       -0.19280645 0.083539076 0.23941633 -0.27205306
0001e0 c9 06 09 be 36 e2 a6 3e 4a 5f 97 bd 9c a5 b3 3e
       -0.13381495 0.3259446 -0.07391222 0.35087287
0001f0 ba b0 fe 3d a0 ce e9 bc 1c 85 8d 3e 2c c7 8d be
       0.12436052 -0.02854091 0.27640617 -0.2769102
000200 fb 57 77 3e 78 3b fe bd 4b a0 57 be 41 52 aa 3e
       0.24154656 -0.124136865 -0.2105724 0.3326588
000210 bd 8c 63 3e 65 60 42 3e 97 42 2c be 80 39 c5 be
       0.22221656 0.18982084 -0.16822277 -0.38520432
000220 96 d0 c6 3e 2a cc 43 3e 39 ea a2 3d a1 78 67 bc
       0.38831013 0.19120851 0.07954831 -0.014127881
000230 44 5e 33 be 1b 8f 8f be e5 ff 78 be 88 71 6b be
       -0.17516428 -0.28038868 -0.24316366 -0.22992527
000240 47 fb 7e 3e f5 9b 93 3d 63 56 9a bd 55 47 ef 3c
       0.24900542 0.07207481 -0.07536008 0.029208818
000250 5b 5d 4a 3e ab 6b 99 be b4 56 af be 55 83 29 be
       0.19762175 -0.29964957 -0.34245837 -0.16554005
000260 cb 4f f7 3d 86 7b ca bc 00 63 a2 be b4 da d8 3e
       0.12075766 -0.024717104 -0.31716156 0.42354357
000270 9d c7 99 3e aa f8 cf be 41 bf fa 3d e0 cf e7 bd
       0.30035105 -0.40619403 0.1224351 -0.11318946
000280 6f 4b bd 3e 03 a5 63 be 7d 22 18 3e 8c ab 47 3e
       0.36971614 -0.22230916 0.14856906 0.19499034
000290 a3 0e fe bd e6 96 53 3d 44 8a 73 be c4 24 2d 3d
       -0.124051355 0.05165758 -0.23783213 0.04227139
0002a0 15 85 94 be d4 b0 94 be 5a e1 92 be 03 d4 1a 3a
       -0.29007784 -0.2904116 -0.28687555 0.0005906226
0002b0 da 8e 9d 3e 7d 55 ce 3e 93 33 69 be e0 32 0e 3e
       0.3077305 0.40299597 -0.2277358 0.13886595
0002c0 95 e2 70 3d 7f af 01 3d 33 dd b0 be 39 90 10 3e
       0.058809835 0.031661507 -0.34543762 0.14117517
0002d0 3e db 03 be 21 18 85 3e 60 7b 9e 3e e0 50 b8 3d
       -0.12876603 0.2599497 0.30953503 0.08999801
0002e0 95 26 d5 3e 2b 93 4e be 96 28 76 be 28 b3 c9 3e
       0.41630998 -0.20173328 -0.2403892 0.39394498
0002f0 bc 91 7a 3e 45 b0 ec bd 72 32 7f bd 7c 24 22 be
       0.24469656 -0.11557058 -0.062303968 -0.1583423
000300 e8 6e ca 3e fe 1d c2 bd f4 8a c3 3e 2a f7 b5 be
       0.3953774 -0.09478377 0.3819195 -0.35540134
000310 4c a5 ad be af 63 87 be 40 44 79 3e d7 60 a4 3e
       -0.33915174 -0.2644324 0.24342442 0.32105133
000320 af f6 da bd f7 41 0a be b6 78 6a 3e c7 a8 af 3e
       -0.106915824 -0.13501726 0.2289761 0.34308454
000330 47 db c5 be 77 02 78 3e 9c 76 75 3e d9 7f 4d 3d
       -0.38643858 0.2421969 0.23971027 0.050170753
000340 e9 41 a9 3d 57 14 8d 3e 12 b4 95 3e e5 bc e1 bc
       0.082645245 0.2755458 0.29238945 -0.027555892
000350 f8 c3 4c be b0 a1 93 3e 2d 09 91 bb b5 ff 5f be
       -0.19996631 0.28834295 -0.0044261427 -0.21874888
000360 cf 00 86 3d 12 aa bd be 9f 35 93 3e 34 8f 72 3e
       0.06543123 -0.37043816 0.28751847 0.2368744
000370 db ea c5 3e cd 80 ea 3d dd 9c 8e 3e 32 bf 38 3d
       0.38655743 0.11450348 0.27854052 0.045104213
000380 d0 4b cc bc 08 1f a8 be 79 ba 72 be e6 84 0c be
       -0.024938494 -0.32836175 -0.23703946 -0.13722572
000390 6d 32 cc bc b6 4c b3 bd c3 0a 23 be aa eb 21 3e
       -0.024926389 -0.08754866 -0.15922074 0.15812555
0003a0 01 10 9c 3e fa a8 82 be 75 03 93 3e 6a 19 88 3e
       0.3048096 -0.25519544 0.28713575 0.2658189
0003b0 ea f0 af 3c 0b 21 c7 be c6 6e 6e 3e 6a c8 c6 3e
       0.021477181 -0.38892397 0.23284444 0.3882478
0003c0 86 ae c5 3e 40 22 f4 3d 9e ec 67 bd 8e 20 c0 be
       0.38609713 0.11920595 -0.05662214 -0.37524837
0003d0 ea 6b 81 bc c8 0a d2 3d 8c 72 c6 be 18 5b 8f be
       -0.015798528 0.102559626 -0.38759267 -0.27999187
0003e0 85 2e ac bd a6 f4 ab 3d 07 0b 8e 3e 76 4d bf 3e
       -0.084073104 0.08396272 0.27742788 0.37363786
0003f0 46 6a 0c 3d 89 ff 86 3e 53 c5 88 be 1a 65 25 3e
       0.034281038 0.26366833 -0.26713046 0.16151848

linear1.bias f4 [50]
000000 e1 f3 bd be 3d b5 4e 3b bc b8 5a be 04 b2 36 bb
       -0.37100127 0.0031541132 -0.21359533 -0.0027877102
000010 5b 53 85 be 84 8d 99 be 41 13 5e 3e 75 66 a0 3e
       -0.26040158 -0.2999078 0.21687032 0.3132817
000020 78 23 db 3c 7a 25 9f be c9 4b 59 bd 11 2e 72 3e
       0.026750311 -0.3108328 -0.05305079 0.23650385
000030 27 9d bc 3e dd 41 b4 be 78 a9 5e be 38 04 cd be
       0.36838648 -0.352065 -0.21744335 -0.4004228
000040 1b 8a 9c be 06 64 ba 3e 0e 1e 83 be 21 f0 7a 3e
       -0.30574116 0.36404437 -0.25608867 0.24505664
000050 ec b1 0c be fc 6b df be 5a f3 68 bd 35 34 87 3e
       -0.13739747 -0.43637073 -0.056872703 0.26407018
000060 5b d1 d0 3e 7e c7 ea be a6 5a 9e bc 23 91 68 3e
       0.40784726 -0.45855325 -0.019330334 0.22711615
000070 ec dd 96 3e 80 33 ab be df e6 18 3d 8d 15 5f 3e
       0.29466188 -0.3343773 0.03732955 0.21785565
000080 15 27 c0 be 86 52 6e bc 3a b5 bb be 2d b3 13 3d
       -0.37529817 -0.014546042 -0.36661702 0.036059547
000090 65 a5 5d 3e 62 ab 79 be 8f 9c 9b 3e 44 5f f9 3d
       0.21645124 -0.24381784 0.30392882 0.121763736
0000a0 24 d6 97 3e b2 6d 08 3d bb 30 53 3e d4 90 87 3e
       0.29655564 0.03330774 0.20624058 0.26477683
0000b0 23 46 4f 3e 01 b4 87 be 44 8e 83 be 13 14 53 be
       0.20241599 -0.2650452 -0.25694478 -0.20613126
0000c0 d9 29 94 3e b4 66 8c be
       0.28938177 -0.27422106

linear2.weight f4 [50, 50]
000000 89 fd 8b 3d 7e 04 74 3c 0e 02 3b bd 3b f8 80 3d
       0.06835467 0.014893649 -0.045656256 0.06297346
000010 da f6 96 3d 11 81 02 3d 57 f5 03 bd 67 79 53 3c
       0.07371302 0.03186137 -0.032216396 0.012907363
000020 79 97 d4 bd db 0d 2c 3d 17 94 44 3d 8f a2 ac bc
       -0.103804536 0.0420054 0.047992792 -0.021073608
000030 c7 7b cf 3d 13 1a a5 3d 69 ec f5 bd 8b 5f d2 bd
       0.101310305 0.08061614 -0.12007982 -0.102721296
000040 c9 28 32 bd 9f 5e d5 3d 48 0f 7c 3d fa 7d dd bc
       -0.043495927 0.10418438 0.06153801 -0.02703761
000050 d2 f3 85 bd 10 32 f4 3d 98 b2 9c 3d e7 3f f0 3d
       -0.06540646 0.11923611 0.076512516 0.117309384
000060 80 64 a1 bd e8 4d e1 3d 9e 7e db 3d 59 a8 46 3d
       -0.07880497 0.110011876 0.1071751 0.048500393
000070 6a ee 87 bd 2e 2a b9 3d 96 af d6 bd e3 17 1d 3e
       -0.06637271 0.09041248 -0.10482709 0.15341143
000080 c5 39 cd 3c 1c dd e7 bd a5 a6 82 3d d8 68 e3 3d
       0.02505196 -0.1132147 0.06379441 0.11103982
000090 56 c3 98 bc 2a b0 18 be 13 ef c6 bd 6d 39 87 bd
       -0.018647831 -0.14910951 -0.097135685 -0.0660275
0000a0 c7 c3 b8 bd 51 31 89 3d 17 84 93 3d b4 22 ce 3d
       -0.090217166 0.066988595 0.072029285 0.10065213
0000b0 21 88 de 3d 1c c6 54 bd 25 b9 03 be 69 69 b5 3d
       0.10865808 -0.051946744 -0.12863596 0.08857996
0000c0 4f cc 07 be 8b f7 76 3d a0 3d 56 bd dd 05 0d be
       -0.13261531 0.06029467 -0.052304864 -0.13771768
0000d0 e6 94 3b bd a6 6a ac bd d9 f9 a2 3d d1 f5 ba bd
       -0.045796297 -0.08418779 0.07957811 -0.09128917
0000e0 19 4a ea 3d fd 2d 2b 3d 3f 07 ba bd 5b f8 df 3d
       0.11439914 0.041791905 -0.09083413 0.10936042
0000f0 6d cd 8c 3d 68 11 d5 bd 3e b0 0a be ac e0 03 bd
       0.06875119 -0.104037106 -0.13543794 -0.032196686
000100 e1 13 da bd 00 a2 6e 3c 98 2f dd bc 47 71 af bd
       -0.10648323 0.014564991 -0.027000234 -0.08566528
000110 cb f2 af 3d bb ad 15 bd 86 29 af 3d 1f 51 8e bd
       0.08591231 -0.036542635 0.08552842 -0.06949066
000120 0e 06 02 be 31 67 83 bc 69 a0 0e 3e 26 d1 7e 3b
       -0.12697622 -0.016040416 0.13928379 0.0038881986
000130 3a 37 0c be cf 2e 8d bc ab 3d e2 3d ae ad fd 3c
       -0.13692942 -0.017234234 0.110469185 0.030966606
000140 8e 71 f6 3d 9b 5d 94 bd b2 27 e3 bd 77 6d 6a 3d
       0.120333776 -0.07244416 -0.11091556 0.0572333
000150 e8 85 fc bd d1 83 93 bc 4c ee 0c 3e 2e 2b 81 3c
       -0.12330228 -0.01800719 0.13762778 0.01576766
000160 e7 a4 c9 bd 68 70 94 3d 0b c0 55 bd 78 02 eb bd
       -0.09845906 0.07248002 -0.0521851 -0.1147508
000170 98 47 65 bc 59 3b bf bd ed 72 68 bc c2 17 fb bc
       -0.01399412 -0.093374915 -0.014187557 -0.030650977
000180 16 81 a8 3c 11 72 98 3d 8a b8 c0 bb b5 02 d4 3d
       0.020569365 0.074436314 -0.005881374 0.10352079
000190 c9 2a 11 3d 08 a7 91 bc 12 ff de bd 95 7c f4 bc
       0.035441194 -0.017779842 -0.108884946 -0.029844562
0001a0 74 84 cc ba 38 af c7 3d 37 de 07 be ee 5f 27 3c
       -0.0015603439 0.09750217 -0.13268362 0.0102157425
0001b0 9f 0f 14 3e 61 16 9f bd 99 58 bd 3d fa d8 ea 3d
       0.14459084 -0.0776794 0.09245414 0.11467166
0001c0 f4 66 54 3d 8a 2d 65 bd f3 b6 33 3d c9 a5 bf 3d
       0.051855996 -0.055951633 0.043875646 0.09357793
0001d0 98 39 41 3d 11 f5 c0 3d 1f 0f a6 3d a9 fb d5 bd
       0.047174066 0.09421743 0.08108353 -0.10448391
0001e0 6c 5a 8f bd 12 80 08 bd 0c c8 2e 3e 3e 07 13 3e
       -0.069996685 -0.033325262 0.170685 0.14358231
0001f0 47 f9 1f 3e dd 94 8a 3c a9 6c 1f 3d b4 38 17 3e
       0.15622436 0.016916687 0.038921986 0.14767724
000200 be f6 65 bc 50 fa d5 bc 02 ea 49 bd 2d 6d 99 3d
       -0.014035879 -0.026120335 -0.049295433 0.07491527
000210 47 c0 45 3d f8 f2 9c 3b 48 ce 2a 3d 74 65 45 3e
       0.048279073 0.0047897063 0.04170063 0.19276983
000220 88 69 8e 3d af 29 cc 3d 15 b8 af bd 3e 0a b0 bd
       0.06953722 0.09968888 -0.08580033 -0.085957035
000230 ae cf 2a 3e b6 39 3f 3d 66 d1 7b bc dc ba d6 bd
       0.16680786 0.046685897 -0.015369749 -0.10484859
000240 29 2a 88 3c 9b fc e7 bd 2a b2 6e 3e 6e 68 d3 3c
       0.016621666 -0.113274775 0.23310152 0.025806632
000250 31 d5 e9 bc ea b7 f2 3d 86 a4 0f 3e 9d 46 88 bd
       -0.02854404 0.11851485 0.14027604 -0.066540934
000260 69 57 95 bc f5 f3 fa 3d ab 10 bb 39 b6 6b c0 3c
       -0.018230157 0.12253562 0.00035679838 0.02348886
000270 3c 79 fa bd fd 2e e2 bc fc d8 24 bd e9 85 cf bc
       -0.12230155 -0.027610296 -0.040245995 -0.025332408
000280 ab 55 8a 3d e5 be cb bd aa eb 52 3d ca c2 b1 bd
       0.06754621 -0.099485196 0.051494278 -0.08679731
000290 3f 51 5f bc 96 6d 75 bd eb 4d 56 3d fd 77 36 3d
       -0.01363021 -0.059918962 0.052320402 0.044548023
0002a0 3f f0 ba bd 16 ae dc 3d 05 3d a0 bd ef de ae bc
       -0.091278546 0.10775392 -0.078241386 -0.021346537
0002b0 d6 97 94 bd 2a 3f 15 bd 93 39 e9 bb b1 55 1e bd
       -0.07255523 -0.03643719 -0.007117459 -0.03865594
0002c0 76 d2 5b 3c ac 7e e0 bc c5 ab d4 3d cf ff 15 be
       0.013416877 -0.027404152 0.10384325 -0.14648364
0002d0 a7 ff 20 3d 70 24 62 3d 48 d4 c9 3d 33 dd f5 bc
       0.03930631 0.05521053 0.098549426 -0.030012703
0002e0 a3 4b 08 be 96 59 31 3e 8a 23 c7 3b 44 bf 8c 3d
       -0.13310103 0.1731933 0.0060772346 0.068724185
0002f0 1d 72 10 3e 7d 61 1d 3d 7f 3d 87 3d ad 87 c3 bd
       0.14106031 0.03842305 0.06603526 -0.095473625
000300 a4 f0 01 bd 6e e7 a2 3d 4d e3 8d bd 13 31 a1 bd
       -0.031723633 0.07954298 -0.0692812 -0.07870688
000310 ed c6 26 3e 0d e1 bf bd 9c bf ea 3d 6f bf 3b 3c
       0.16286822 -0.09369097 0.11462328 0.011459216
000320 1d ce 51 bd 51 6d 1a be 62 d7 0e be d0 94 02 be
       -0.051221956 -0.15080763 -0.1394935 -0.1275208
000330 61 56 a7 bd e6 ad 8b bc 26 40 db bd 33 21 02 be
       -0.08170772 -0.017050695 -0.10705595 -0.12707977
000340 b9 82 e9 bc fe e5 77 3d 59 68 b3 3c 0d ce ea bd
       -0.028504716 0.060522072 0.021900343 -0.11465082
000350 aa 03 e2 bc 07 1b ca bd 28 d6 ca b9 47 f4 c3 bc
       -0.027589638 -0.09868436 -0.00038688 -0.023920191
000360 98 af 29 3c 8f 36 a2 3d d7 6b 0e bb af bc 6d bb
       0.010356806 0.079205625 -0.0021731758 -0.0036275794
000370 2a f1 eb 3d cd a6 1d bd 3e 87 b0 bd e3 39 a0 bd
       0.11520608 -0.03848915 -0.086195454 -0.07823541
000380 38 de ac 3d 30 7e 62 bd 87 fc d7 bd b6 35 d4 3b
       0.08440822 -0.055296123 -0.10546213 0.0064761294
000390 61 5c f5 3d f5 19 0b bd c7 f3 e8 bd 6f 5d 02 be
       0.119805105 -0.0339603 -0.11374622 -0.12730955
0003a0 d4 76 0d 3e 85 ec e8 bc 8a fe eb bc 1c c1 0c be
       0.1381486 -0.028433094 -0.028807897 -0.1374554
0003b0 48 32 3c 3d 07 7a fa bd ab bb c0 bd 2d 9a e3 bb
       0.04594639 -0.12230306 -0.09410795 -0.0069458694
0003c0 03 0c 9c 3b ce 1c 66 bd 51 bf 4d be fc c1 33 3d
       0.004762174 -0.056179814 -0.20092513 0.04388617
0003d0 9a cc fa 3d 7e c7 03 3e f4 a6 01 be e5 36 14 bd
       0.12246056 0.12869069 -0.12661344 -0.036185164
0003e0 77 47 03 3e b6 0c b3 bd 99 4b 0a be 03 01 98 3d
       0.1282023 -0.08742659 -0.135054 0.07422068
0003f0 74 6f d2 3d f4 e5 55 3d c0 7e c1 bd 0e fa aa 3d
       0.10275164 0.052221254 -0.09448004 0.083484754

linear2.bias f4 [50]
000000 7a d7 18 be e8 a1 91 3d cf 9d 75 3d 25 c4 10 3e
       -0.14925948 0.07110959 0.05996495 0.14137323
000010 ed 07 f9 bd cc 70 10 3d f0 8b f0 bd 9a 33 00 3d
       -0.12159715 0.03526382 -0.11745441 0.03129921
000020 3b a7 a4 bd a5 fa a0 3d c9 28 f9 3d 53 1c 91 bd
       -0.08039709 0.07860307 0.12165982 -0.070854805
000030 f1 b8 28 be d4 a5 15 be de e2 21 bd 06 4b 71 bd
       -0.164768 -0.1461404 -0.039522998 -0.05890944
000040 aa 84 ce 3d 2a 36 14 3d a3 93 3a 3b 55 cb 26 3d
       0.100838974 0.036184467 0.0028469346 0.040721256
000050 1c 57 cf bb f3 7f 2f bc 28 e9 34 3e 69 25 1f bd
       -0.006327523 -0.010711658 0.17667067 -0.038854036
000060 2b 01 13 3d 53 7e 88 3d a8 cd 76 3c 35 8a f9 3d
       0.035889786 0.066647194 0.015063681 0.12184564
000070 96 7c bb 3d 2c 23 76 bd fb 48 8e 3d aa d5 a9 3d
       0.09154622 -0.060092136 0.06947514 0.08292706
000080 a9 00 fe 3c 6e 62 c1 bc 37 4d 27 be cd 60 90 bd
       0.031006174 -0.023606505 -0.16338049 -0.07049713
000090 1b 17 26 be 16 a7 42 bd 80 4b ed 3d 26 98 d8 bc
       -0.16219752 -0.047522627 0.11586666 -0.026439738
0000a0 5b 7d cd 3d df 11 e0 3c bc 62 a9 bd a6 04 97 3d
       0.10033675 0.027352272 -0.08270785 0.073739335
0000b0 41 b1 96 3c 64 e3 c1 bc ef 61 41 bd 6e 10 c6 bd
       0.018395068 -0.023667999 -0.047212537 -0.096711025
0000c0 4b e5 88 bd 99 c6 e6 bd
       -0.06684359 -0.11268348

linear3.weight f4 [2, 50]
000000 db 48 04 be 32 41 42 bc af a5 85 3d 96 0e 9e 3d
       -0.12918417 -0.011856364 0.06525742 0.07717626
000010 30 f7 6d 3d 3e 7b fa 3c c9 05 9c bc 46 43 b8 3d
       0.058097064 0.030576345 -0.019045727 0.089972064
000020 19 2b 3c bc 3a 16 fe 3d c4 60 d4 3d 3d b8 3f 3c
       -0.011484885 0.12406583 0.10370019 0.011701641
000030 a6 a2 fc bd d5 d4 0a be d0 33 a6 bb b7 c9 5d 3d
       -0.1233571 -0.13557751 -0.0050720945 0.05414745
000040 80 84 e3 3d 79 da 80 3d 77 69 7c bd 5e 2e 90 3d
       0.11109257 0.0629167 -0.061624017 0.07040094
000050 30 b2 aa bd 83 ab e9 bd c8 cf 17 3d 86 f3 0b 3e
       -0.08334768 -0.114096664 0.03706339 0.13667116
000060 a0 27 f1 3d b6 42 97 3d 89 e8 ab 3d 38 ac b0 3d
       0.11775136 0.07385771 0.08393962 0.08626598
000070 78 ce d2 3d 86 b9 0d be f9 14 06 3e d7 e3 b8 3d
       0.10293287 -0.13840303 0.13093938 0.09027832
000080 17 ab 31 bc f3 42 e7 bd 4c 84 fd bd d4 27 e1 3d
       -0.010844014 -0.112920664 -0.12378749 0.10993925
000090 30 07 9e 3c 0c 3f b6 bd af e5 ac bd 8a f0 4c 3d
       0.019290537 -0.08898744 -0.08442246 0.050034083
0000a0 61 60 0b 3e e6 84 98 3d a9 a0 a8 3d 51 2d c1 3d
       0.13610984 0.07447223 0.082337685 0.094324715
0000b0 3a e5 cd bd e6 88 a6 bd 01 b7 c7 bd 02 58 a1 3d
       -0.10053487 -0.0813158 -0.09751702 0.07878114
0000c0 14 5a 13 be b3 a9 68 bd 81 4b 60 3d 6b 3d 3e bc
       -0.14389831 -0.056802463 0.054759506 -0.011611323
0000d0 64 a3 f8 bd cc 93 47 bd e8 ea b8 3d d9 a5 10 3d
       -0.12140539 -0.048724934 0.0902918 0.035314415
0000e0 16 f1 b5 3d 85 b0 02 bd c2 31 12 3e 90 23 87 3b
       0.08883874 -0.031906623 0.14276794 0.0041241124
0000f0 00 8e 03 3d b0 df 82 bd b6 f7 00 bc 96 b4 6a bd
       0.032117844 -0.06390321 -0.007871559 -0.057301126
000100 55 f8 6b 3d d7 de c1 bd db 42 ac bd 22 63 05 bd
       0.057609875 -0.094663315 -0.08411189 -0.032565244
000110 8e 3b 0a 3d 61 00 9c 3d 1c e8 84 3d 4b 6a db 3d
       0.033748202 0.0761726 0.06489584 0.10713633
000120 b1 75 c0 bd ff a5 0f 3e 98 17 96 3c 06 6d 1a bd
       -0.09397448 0.14028166 0.018321797 -0.03770163
000130 a6 7a e6 3d 83 40 0e be 86 49 06 be e6 0c 34 3b
       0.11253862 -0.13891797 -0.13113984 0.0027473508
000140 74 a4 11 3d f2 6e 03 be 46 79 a8 3d 4c d6 b8 3d
       0.035557225 -0.12835291 0.08226256 0.09025249
000150 06 17 c1 3c b7 84 1e be 6e 07 e3 3d d5 37 d8 3d
       0.023570549 -0.15480314 0.110854015 0.10557524
000160 e0 d5 ba 3b 38 4c e5 bd fc 99 3d bd 95 2c 9a bd
       0.0057017654 -0.11196178 -0.04628943 -0.075280346
000170 ad f0 a6 3d e8 8d 66 bc 0e 62 26 3c 45 eb 1e bd
       0.08151374 -0.014071919 0.010155214 -0.03879859
000180 36 3d 89 bb 2b ad fc 3d ce b2 02 bd 35 7a 12 3e
       -0.004188205 0.12337717 -0.031908803 0.14304431

linear3.bias f4 [2]
000000 94 91 0b 3d 91 ce 0a be
       0.03407438 -0.13555361
