1/checkpoints/origin/2020-11-16T10-33-35-16-classify/classify_fold0_origin_0.952308.pth (torch, 4069 bytes, 6 tensors)

linear1.weight f4 [15, 6]
000000 88 5b 2e 3e 5b 12 07 3e 65 d4 b9 bd 2e 00 8c be
       0.17027104 0.13190596 -0.09073714 -0.27343887
000010 23 b3 9d be 8a 8e 0d bd 75 bf 97 be d8 b5 86 3e
       -0.30800733 -0.034559764 -0.29638258 0.2631061
000020 11 f5 78 be 89 ac 42 be 22 fb 81 3e eb d8 b6 3e
       -0.24312235 -0.1901113 0.25386912 0.3571237
000030 83 49 d0 3e 32 98 18 3e 6d dd f7 3d 4d cf 82 be
       0.40681085 0.14901808 0.121027805 -0.25548783
000040 7f 4e 13 3e e7 06 02 3e 35 5b 3e be 6c 0a 19 3e
       0.14385413 0.12697946 -0.1858948 0.14945382
000050 00 5e 4a 3e 56 67 e5 3d 2d 4e 0a be 1c 0d 45 3e
       0.1976242 0.112013504 -0.13506384 0.19243282
000060 5b e7 7a 3e 48 27 c7 3e da d8 92 3e 6e c0 80 3e
       0.24502318 0.38897157 0.2868107 0.25146812
000070 dc 5e 16 be 88 fa 2b bd 53 19 a0 3e 40 2d 98 3e
       -0.14684623 -0.041986972 0.3126932 0.29722023
000080 31 95 5e be 7d e1 fa 3d 57 7e 3b bd c1 c6 8c 3e
       -0.217366 0.1225004 -0.045774784 0.27495387
000090 08 c1 a2 bd 7e ce 1d 3e b5 34 c3 be f6 07 80 be
       -0.07946974 0.15410802 -0.3812615 -0.25006074
0000a0 17 7b 8a be 0c 99 8b be fb 01 83 be f9 46 cd bd
       -0.27047035 -0.27265203 -0.25587448 -0.100233026
0000b0 6c 63 51 be 89 68 99 3e 4d b9 34 3d a5 e3 c3 be
       -0.20448083 0.29962566 0.04412203 -0.38259616
0000c0 e2 0d 91 be bd 06 0a be a4 30 b5 3e 33 a9 b9 be
       -0.28330904 -0.13479133 0.35388672 -0.362619
0000d0 92 26 dc be a2 42 d3 3d 4a 42 d4 3e fe a8 59 be
       -0.42998177 0.103154436 0.41456825 -0.21255872
0000e0 98 04 b9 3d ff 31 d0 b9 fd c3 d5 3e e0 c0 a5 be
       0.09034079 -0.00039710102 0.4175109 -0.32373714
0000f0 44 bc 61 be d9 6e a0 3d 58 64 ba 3e 45 24 9e 3e
       -0.22044474 0.078336425 0.3640468 0.30887046
000100 c1 24 be 3d 64 ea db 3c 9b 7b 50 be 28 10 32 3e
       0.09284354 0.026845165 -0.20359652 0.17388976
000110 2f 0a a8 3e d2 11 08 be da d9 e8 bb c1 a8 f3 3b
       0.3282027 -0.13288048 -0.007106048 0.0074358885
000120 b4 45 dd 3d c6 dc 48 be 2b 59 91 be cc f4 0c 3e
       0.108043104 -0.19615468 -0.28388342 0.13765258
000130 90 92 53 be eb a1 3b 3c c2 07 53 3e 1a 5d e9 3d
       -0.20661378 0.0114521785 0.20608428 0.11394711
000140 f3 48 e9 3a 49 65 86 3e bb 81 a7 3e b3 e1 11 be
       0.001779823 0.2624915 0.32716164 -0.14246254
000150 b1 06 87 bc 84 a5 c7 be 69 86 9b be e5 32 10 3e
       -0.016482683 -0.38993466 -0.30375984 0.14081915
000160 87 ba fc bd 23 af c2 3e
       -0.12340265 0.38024244

linear1.bias f4 [15]
000000 3f 30 c1 be f1 06 87 be c4 67 49 3c 23 bf e2 be
       -0.3773212 -0.26372483 0.012292806 -0.4428645
000010 15 a9 9a be 99 7b 33 3e b9 09 7f bc d8 78 bc 3e
       -0.30207124 0.17527618 -0.015566283 0.36810946
000020 3e 0e 6e 3d 60 61 98 3e 2b 6e 64 be 27 39 b6 3e
       0.05811905 0.2976179 -0.2230765 0.3559048
000030 35 47 aa be 84 78 b4 3d be 13 5e be
       -0.33257452 0.08812049 -0.21687219

linear2.weight f4 [15, 15]
000000 11 4d 89 bc d7 64 e6 bd 53 97 8f bd 5d 72 6c be
       -0.016760381 -0.112497024 -0.07011285 -0.23090501
000010 fe 64 80 bd 0e 7a ce 3d d0 f3 0c 3c 4d 55 d7 3d
       -0.06269263 0.10081874 0.008603051 0.10514317
000020 60 92 70 bd d7 52 ab bd be 8b 01 bd df 95 e7 bd
       -0.058733344 -0.0836541 -0.03162741 -0.113078825
000030 a2 18 6e 3e d0 c1 0b 3e 78 43 b4 bd e6 6c 4e 3e
       0.23251584 0.13648152 -0.08801931 0.20158729
000040 35 c3 0c 3e db d3 e8 bd 16 ae 20 3d 9d 2d 1c 3e
       0.1374634 -0.11368533 0.03922852 0.15251775
000050 3e d8 63 be 41 97 4b bc 79 4b 0a be fa a1 cb bd
       -0.22250459 -0.012426198 -0.13505353 -0.09943004
000060 8a 7e 85 be de ba c5 3d a6 11 70 3e de b3 3b 3e
       -0.26073104 0.09654783 0.23444232 0.18330333
000070 f7 fc 3c 3d 0a 52 3f be 13 db cf bd 6c 2d c7 3d
       0.046139684 -0.18683639 -0.10149207 0.097254604
000080 91 2b 19 be 93 5e 88 3c a6 56 41 be 3d 60 90 3e
       -0.14958026 0.016646659 -0.1888071 0.28198424
000090 ba ff 47 be d4 45 4c be c9 1c da bd 77 cd 52 3e
       -0.19531146 -0.19948512 -0.106500216 0.20586191
0000a0 6c 80 2c 3e 93 53 a8 3d bf c8 30 be 12 7a 37 3e
       0.16845864 0.082190655 -0.17264079 0.1791766
0000b0 a1 2e ab bd 8f 4b 58 bb f5 c9 2f 3d 9e e9 8a bc
       -0.08358503 -0.003300402 0.04291721 -0.0169571
0000c0 cb 4a bc bd a0 61 2f be c3 f9 2b be c1 c3 53 be
       -0.09193953 -0.17127085 -0.16794495 -0.20680143
0000d0 ec 1f 83 ba 3e d5 48 bc 2d 6e 86 be f4 44 56 3e
       -0.001000402 -0.012257872 -0.26255932 0.20924741
0000e0 6a 00 4b 3d ba ba 70 3e ec 3b 31 3d a4 6f a2 bd
       0.04956094 0.2350873 0.043270037 -0.0793145
0000f0 e5 ac 9c ba 74 bc 11 be 66 a4 77 bd 9c 6e 63 3b
       -0.0011953382 -0.14232045 -0.060459517 0.003470338
000100 50 a4 7d 3d eb 27 0b 3e d2 e8 7d 3e f9 2c 1b 3e
       0.06192428 0.13589446 0.24795845 0.15153874
000110 e5 ad 61 bd f7 e6 32 3e 4e 90 b7 3d 68 66 c0 3d
       -0.05509748 0.17470919 0.08963071 0.093945324
000120 5b 7b 1d 3e 78 c3 92 3e 61 6e 21 3e c8 83 13 3e
       0.15379088 0.28664756 0.15764762 0.1440574
000130 4b f5 bf 3d 5c 7e 95 3e 8e 9f 2a bc 09 0c 90 3e
       0.09372958 0.29197967 -0.010414017 0.28134182
000140 b8 4c 61 bd e8 35 68 be da 8c 0b 3e 0c a9 1e 3e
       -0.055004805 -0.22676814 0.1362795 0.15494174
000150 66 8a c2 3d 09 62 4b 3d 18 e9 aa 3d c0 9a 47 bd
       0.09499054 0.04965404 0.0834524 -0.048731565
000160 9e b8 98 3e fc 12 cd 3d 51 a5 10 be 97 15 63 bd
       0.29828352 0.100133866 -0.14125563 -0.05544051
000170 91 83 fc bc d4 30 cd bd 6d 84 ae 3d 93 37 80 3e
       -0.030824455 -0.10019079 0.08521352 0.250424
000180 f2 51 ad 3d b2 73 6c 3e d2 b8 5c bc 43 9c a5 3d
       0.084628955 0.2309101 -0.013471799 0.08086445
000190 06 5d 45 bc 1a 82 3d 3e ac b7 15 3b 8c 74 49 be
       -0.012046104 0.18506661 0.0022845073 -0.19673365
0001a0 f4 32 48 be 42 df cf 3d 72 ce 25 bd fb e3 23 be
       -0.19550687 0.10150005 -0.040480085 -0.16004936
0001b0 4a db 6a be cc a3 0f be 3e 0f be 3d b8 ae 9d bd
       -0.22935215 -0.14027327 0.09280251 -0.076993406
0001c0 84 01 6a be b7 44 d0 bc 1a d3 3e 3d bd e8 58 be
       -0.2285214 -0.02542339 0.04658804 -0.21182533
0001d0 c7 75 51 bd d1 53 6c 3e 50 87 44 be 5f 13 59 bd
       -0.05113771 0.23078848 -0.19192243 -0.05299699
0001e0 86 7d 23 bb a9 b6 18 3e 55 eb 22 bd d9 59 10 3e
       -0.0024946644 0.1491343 -0.03977521 0.14096774
0001f0 ad 72 6c be 39 de 05 be c5 78 30 3e 53 8c 89 3d
       -0.2309062 -0.13073052 0.1723357 0.06716218
000200 5a e4 77 3e cc 97 a9 bd 99 3e 06 be 2c 50 74 3d
       0.24208203 -0.08280906 -0.13109817 0.05964677
000210 0b d3 6e 3c 63 f1 05 3e 6e be 69 be 5e 1d a9 3e
       0.014576684 0.13080363 -0.2282655 0.33030218
000220 d6 04 18 3e 67 a1 1e 3e e6 3f 8b 3c f0 87 89 bd
       0.14845595 0.15491258 0.016998243 -0.06715381
000230 75 09 97 3e bc 56 64 be dd 2e 03 3e ce 17 f9 bd
       0.29499403 -0.22298712 0.12810846 -0.121627435
000240 27 02 88 3e c0 c1 ee bb d7 0b 96 bd 20 0c ab 3d
       0.26564142 -0.0072862804 -0.07326477 0.08351922
000250 21 8c 75 3e 99 6d 63 3e 51 99 59 be ec 1b 6c bd
       0.23979236 0.22209777 -0.21249892 -0.057643816
000260 41 e7 04 3e 3d 08 29 be 11 43 d4 3d 3a 5b f3 3d
       0.12978841 -0.16507049 0.103643544 0.118826345
000270 9d 3d 1a 3d bb e7 8e 3d 0e a6 55 be f1 bc 00 3e
       0.037656415 0.06977793 -0.20864126 0.12572075
000280 2d 67 fc 3c 12 d8 3e be 06 d6 5d 3d c7 a6 fa 3d
       0.030810917 -0.18637112 0.054159187 0.122388415
000290 b7 23 45 be 42 a4 ad bc 4a b0 36 be d9 a7 0f 3d
       -0.19251905 -0.021196488 -0.17840686 0.03507218
0002a0 2a 01 19 bd 71 02 50 be 1b cb ef 3d 77 49 16 be
       -0.037354626 -0.20313431 0.11708661 -0.14676462
0002b0 5d 14 ee 3a ed 95 e3 bd a9 1f 95 3e e0 7c 39 3d
       0.0018164028 -0.111125804 0.29125717 0.045285106
0002c0 f7 a6 28 3e 18 46 3c be 3e 84 3e 3e 20 3f 5e 3d
       0.16469942 -0.18386114 0.18605134 0.05425942
0002d0 37 ca 7b be df 9b b0 bc e8 eb 81 be 2f b9 80 3e
       -0.24588858 -0.0215587 -0.25375295 0.25141284
0002e0 9a 64 e7 3d 89 6c 88 be 32 16 b2 3d 21 cb 14 be
       0.11298485 -0.26645306 0.0869564 -0.14530613
0002f0 7c bc 13 3d f5 50 f6 3d 72 88 cb bd a7 8d 36 3e
       0.036068425 0.1202716 -0.09938134 0.17827474
000300 a6 a8 11 be dc 9b 36 be 21 28 e2 bd e7 87 70 be
       -0.1422449 -0.17832893 -0.1104281 -0.23489343
000310 23 d6 00 3d 42 50 36 3e d3 33 0d be b9 2e 9c 3d
       0.031454217 0.17804053 -0.137893 0.07626099
000320 e0 65 8b bd a4 a0 24 3c 61 2d 31 3e 6b bf 20 be
       -0.068065405 0.010048065 0.17302467 -0.1569802
000330 72 3e 81 3d d8 4b 4b 3e 39 0d 53 3e 92 de cb bc
       0.063107386 0.19853151 0.20610513 -0.024886403
000340 c0 ee 17 bd 32 24 f2 3c 2e e8 f5 bd 9e 6b b0 3d
       -0.037092924 0.029558275 -0.120071754 0.08614276
000350 ab 34 30 be 3e 54 93 3d f1 7f d8 39 89 16 59 be
       -0.17207591 0.07193802 0.00041294054 -0.21200003
000360 7a 47 f3 bd 4f ba 1e 3a 51 ca 46 be f9 a4 a5 3c
       -0.118788674 0.0006054984 -0.19413115 0.020220267
000370 9c 1f b0 bd 65 6f 30 3e 62 4e 56 3e 6b 68 35 3e
       -0.08599779 0.17229994 0.20928338 0.17715614
000380 0a a5 b5 bd
       -0.08869369

linear2.bias f4 [15]
000000 af 69 8e 3c b5 e1 38 3c c4 a1 b7 3e 00 c7 37 3e
       0.017384378 0.0112842815 0.35865605 0.17947006
000010 f3 06 8c 3e 06 cd 42 3c 26 0e 90 3e d6 e6 f8 bc
       0.27349052 0.011889702 0.28135794 -0.030383509
000020 d7 5b fe bc 6a 25 d0 bd c9 e2 94 be 71 a6 09 bc
       -0.031049652 -0.10163386 -0.29079273 -0.008401499
000030 99 c6 38 be ba 7f 55 3e 50 f0 ce 3d
       -0.18044509 0.20849505 0.1010443

linear3.weight f4 [2, 15]
000000 74 37 51 3e c3 53 56 be 15 23 67 3e 2c 7d 00 3e
       0.2043131 -0.2093039 0.22571976 0.1254775
000010 ba ff 0b 3d 6e 33 1d 3d 4d 5c be 3d 2b 2f 02 3e
       0.034179427 0.038379125 0.09294949 0.12713306
000020 38 3d 4c 3e cf be 3c 3e ff f5 6b bc f1 06 c2 3e
       0.19945228 0.18432163 -0.014401912 0.3789592
000030 f2 bd 8a be 32 c3 96 3d 2d dc 23 3e f2 80 36 be
       -0.27098042 0.07361449 0.16001959 -0.17822626
000040 8c f4 59 3e a5 78 65 be a7 d1 90 bd f8 e5 21 be
       0.21284693 -0.22409303 -0.07071238 -0.15810382
000050 8a 5f 43 bd 19 27 c0 bc 50 91 05 be 5d 1e 76 3e
       -0.047698535 -0.023456143 -0.13043714 0.2403502
000060 a0 b1 5f be 99 14 83 bc 26 20 90 be e1 72 28 3e
       -0.21845102 -0.016001033 -0.28149527 0.16450073
000070 b5 4c 60 3d f2 ee cb 3d
       0.054760654 0.099576846

linear3.bias f4 [2]
000000 08 c5 03 be 86 db 87 bd
       -0.1286813 -0.06633668
