1/checkpoints/origin/2020-11-16T10-33-35-16-classify/classify_fold0_origin_0.930769.pth (torch, 4069 bytes, 6 tensors)

linear1.weight f4 [15, 6]
00000000: 80b6 2f3e a76e 0a3e fd38 b4bd 5fa3 8bbe
00000010: fc89 9dbe 5d40 02bd 43c6 95be f2ca 873e
00000020: 3bcb 76be 711f 45be 0057 843e fa03 b83e
00000030: 0470 c43e af72 273e fe54 003e dfa4 61be
00000040: d8e8 cb3d deea f43d b79a 27be bfeb 013e
00000050: 684b 463e bb6e a03d f8b1 c1bd 9589 4b3e
00000060: 9f7f 893e 97c3 c23e 4e4e 913e 8b58 633e
00000070: 8020 b1bd f97e 40bd 5b98 8f3e 3ceb 903e
00000080: 2946 6bbe c598 023e b3b5 dbbd d42d 883e
00000090: 08c1 a2bd 7ece 1d3e b534 c3be f607 80be
000000a0: 177b 8abe 0c99 8bbe fb01 83be f946 cdbd
000000b0: 6c63 51be 8968 993e 4db9 343d a5e3 c3be
000000c0: ab49 8bbe 1ef2 14be 8611 b63e 2dbe c9be
000000d0: f3ed c0be 376d b93d acc6 c73e 97b9 4bbe
000000e0: cc41 c23d f55c f83c d537 b43e eab0 a3be
000000f0: 74af 72be 7872 dc3d 607d bd3e 9c31 ab3e
00000100: 8dda 233d 78e9 0d3d 4641 4ebe e482 303e
00000110: 81d3 a73e 81d6 13be 6866 cbbc 9843 be3c
00000120: 889e ec3d 5f36 44be b0c1 8dbe 71b2 143e
00000130: cca7 4cbe bb35 953c b1d3 363e b6e3 e43d
00000140: e9fc c13b 89c4 953e f708 803e 9097 0dbe
00000150: b106 87bc 84a5 c7be 6986 9bbe e532 103e
00000160: 87ba fcbd 23af c23e
0.17159462 0.13518773 -0.08799932 -0.2727308 -0.30769336 -0.031799663 -0.29252824 0.26522022
-0.24100964 -0.19250275 0.25847626 0.35940534 0.3836671 0.16352342 0.12532422 -0.2203555
0.09956521 0.1195886 -0.16367613 0.12687586 0.19364703 0.0783362 -0.09457773 0.19876702
0.2685518 0.38039848 0.28380054 0.22201745 -0.08648777 -0.04699609 0.28045925 0.2830447
-0.22975983 0.1275359 -0.10728016 0.26597464 -0.07946974 0.15410802 -0.3812615 -0.25006074
-0.27047035 -0.27265203 -0.25587448 -0.100233026 -0.20448083 0.29962566 0.04412203 -0.38259616
-0.27204642 -0.14545485 0.35560244 -0.39402905 -0.3768154 0.09054034 0.39018762 -0.19895016
0.09485206 0.030317763 0.35198846 -0.31970912 -0.23699743 0.10764021 0.37009716 0.33436286
0.04000335 0.03464648 -0.20142087 0.17237431 0.32778552 -0.14437295 -0.024829105 0.02322559
0.11553675 -0.19161366 -0.27686834 0.14521195 -0.19985884 0.018214097 0.17854191 0.11176245
0.005920042 0.29251507 0.2500684 -0.13827348 -0.016482683 -0.38993466 -0.30375984 0.14081915
-0.12340265 0.38024244

linear1.bias f4 [15]
00000000: 0617 c1be ccaa 84be f06f 04bd c9df cdbe
00000010: a15c 77be 8635 e83d b909 7fbc d878 bc3e
00000020: ce1b e43d e984 6d3e 5958 8dbe 6241 ad3e
00000030: f3d0 a6be 3448 313c be13 5ebe
-0.37712878 -0.25911558 -0.032333314 -0.40209797 -0.24156429 0.11338334 -0.015566283 0.36810946
0.11138116 0.23195232 -0.27606466 0.33838946 -0.3258129 0.010820437 -0.21687219

linear2.weight f4 [15, 15]
00000000: 114d 89bc d764 e6bd 5397 8fbd 5d72 6cbe
00000010: fe64 80bd 0e7a ce3d d0f3 0c3c 4d55 d73d
00000020: 6092 70bd d752 abbd be8b 01bd df95 e7bd
00000030: a218 6e3e d0c1 0b3e 7843 b4bd 8880 5a3e
00000040: 5912 023e 127b d9bd fb84 f73c c2e7 1a3e
00000050: e3f5 4dbe 4197 4bbc 794b 0abe 33c4 d6bd
00000060: 2990 80be ca02 b23d 07fd 6a3e 7bb8 3b3e
00000070: 00ea 3a3d 0a52 3fbe 31d3 20be 6c2d c73d
00000080: 6006 22be 10b4 ca3c 17eb 3fbe 7a3f 503e
00000090: baff 47be d445 4cbe 9715 dabd bef6 3b3e
000000a0: dd2a 323e eb26 ab3d c7fd 36be 2124 323e
000000b0: a12e abbd c7ee 5bbb 4570 303d a955 86bc
000000c0: f217 bbbd 56cb 2ebe dc19 2cbe c1c3 53be
000000d0: ec1f 83ba ec59 3fbc 4924 86be 75d8 563e
000000e0: 974e 4d3d baba 703e 7437 333d a46f a2bd
000000f0: 77c4 d8bc ec27 09be 72d1 94bd 773a 453c
00000100: 4733 783d 1040 b53d d2e8 7d3e f92c 1b3e
00000110: fdc4 43bd e23c 253e fa43 cb3d fabf c83d
00000120: 91b9 1b3e 8562 8f3e 616e 213e f3b4 f93d
00000130: 647c d83d 55b5 8e3e 65f7 d639 5ce9 8f3e
00000140: 5d91 c2bd e835 68be da8c 0b3e 0846 263e
00000150: a834 9c3d 9983 793d b852 b73d 3349 51bd
00000160: 1db0 953e fc12 cd3d 897a 1abe 0dcf 34bd
00000170: deca 26bd 7ddb b9bd a2f7 ae3d 10ea 643e
00000180: f251 ad3d b273 6c3e 0861 23bc 92c0 803d
00000190: 1123 68bb a34c 433e da1b ec38 1ce4 4cbe
000001a0: f432 48be 42df cf3d 72ce 25bd fbe3 23be
000001b0: 4adb 6abe cca3 0fbe 3e0f be3d b8ae 9dbd
000001c0: 8401 6abe b744 d0bc 1ad3 3e3d bde8 58be
000001d0: c775 51bd d153 6c3e 5087 44be 5f13 59bd
000001e0: 867d 23bb a9b6 183e cde4 22bd 7d5a 103e
000001f0: 3571 6cbe 39de 05be c578 303e 538c 893d
00000200: aee4 773e ef9b a9bd 683d 06be 6f55 743d
00000210: 0bd3 6e3c 3bf5 053e 6ebe 69be a053 903e
00000220: 7738 293e 7e3a c33d 3f4f 05bd c493 f6bd
00000230: 3df5 663e bc56 64be dd2e 033e 9f60 45be
00000240: d613 503e fa6f 79bd be8c 08be 0476 a53d
00000250: 343d 3b3e 996d 633e c30a 58be 4305 6cbd
00000260: f9a0 063e 84df 27be 4544 d73d 047a fd3d
00000270: 9d3d 1a3d bbe7 8e3d 5785 54be b09d 023e
00000280: fb74 023d f56e 3dbe 120a 613d fe56 fe3d
00000290: b723 45be 1798 80bd 4ab0 36be 7de4 983c
000002a0: 669e b1bc c47b 4ebe bcc4 4e3d 7749 16be
000002b0: 5d14 ee3a 0132 d3bd 1e3c 873e 67b5 723d
000002c0: 55c1 303e 973b 3fbe a307 333e 203f 5e3d
000002d0: b7cf 70be e035 11bd 2d8a 7fbe 5ab0 733e
000002e0: 01e0 d63d 4a45 85be 3216 b23d 21cb 14be
000002f0: 1d84 fa3c a029 0c3e 05eb e5bd 5958 2c3e
00000300: a6a8 11be 5639 41be 2128 e2bd 4b74 66be
00000310: ca59 373d 8cff 363e c947 0cbe 9a52 a13d
00000320: 1ec9 32bd a4a0 243c 612d 313e ce60 25be
00000330: 9f8e 563d ec96 493e 720d 563e 8411 fbbc
00000340: 6c31 10bd 3224 f23c 2ee8 f5bd 9e6b b03d
00000350: ab34 30be 3e54 933d f17f d839 8916 59be
00000360: 7a47 f3bd 4fba 1e3a 51ca 46be f9a4 a53c
00000370: 9c1f b0bd 656f 303e 624e 563e 6b68 353e
00000380: 0aa5 b5bd
-0.016760381 -0.112497024 -0.07011285 -0.23090501 -0.06269263 0.10081874 0.008603051 0.10514317
-0.058733344 -0.0836541 -0.03162741 -0.113078825 0.23251584 0.13648152 -0.08801931 0.21338093
0.12702312 -0.10619177 0.030214777 0.15127471 -0.2011333 -0.012426198 -0.13505353 -0.10486641
-0.25109985 0.08691938 0.22948085 0.18332092 0.045633316 -0.18683639 -0.15705563 0.097254604
-0.15822744 0.024744064 -0.18742023 0.20336714 -0.19531146 -0.19948512 -0.10648649 0.18355843
0.17399164 0.083570324 -0.17870246 0.17396595 -0.08358503 -0.003355907 0.04307582 -0.016398268
-0.091354266 -0.17069754 -0.1680674 -0.20680143 -0.001000402 -0.011679154 -0.26199558 0.2098101
0.050123777 0.2350873 0.043754056 -0.0793145 -0.02646087 -0.13394135 -0.07266511 0.012037865
0.060595777 0.088501096 0.24795845 0.15153874 -0.047795285 0.16136506 0.09925075 0.098022416
0.15207507 0.28004852 0.15764762 0.121927164 0.10570601 0.2787272 0.00041001584 0.28107727
-0.09500382 -0.22676814 0.1362795 0.16237652 0.07627231 0.060916517 0.08951324 -0.0510952
0.29235926 0.100133866 -0.15085806 -0.04414277 -0.040720813 -0.09075067 0.08543326 0.22354913
0.084628955 0.2309101 -0.0099718645 0.0628673 -0.0035421292 0.19072203 0.00011258545 -0.20008892
-0.19550687 0.10150005 -0.040480085 -0.16004936 -0.22935215 -0.14027327 0.09280251 -0.076993406
-0.2285214 -0.02542339 0.04658804 -0.21182533 -0.05113771 0.23078848 -0.19192243 -0.05299699
-0.0024946644 0.1491343 -0.039768983 0.14097019 -0.2309006 -0.13073052 0.1723357 0.06716218
0.24208328 -0.08281695 -0.13109362 0.05965179 0.014576684 0.13081829 -0.2282655 0.281888
0.16525446 0.09532641 -0.032546278 -0.12039903 0.22554488 -0.22298712 0.12810846 -0.1927514
0.20320067 -0.060897805 -0.13334939 0.0807915 0.18285066 0.22209777 -0.21097855 -0.057622205
0.13147344 -0.16393858 0.10511068 0.12376788 0.037656415 0.06977793 -0.2075399 0.12755466
0.031849843 -0.18499358 0.054941244 0.12418936 -0.19251905 -0.06279009 -0.17840686 0.01866364
-0.021681976 -0.201644 0.05048059 -0.14676462 0.0018164028 -0.10312272 0.26413053 0.05925503
0.1726125 -0.18675075 0.17483382 0.05425942 -0.23516737 -0.03545177 -0.24955054 0.23797742
0.10491944 -0.26029426 0.0869564 -0.14530613 0.030580575 0.13687754 -0.11226467 0.16830577
-0.1422449 -0.18869528 -0.1104281 -0.225053 0.044763364 0.17870921 -0.13699259 0.07877083
-0.04364883 0.010048065 0.17302467 -0.1615021 0.052382108 0.19686478 0.20903566 -0.030648
-0.035203382 0.029558275 -0.120071754 0.08614276 -0.17207591 0.07193802 0.00041294054 -0.21200003
-0.118788674 0.0006054984 -0.19413115 0.020220267 -0.08599779 0.17229994 0.20928338 0.17715614
-0.08869369

linear2.bias f4 [15]
00000000: af69 8e3c ce88 1d3d 6d2a 903e 0f26 383e
00000010: cd64 6d3e 1b3d 12bd 20a3 773e d6e6 f8bc
00000020: b145 febc 1947 4dbe 9f81 92be a447 9ebd
00000030: 05da 14be a332 4d3e 50f0 ce3d
0.017384378 0.038460545 0.28157368 0.17983268 0.23182984 -0.035702806 0.24183321 -0.030383509
-0.03103909 -0.20046653 -0.28614518 -0.07728508 -0.14536293 0.20038848 0.1010443

linear3.weight f4 [2, 15]
00000000: 7437 513e c1fc 46be 0675 003e 93aa 003e
00000010: 10cc f53c a751 0f3d 83f7 b83d 2b2f 023e
00000020: ad41 4c3e 16d7 d23d 18f6 9bbc 824c 973e
00000030: 89ad 85be c808 933d 2ddc 233e f280 36be
00000040: 6797 503e f7b2 60be d625 92bd 1a58 21be
00000050: dd4b 3abd d37e 98bc 5091 05be 0ad0 753e
00000060: 38b4 01be aa50 80bb d7d6 6ebe c598 153e
00000070: 4d92 693d f2ee cb3d
0.2043131 -0.19432355 0.12544641 0.12565069 0.030004531 0.03498998 0.09031584 0.12713306
0.19946928 0.10294931 -0.019038245 0.29550558 -0.2610896 0.07179409 0.16001959 -0.17822626
0.20370255 -0.2194327 -0.07136123 -0.15756264 -0.045482505 -0.018615162 -0.13043714 0.24005142
-0.12666404 -0.003915866 -0.23324142 0.14609058 0.05702429 0.099576846

linear3.bias f4 [2]
00000000: 0609 27be 0dbe f0bc
-0.16312036 -0.029387498
