1/checkpoints/origin/2020-11-16T10-33-35-16-classify/classify_fold0_origin_0.956154.pth (torch, 4069 bytes, 6 tensors)

linear1.weight f4 [15, 6]
00000000: 6a47 2b3e 9f4d 0c3e 9f7d c9bd 9eac 8dbe
00000010: 448b 98be 0023 3dbd 5733 9abe a2b9 843e
00000020: 91ed 7cbe 8446 42be 5e1f 7e3e a89e b53e
00000030: fa40 d63e b519 123e 886a f73d 22d1 95be
00000040: fd9f 323e 323e 0d3e f8b8 49be 14c0 1f3e
00000050: 009f 493e c7e4 143e a6ac 28be d33c 3c3e
00000060: ec05 713e a4c5 cc3e e331 923e d260 8e3e
00000070: ebb3 3ebe a11b 28bd 863f 9f3e 296c 9a3e
00000080: 4467 66be 0605 cb3d 8cba dabc 69f3 773e
00000090: 08c1 a2bd 7ece 1d3e b534 c3be f607 80be
000000a0: 177b 8abe 0c99 8bbe fb01 83be f946 cdbd
000000b0: 6c63 51be 8968 993e 4db9 343d a5e3 c3be
000000c0: e275 95be 6019 fbbd 5316 b23e 4660 abbe
000000d0: 2a48 f3be 6de7 db3d 959a d83e eda9 88be
000000e0: 3e65 b43d ff96 fdbc 257a e63e 70d1 a4be
000000f0: 9755 62be ec0d 7b3d 9346 b73e e37f 923e
00000100: 3e2e 003e 7c14 793c 28a0 5ebe 9a33 313e
00000110: 6723 a43e 0f83 afbd 0772 6fbc 7d08 afbc
00000120: 0230 dc3d 1b43 49be cd96 91be 866e 0c3e
00000130: bb06 54be f85c 343c 81bd 5c3e 1271 d63d
00000140: e317 893a 4967 6e3e 37d3 bc3e a2bc 10be
00000150: b106 87bc 84a5 c7be 6986 9bbe e532 103e
00000160: 87ba fcbd 23af c23e
0.16726461 0.13701485 -0.098384134 -0.2767076 -0.2979375 -0.046175957 -0.30117294 0.25922877
-0.247 -0.18972212 0.24816653 0.35472608 0.41846448 0.14267619 0.12080866 -0.29261118
0.17443843 0.13793257 -0.19699466 0.15600616 0.1968956 0.14540397 -0.1647211 0.18382578
0.23537415 0.39994538 0.28553686 0.27808243 -0.18623321 -0.041041974 0.31103152 0.30160645
-0.2250033 0.099130675 -0.02670028 0.24213947 -0.07946974 0.15410802 -0.3812615 -0.25006074
-0.27047035 -0.27265203 -0.25587448 -0.100233026 -0.20448083 0.29962566 0.04412203 -0.38259616
-0.291915 -0.12260699 0.34782657 -0.33471888 -0.47515994 0.107375 0.42305437 -0.26692143
0.08808373 -0.03095579 0.45015064 -0.32191038 -0.22102962 0.061292574 0.3579603 0.28613195
0.1251764 0.015202638 -0.21740782 0.1730484 0.3205826 -0.08569919 -0.014614589 -0.021366352
0.10751344 -0.19654505 -0.28435364 0.13714036 -0.20705692 0.011008494 0.21556665 0.10470785
0.0010459389 0.23281588 0.36879894 -0.14134458 -0.016482683 -0.38993466 -0.30375984 0.14081915
-0.12340265 0.38024244

linear1.bias f4 [15]
00000000: eeca bbbe 6ef5 89be 78dc 313d f525 f2be
00000010: 07fb aebe a1af 473e b909 7fbc d878 bc3e
00000020: 9982 4f3c b838 a93e 9316 43be 1826 b23e
00000030: 6181 aabe 5949 053e be13 5ebe
-0.3667826 -0.2694506 0.043423146 -0.47294584 -0.34175894 0.19500591 -0.015566283 0.36810946
0.012665414 0.33051085 -0.1905158 0.34794688 -0.33301833 0.13016261 -0.21687219

linear2.weight f4 [15, 15]
00000000: 114d 89bc d764 e6bd 5397 8fbd 5d72 6cbe
00000010: fe64 80bd 0e7a ce3d d0f3 0c3c 4d55 d73d
00000020: 6092 70bd d752 abbd be8b 01bd df95 e7bd
00000030: a218 6e3e d0c1 0b3e 7843 b4bd b2a4 433e
00000040: bc8d 0d3e 89e6 f3bd 1730 343d c96f 1f3e
00000050: d15e 6ebe 4197 4bbc 794b 0abe c113 d0bd
00000060: 9163 89be 4327 d23d f1a4 713e deb3 3b3e
00000070: 3869 663d 0a52 3fbe 6c4d a2bd 6c2d c73d
00000080: 266d 18be 25ed 273c 4bb7 44be 16df 9a3e
00000090: baff 47be d445 4cbe 4267 d8bd 4952 623e
000000a0: fa41 293e de64 a73d e77b 30be 2a4a 373e
000000b0: a12e abbd 8f4b 58bb f5c9 2f3d 9ee9 8abc
000000c0: cb4a bcbd a061 2fbe c3f9 2bbe c1c3 53be
000000d0: ec1f 83ba 3ed5 48bc 2d6e 86be f444 563e
000000e0: 6a00 4b3d baba 703e ec3b 313d a46f a2bd
000000f0: 6996 383c 5ca0 13be 49d7 64bd 0cbb 18bb
00000100: 78ac 6d3d 97e8 173e d2e8 7d3e f92c 1b3e
00000110: 71de 62bd ce29 3a3e bf8f a93d cd15 ba3d
00000120: d588 1d3e bd0c 8e3e 616e 213e 8b70 203e
00000130: edb0 bd3d 04b1 973e 3f81 90bc 695b 8d3e
00000140: 17e1 31bd e835 68be da8c 0b3e e119 1e3e
00000150: 514f d33d 967a 293d e379 a23d af49 47bd
00000160: c8f7 923e fc12 cd3d 934a 07be 543e 66bd
00000170: 5062 d4bc 27dd d9bd cce2 a53d 9fe6 853e
00000180: f251 ad3d b273 6c3e cbee 43bc 6a05 b83d
00000190: 6e5c 9cbc e2ab 3a3e 4f53 1a3b 87a6 53be
000001a0: f432 48be 42df cf3d 72ce 25bd fbe3 23be
000001b0: 4adb 6abe cca3 0fbe 3e0f be3d b8ae 9dbd
000001c0: 8401 6abe b744 d0bc 1ad3 3e3d bde8 58be
000001d0: c775 51bd d153 6c3e 5087 44be 5f13 59bd
000001e0: 867d 23bb a9b6 183e 53eb 22bd d959 103e
000001f0: ad72 6cbe 39de 05be c578 303e 538c 893d
00000200: 5ae4 773e ca97 a9bd 993e 06be 2f50 743d
00000210: 0bd3 6e3c 63f1 053e 6ebe 69be cff4 b43e
00000220: 5ea0 0e3e ecc1 313e e75b 9f3c f5aa 80bd
00000230: 1d85 9f3e bc56 64be dd2e 033e 765b d6bd
00000240: dd15 963e f374 c3bb 5487 83bd 3257 ab3d
00000250: d2b7 6c3e 996d 633e 1400 5abe ec1b 6cbd
00000260: 8fa0 043e af62 29be 97a7 d33d 7578 f03d
00000270: 9d3d 1a3d bbe7 8e3d 0cd5 55be 7a90 003e
00000280: eb37 fa3c 453c 3fbe 97cd 5d3d b9dc f93d
00000290: b723 45be c82f 42bc 4ab0 36be 9b59 213d
000002a0: a731 30bd 0e94 52be 4a89 073e 7749 16be
000002b0: 5d14 ee3a 97e2 e0bd d88c 9a3e e485 273d
000002c0: 6e58 273e 7a28 3cbe 374c 3a3e 203f 5e3d
000002d0: 64ac 87be fc61 a7bc 0a55 85be 730c 833e
000002e0: b6b9 ed3d 9000 8fbe 3216 b23d 21cb 14be
000002f0: 468d 083d 31a4 e03d 24ae bfbd 75ba 373e
00000300: a6a8 11be 4f27 2abe 2128 e2bd 13f1 6ebe
00000310: 9149 f33c c3b7 353e 8cf1 0fbe 5f58 963d
00000320: b7f4 88bd a4a0 243c 612d 313e 9ee8 1fbe
00000330: bd27 873d 211b 493e 2465 513e 3432 cabc
00000340: bf90 29bd 3224 f23c 2ee8 f5bd 9e6b b03d
00000350: ab34 30be 3e54 933d f17f d839 8916 59be
00000360: 7a47 f3bd 4fba 1e3a 51ca 46be f9a4 a53c
00000370: 9c1f b0bd 656f 303e 624e 563e 6b68 353e
00000380: 0aa5 b5bd
-0.016760381 -0.112497024 -0.07011285 -0.23090501 -0.06269263 0.10081874 0.008603051 0.10514317
-0.058733344 -0.0836541 -0.03162741 -0.113078825 0.23251584 0.13648152 -0.08801931 0.19105795
0.13823599 -0.119092055 0.043991175 0.15569986 -0.23278357 -0.012426198 -0.13505353 -0.10160018
-0.26833776 0.10261395 0.23598076 0.18330333 0.05625269 -0.18683639 -0.07924923 0.097254604
-0.14885387 0.010249411 -0.19210546 0.30248326 -0.19531146 -0.19948512 -0.1056657 0.22101702
0.16529074 0.08173536 -0.17234765 0.17899385 -0.08358503 -0.003300402 0.04291721 -0.0169571
-0.09193953 -0.17127085 -0.16794495 -0.20680143 -0.001000402 -0.012257872 -0.26255932 0.20924741
0.04956094 0.2350873 0.043270037 -0.0793145 0.011266329 -0.14416641 -0.055869374 -0.0023304848
0.058025807 0.1483482 0.24795845 0.15153874 -0.055387918 0.1818001 0.082793705 0.090861894
0.15384229 0.27744094 0.15764762 0.15667932 0.092622615 0.2962724 -0.017639754 0.27608803
-0.043427553 -0.22676814 0.1362795 0.1543956 0.10317863 0.041376673 0.07933404 -0.048654255
0.28704667 0.100133866 -0.13212042 -0.056211784 -0.025925785 -0.106378846 0.08099899 0.26152512
0.084628955 0.2309101 -0.011958788 0.08985408 -0.019087043 0.1822963 0.002354819 -0.20668994
-0.19550687 0.10150005 -0.040480085 -0.16004936 -0.22935215 -0.14027327 0.09280251 -0.076993406
-0.2285214 -0.02542339 0.04658804 -0.21182533 -0.05113771 0.23078848 -0.19192243 -0.05299699
-0.0024946644 0.1491343 -0.039775204 0.14096774 -0.2309062 -0.13073052 0.1723357 0.06716218
0.24208203 -0.082809046 -0.13109817 0.05964678 0.014576684 0.13080363 -0.2282655 0.35343024
0.13928363 0.17359132 0.019453002 -0.062826075 0.31156245 -0.22298712 0.12810846 -0.104666635
0.29313555 -0.005964869 -0.06422296 0.083662406 0.23116997 0.22209777 -0.21289092 -0.057643816
0.12951873 -0.16541551 0.103346996 0.11741725 0.037656415 0.06977793 -0.20882052 0.12555113
0.030544242 -0.18675335 0.054151144 0.12200303 -0.19251905 -0.011852212 -0.17840686 0.039392095
-0.043016102 -0.20564291 0.13235965 -0.14676462 0.0018164028 -0.109807186 0.3018558 0.040899172
0.16342327 -0.18374816 0.18193136 0.05425942 -0.2649871 -0.020432465 -0.26041442 0.25595436
0.11607687 -0.27930117 0.0869564 -0.14530613 0.033337854 0.10968817 -0.093593866 0.17942221
-0.1422449 -0.16616558 -0.1104281 -0.2333415 0.029698165 0.17745881 -0.14056987 0.07341074
-0.06687301 0.010048065 0.17302467 -0.1561608 0.06599376 0.19639255 0.20448738 -0.024682142
-0.041397806 0.029558275 -0.120071754 0.08614276 -0.17207591 0.07193802 0.00041294054 -0.21200003
-0.118788674 0.0006054984 -0.19413115 0.020220267 -0.08599779 0.17229994 0.20928338 0.17715614
-0.08869369

linear2.bias f4 [15]
00000000: af69 8e3c 93dd febb b85b d03e 00c7 373e
00000010: ab3d 963e d2a4 0d3d 47ad 9b3e d6e6 f8bc
00000020: d05b febc de61 39bd 3e5b 95be f544 c93c
00000030: 62c5 54be a18b 633e 50f0 ce3d
0.017384378 -0.0077778785 0.40694976 0.17947006 0.29343924 0.034581013 0.30405638 -0.030383509
-0.031049639 -0.04525935 -0.29171175 0.024569014 -0.2077842 0.22221233 0.1010443

linear3.weight f4 [2, 15]
00000000: 7437 513e 0ffa 5fbe 851e 973e 2c7d 003e
00000010: 978a fa3c 3956 1d3d 6bc7 c23d 2b2f 023e
00000020: 383d 4c3e 1dfa 523e b2dd 57bc dacf d13e
00000030: b239 8cbe b765 943d 2ddc 233e f280 36be
00000040: e06d 633e d7ce 7abe a7d1 90bd c158 1dbe
00000050: c270 3ebd 813b c4bc 5091 05be 5d1e 763e
00000060: f546 77be 4ccc 94bc 0b69 9abe 0c5a 2f3e
00000070: 3ad3 683d f2ee cb3d
0.2043131 -0.21872734 0.29515472 0.1254775 0.030583663 0.038412306 0.09510692 0.12713306
0.19945228 0.20603223 -0.013175415 0.4097889 -0.27387768 0.07245963 0.16001959 -0.17822626
0.22209883 -0.24492966 -0.07071238 -0.15365888 -0.046494253 -0.023954155 -0.13043714 0.2403502
-0.24148162 -0.018163823 -0.30158266 0.17124194 0.056842066 0.099576846

linear3.bias f4 [2]
00000000: d04e dabd fd7a adbd
-0.106595635 -0.08470724
