1/checkpoints/origin/2020-11-16T10-33-35-16-classify/classify_fold0_origin_0.959231.pth (torch, 4069 bytes, 6 tensors)

linear1.weight f4 [15, 6]
0.16649938 0.13952713 -0.09939022 -0.2780841 -0.29328185 -0.050142694 -0.30117315 0.25922856
-0.24700023 -0.18972231 0.2481663 0.3547259 0.42193457 0.14154159 0.12083566 -0.29222497
0.16984718 0.14343861 -0.19992384 0.15710945 0.19667993 0.14507557 -0.16155253 0.17924374
0.23281197 0.40211526 0.28525963 0.2780376 -0.1857507 -0.044115335 0.30990192 0.3031321
-0.22682536 0.089860275 -0.021270836 0.23125105 -0.07946974 0.15410802 -0.3812615 -0.25006074
-0.27047035 -0.27265203 -0.25587448 -0.100233026 -0.20448083 0.29962566 0.04412203 -0.38259616
-0.29327032 -0.118913755 0.34752285 -0.3346438 -0.4741862 0.10567835 0.42633474 -0.27822253
0.0881065 -0.030687997 0.44719875 -0.31734407 -0.22073837 0.05794591 0.35755002 0.2859286
0.12609787 0.015196065 -0.22162753 0.17276888 0.3189617 -0.08656325 -0.011795811 -0.028910987
0.107407264 -0.19662407 -0.28444743 0.1370408 -0.2071466 0.010918646 0.2183005 0.10266966
0.0011382003 0.23290814 0.36749223 -0.13767129 -0.016482683 -0.38993466 -0.30375984 0.14081915
-0.12340265 0.38024244
00000000: d07e 2a3e 33e0 0e3e 1a8d cbbd 0a61 8ebe
00000010: 0a29 96be 6d62 4dbd 5e33 9abe 9bb9 843e
00000020: a1ed 7cbe 9146 42be 4e1f 7e3e a29e b53e
00000030: cf07 d83e 47f0 103e b078 f73d 839e 95be
00000040: 6bec 2d3e 92e1 123e d6b8 4cbe 4de1 203e
00000050: 7766 493e b18e 143e 076e 25be ac8b 373e
00000060: 4366 6e3e 0de2 cd3e 8d0d 923e f25a 8e3e
00000070: 6e35 3ebe 48b2 34bd 77ab 9e3e 2134 9b3e
00000080: e844 68be aa08 b83d 2d40 aebc 13cd 6c3e
00000090: 08c1 a2bd 7ece 1d3e b534 c3be f607 80be
000000a0: 177b 8abe 0c99 8bbe fb01 83be f946 cdbd
000000b0: 6c63 51be 8968 993e 4db9 343d a5e3 c3be
000000c0: 8727 96be 0e89 f3bd 84ee b13e 6f56 abbe
000000d0: 89c8 f2be e46d d83d 8c48 da3e 2f73 8ebe
000000e0: 2e71 b43d 6565 fbbc 3cf7 e43e ec7a a2be
000000f0: 3d09 62be b158 6d3d cc10 b73e 3c65 923e
00000100: cd1f 013e ebf8 783c 54f2 62be 53ea 303e
00000110: f34e a33e 1348 b1bd 3843 41bc bcd6 ecbc
00000120: 57f8 db3d d257 49be 18a3 91be 6c54 0c3e
00000130: 3d1e 54be 1fe4 323c 2b8a 5f3e 7844 d23d
00000140: aa2f 953a 797f 6e3e f127 bc3e b4f9 0cbe
00000150: b106 87bc 84a5 c7be 6986 9bbe e532 103e
00000160: 87ba fcbd 23af c23e

linear1.bias f4 [15]
-0.3619566 -0.2694508 0.039006975 -0.4699129 -0.34136724 0.20062841 -0.015566283 0.36810946
0.013569611 0.32762954 -0.18954915 0.35059574 -0.3331082 0.1289726 -0.21687219
00000000: 6052 b9be 75f5 89be c7c5 1f3d 6c98 f0be
00000010: b0c7 aebe 8971 4d3e b909 7fbc d878 bc3e
00000020: 1353 5e3c 0fbf a73e 2c19 42be 4981 b33e
00000030: 288d aabe 6511 043e be13 5ebe

linear2.weight f4 [15, 15]
-0.016760381 -0.112497024 -0.07011285 -0.23090501 -0.06269263 0.10081874 0.008603051 0.10514317
-0.058733344 -0.0836541 -0.03162741 -0.113078825 0.23251584 0.13648152 -0.08801931 0.18741311
0.13823578 -0.120637715 0.04368312 0.15527272 -0.23690522 -0.012426198 -0.13505353 -0.10166706
-0.27029225 0.10280118 0.2363299 0.18330333 0.056294315 -0.18683639 -0.079738714 0.097254604
-0.14869426 0.010324281 -0.19205017 0.30217147 -0.19531146 -0.19948512 -0.10457248 0.22342888
0.16580297 0.0823669 -0.17229283 0.17904884 -0.08358503 -0.003300402 0.04291721 -0.0169571
-0.09193953 -0.17127085 -0.16794495 -0.20680143 -0.001000402 -0.012257872 -0.26255932 0.20924741
0.04956094 0.2350873 0.043270037 -0.0793145 0.014622018 -0.14416611 -0.054432105 -0.0022059313
0.058285188 0.15169603 0.24795845 0.15153874 -0.055439953 0.183756 0.08250159 0.0903722
0.15385129 0.27737457 0.15764762 0.16035065 0.09262286 0.2975329 -0.017744584 0.27612072
-0.039967187 -0.22676814 0.1362795 0.15411858 0.10524838 0.040850427 0.07857046 -0.048641287
0.28678223 0.100133866 -0.12898067 -0.056211624 -0.024868906 -0.10653366 0.08097555 0.26516727
0.084628955 0.2309101 -0.012242492 0.09179906 -0.019630319 0.18152621 0.0023660774 -0.20696375
-0.19550687 0.10150005 -0.040480085 -0.16004936 -0.22935215 -0.14027327 0.09280251 -0.076993406
-0.2285214 -0.02542339 0.04658804 -0.21182533 -0.05113771 0.23078848 -0.19192243 -0.05299699
-0.0024946644 0.1491343 -0.039775204 0.14096774 -0.2309062 -0.13073052 0.1723357 0.06716218
0.24208203 -0.082809046 -0.13109817 0.05964678 0.014576684 0.13080363 -0.2282655 0.3586509
0.13928398 0.17607044 0.020180177 -0.06198129 0.3158813 -0.22298712 0.12810846 -0.10396772
0.2967508 -0.0057884785 -0.064241014 0.08368808 0.23133256 0.22209777 -0.21304077 -0.057643816
0.12938297 -0.1656213 0.10318927 0.11692227 0.037656415 0.06977793 -0.20898843 0.12546785
0.030375335 -0.18697856 0.054150704 0.12182572 -0.19251905 -0.009547572 -0.17840686 0.039521337
-0.043913044 -0.20623428 0.13578428 -0.14676462 0.0018164028 -0.11064986 0.30248305 0.039978072
0.1622111 -0.1837288 0.18176353 0.05425942 -0.2698511 -0.020432705 -0.2617632 0.25571397
0.11580705 -0.28312963 0.0869564 -0.14530613 0.033296112 0.10764308 -0.09334221 0.17985116
-0.1422449 -0.16575953 -0.1104281 -0.23201974 0.029698182 0.17677064 -0.14133322 0.07267166
-0.06494043 0.010048065 0.17302467 -0.15681967 0.06624644 0.19573301 0.20366243 -0.024656188
-0.041915342 0.029558275 -0.120071754 0.08614276 -0.17207591 0.07193802 0.00041294054 -0.21200003
-0.118788674 0.0006054984 -0.19413115 0.020220267 -0.08599779 0.17229994 0.20928338 0.17715614
-0.08869369
00000000: 114d 89bc d764 e6bd 5397 8fbd 5d72 6cbe
00000010: fe64 80bd 0e7a ce3d d0f3 0c3c 4d55 d73d
00000020: 6092 70bd d752 abbd be8b 01bd df95 e7bd
00000030: a218 6e3e d0c1 0b3e 7843 b4bd 39e9 3f3e
00000040: ae8d 0d3e e810 f7bd 12ed 323d d0ff 1e3e
00000050: 4897 72be 4197 4bbc 794b 0abe d236 d0bd
00000060: bf63 8abe 6d89 d23d 7700 723e deb3 3b3e
00000070: de94 663d 0a52 3fbe 0d4e a3bd 6c2d c73d
00000080: 4f43 18be 2c27 293c cda8 44be 38b6 9a3e
00000090: baff 47be d445 4cbe 192a d6bd 8aca 643e
000000a0: 41c8 293e faaf a83d 886d 30be 9458 373e
000000b0: a12e abbd 8f4b 58bb f5c9 2f3d 9ee9 8abc
000000c0: cb4a bcbd a061 2fbe c3f9 2bbe c1c3 53be
000000d0: ec1f 83ba 3ed5 48bc 2d6e 86be f444 563e
000000e0: 6a00 4b3d baba 703e ec3b 313d a46f a2bd
000000f0: 3091 6f3c 48a0 13be 33f4 5ebd 6391 10bb
00000100: 73bc 6e3d 3456 1b3e d2e8 7d3e f92c 1b3e
00000110: 0115 63bd 882a 3c3e 98f6 a83d 0f15 b93d
00000120: 318b 1d3e 0a04 8e3e 616e 213e f632 243e
00000130: 0eb1 bd3d 3b56 983e 175d 91bc b25f 8d3e
00000140: a2b4 23bd e835 68be da8c 0b3e 43d1 1d3e
00000150: 768c d73d c752 273d 8de9 a03d 163c 47bd
00000160: 1fd5 923e fc12 cd3d 8213 04be 293e 66bd
00000170: e0b9 cbbc 522e dabd 82d6 a53d 01c4 873e
00000180: f251 ad3d b273 6c3e bc94 48bc 2501 bc3d
00000190: c3cf a0bc 02e2 393e 3110 1b3b 4eee 53be
000001a0: f432 48be 42df cf3d 72ce 25bd fbe3 23be
000001b0: 4adb 6abe cca3 0fbe 3e0f be3d b8ae 9dbd
000001c0: 8401 6abe b744 d0bc 1ad3 3e3d bde8 58be
000001d0: c775 51bd d153 6c3e 5087 44be 5f13 59bd
000001e0: 867d 23bb a9b6 183e 53eb 22bd d959 103e
000001f0: ad72 6cbe 39de 05be c578 303e 538c 893d
00000200: 5ae4 773e ca97 a9bd 993e 06be 2f50 743d
00000210: 0bd3 6e3c 63f1 053e 6ebe 69be 17a1 b73e
00000220: 76a0 0e3e cf4b 343e e650 a53c 18e0 7dbd
00000230: 32bb a13e bc56 64be dd2e 033e 07ed d4bd
00000240: b9ef 973e 47ad bdbb cb90 83bd a864 ab3d
00000250: 71e2 6c3e 996d 633e 5c27 5abe ec1b 6cbd
00000260: f87c 043e a198 29be e554 d33d f174 ef3d
00000270: 9d3d 1a3d bbe7 8e3d 1001 56be a57a 003e
00000280: b2d5 f83c 4f77 3fbe 21cd 5d3d c37f f93d
00000290: b723 45be 6b6d 1cbc 4ab0 36be 20e1 213d
000002a0: 2ade 33bd 142f 53be 090b 0b3e 7749 16be
000002b0: 5d14 ee3a 659c e2bd 0fdf 9a3e 0cc0 233d
000002c0: ab1a 263e 6723 3cbe 3820 3a3e 203f 5e3d
000002d0: ec29 8abe 7d62 a7bc d305 86be f1ec 823e
000002e0: 3f2c ed3d 5ef6 90be 3216 b23d 21cb 14be
000002f0: 8161 083d fa73 dc3d 332a bfbd e72a 383e
00000300: a6a8 11be debc 29be 2128 e2bd 9596 6dbe
00000310: 9a49 f33c 5d03 353e a8b9 10be e1d4 943d
00000320: 7dff 84bd a4a0 243c 612d 313e 5695 20be
00000330: 37ac 873d 3c6e 483e e28c 503e c6fb c9bc
00000340: 6caf 2bbd 3224 f23c 2ee8 f5bd 9e6b b03d
00000350: ab34 30be 3e54 933d f17f d839 8916 59be
00000360: 7a47 f3bd 4fba 1e3a 51ca 46be f9a4 a53c
00000370: 9c1f b0bd 656f 303e 624e 563e 6b68 353e
00000380: 0aa5 b5bd

linear2.bias f4 [15]
0.017384378 -0.005983881 0.41227615 0.17947006 0.29196793 0.03288075 0.30269295 -0.030383509
-0.031049639 -0.046909604 -0.29212123 0.0228262 -0.20475495 0.22185586 0.1010443
00000000: af69 8e3c 6f14 c4bb dc15 d33e 00c7 373e
00000010: d27c 953e f7ad 063d 92fa 9a3e d6e6 f8bc
00000020: d05b febc 4924 40bd ea90 95be 03fe ba3c
00000030: 48ab 51be 2f2e 633e 50f0 ce3d

linear3.weight f4 [2, 15]
0.2043131 -0.21997872 0.3012962 0.1254775 0.030672934 0.03868883 0.095036246 0.12713306
0.19945228 0.21301027 -0.01289494 0.41230533 -0.27473885 0.07238067 0.16001959 -0.17822626
0.22310881 -0.24829482 -0.07071238 -0.15380648 -0.04704183 -0.023930151 -0.13043714 0.2403502
-0.24922375 -0.018552488 -0.30333522 0.17219281 0.056646995 0.099576846
00000000: 7437 513e 1a42 61be 7f43 9a3e 2c7d 003e
00000010: ce45 fb3c 2e78 1e3d 5da2 c23d 2b2f 023e
00000020: 383d 4c3e 5d1f 5a3e 4c45 53bc af19 d33e
00000030: 92aa 8cbe 513c 943d 2ddc 233e f280 36be
00000040: a376 643e ff40 7ebe a7d1 90bd 727f 1dbe
00000050: efae 40bd 2a09 c4bc 5091 05be 5d1e 763e
00000060: 8334 7fbe 63fb 97bc c14e 9bbe 5053 303e
00000070: ae06 683d f2ee cb3d

linear3.bias f4 [2]
-0.10746943 -0.08337573
00000000: ef18 dcbd e5c0 aabd
