checkpoints/origin/2020-11-16T14-26-21-16-classify/classify_fold0_origin_0.946154.pth (torch, 38373 bytes, 6 tensors)

linear1.weight f4 [100, 6]
000000 e3 a3 80 3e 40 ca 9a be 71 7d 9a be 09 10 02 be
       0.25125036 -0.3023243 -0.3017383 -0.1270143
000010 02 6a ce 3e aa 67 4b 3e c2 c3 c2 3e 16 41 95 3e
       0.40315253 0.19863763 0.38039976 0.2915122
000020 26 e8 e0 bb f9 5d 6d be 5f 5e 98 3e 8b 1a 58 3e
       -0.0068636118 -0.23180379 0.297595 0.21103875
000030 41 d3 54 3c ff bb 0a 3e e9 81 3c 3e 8d 73 a0 3e
       0.01298982 0.13548277 0.18408932 0.31338158
000040 48 c6 03 bb 4d fe b3 3d c1 d2 a6 be 08 3f 1d be
       -0.0020107199 0.087887384 -0.32582667 -0.15356076
000050 df 34 0d be 07 e4 01 3c 75 e3 be 3e 26 97 2f be
       -0.137897 0.007927901 0.3728291 -0.17147502
000060 4e e5 ca bd 88 99 a2 3d d3 5d e3 bd 83 e7 cc 3e
       -0.09907018 0.0793944 -0.1110188 0.4002038
000070 b6 b5 24 3e 49 75 75 be e0 88 e1 bd 94 17 3b be
       0.16084942 -0.23970522 -0.11012435 -0.18270713
000080 ec 55 8a be 50 56 59 3e be 38 b6 be 4a c9 25 be
       -0.27018678 0.21224332 -0.35590166 -0.16190067
000090 a0 ef 53 be 26 ca 8d bd 3e 3d 07 be 01 21 69 3e
       -0.20696878 -0.069233224 -0.13206956 0.22766496
0000a0 af 78 02 bd b9 e2 5a 3e 09 7d 2c 3e 2b f8 f5 3d
       -0.031853374 0.2137555 0.16844572 0.12010225
0000b0 25 b0 6a be 3c b9 f0 3d d2 c5 90 3e 37 50 92 3e
       -0.22918756 0.11754081 0.28275925 0.28576824
0000c0 59 ff 2c be d2 12 ca 3e b1 21 30 be 6e 9b 50 be
       -0.16894282 0.39467484 -0.17200352 -0.20371792
0000d0 40 d4 82 3e ff 9f 71 3e 0a ce 3f bc a6 87 84 3d
       0.2555256 0.2359619 -0.011706838 0.064711854
0000e0 96 ff 58 3d cb e8 98 3e a7 4d b7 3d 6a bf 4e 3e
       0.05297812 0.29865107 0.08950358 0.20190206
0000f0 ca a9 1f 3e ef d5 72 3e a9 1a 76 be bd 79 8e 3e
       0.15592113 0.23714422 -0.24033608 0.27827254
000100 cc 69 e4 bd e1 45 9f 3e 4e dd d4 be ea 7c a4 3d
       -0.11152992 0.31108 -0.41575092 0.08031638
000110 31 b5 89 3c 82 c3 0b 3e 30 87 97 bd 4d dc 32 be
       0.016810032 0.13648799 -0.07398832 -0.1746685
000120 73 d1 e7 3e 55 4a f9 3d ee 05 26 be 3a 0e 11 be
       0.45276985 0.12172381 -0.162132 -0.14165583
000130 d9 aa 51 3e 8c d1 0b 3e bc 01 fb 3d e9 5a 39 be
       0.2047533 0.13654155 0.1225619 -0.18101086
000140 3f d1 5a 3d fa 29 48 3d 1f e8 30 be 82 8f c5 be
       0.05342221 0.048868157 -0.17276047 -0.3858605
000150 24 cd 93 be a8 62 96 3d d8 8e 65 3e db 76 80 3d
       -0.28867447 0.07343036 0.22417772 0.0627267
000160 f2 8f ac 3e 62 cd 3d 3e 92 72 a3 3e 40 bd 9d be
       0.33703572 0.18535379 0.31923348 -0.3080845
000170 2c 29 eb 3d be 84 39 3e 5e 55 f5 3e 62 af 15 3d
       0.11482462 0.18117043 0.47916692 0.03654421
000180 ed 66 ec 3d b7 12 08 3e 7f 78 a4 bd bb 44 49 be
       0.11543069 0.13288389 -0.08030795 -0.19655125
000190 6c fb 96 3e d5 40 a5 3e d9 25 1c be 39 7b bc 3e
       0.29488695 0.32276025 -0.15248813 0.3681276
0001a0 a0 be 83 be e8 32 3d 3d 17 ae 30 3c 23 0a 54 bd
       -0.25731373 0.046191126 0.010783694 -0.05176748
0001b0 a7 25 27 be 61 d9 ae be d8 de e7 bd c7 eb 3b 3e
       -0.16322957 -0.34150222 -0.11321801 0.1835166
0001c0 59 dd 88 bd 43 74 c4 be da 9a 97 bd 78 85 69 3e
       -0.06682844 -0.3836995 -0.074025825 0.2280482
0001d0 b2 cc 81 3e 59 8c b1 3e 11 37 65 be f0 40 d7 3d
       0.25351483 0.3467739 -0.22384287 0.10510433
0001e0 c5 0c bf bd 57 58 47 be 74 01 97 3e 75 e3 9e bd
       -0.093286075 -0.19467293 0.29493296 -0.07758228
0001f0 95 a0 d3 be d3 8b 46 be c7 8c 93 3e 04 97 6f 3d
       -0.41333452 -0.19389276 0.28818342 0.05849363
000200 40 b7 c8 be 4b 1b cb be b7 92 09 3e 62 f7 61 be
       -0.3920231 -0.3966926 0.13434874 -0.22067025
000210 8f af 84 3e f5 a1 7a bd ed 45 4b be 39 e2 80 be
       0.2591519 -0.06118961 -0.19850893 -0.25172594
000220 5a 9f 1c 3e 73 6f ba 3d ea ba 62 3c 32 1a 54 bd
       0.15295163 0.091032885 0.013838509 -0.051782794
000230 71 bc c5 3e 91 43 b1 bd 8b 26 1a bd 08 e6 8a 3e
       0.38620332 -0.086554654 -0.037634414 0.27128625
000240 4f 42 99 3c be 29 b7 be 5f 46 b8 3e 55 26 8e be
       0.018708376 -0.35774034 0.3599119 -0.2776362
000250 45 2a 5c bd d9 4b e6 3c f3 7e 22 be cc c5 c1 3e
       -0.05375125 0.028112339 -0.1586874 0.3784622
000260 1e 4d c3 3e fb dd 6e bd 3e 05 1f ba cd fd 4d be
       0.38144773 -0.058317166 -0.000606615 -0.20116349
000270 9a 28 eb bd 5b 02 97 be f6 d9 32 3e f4 f1 ac 3e
       -0.114823535 -0.29493985 0.17465958 0.33778346
000280 04 fb a1 bd 8d 9a 21 be 62 ba f3 bd b0 33 48 3e
       -0.079092056 -0.15781613 -0.11900784 0.19550967
000290 a4 aa be 3e c6 24 9c 3e 2c 75 af 3e 18 20 cb be
       0.37239563 0.30496806 0.34269083 -0.39672923
0002a0 81 ac a2 3e e5 8f 1e be 9f 2c c6 3e 53 dd dd 3e
       0.31772235 -0.15484579 0.38705918 0.4333292
0002b0 1a 60 f6 3d f2 5a 39 3e 9d 53 4e be b9 5f 1a 3e
       0.12030049 0.18101099 -0.20149083 0.15075578
0002c0 4b 8b 08 be e4 65 c4 be ce 25 f0 bd be c8 7b bd
       -0.13334386 -0.38358986 -0.11725961 -0.06147074
0002d0 de a5 97 3e a2 c2 a9 3e bf 3f e4 bd df c4 3a 3e
       0.29618734 0.33156306 -0.11144971 0.18239163
0002e0 58 ee 95 3e 6d a7 be 3e 29 da 80 be 78 bd a7 bd
       0.29283404 0.3723711 -0.25166443 -0.08190435
0002f0 57 6f d6 3d df 43 c0 be a0 dd 3c be fc 10 a6 be
       0.10470455 -0.37551782 -0.18443918 -0.32434833
000300 3f 4f a6 bd dd 09 b1 3d be 61 39 be 21 70 31 be
       -0.08120584 0.086444594 -0.18103692 -0.1732793
000310 86 6c 19 3e 21 55 f3 bd 28 aa 39 bd 39 5d 16 3d
       0.14982805 -0.118814714 -0.04532829 0.036709998
000320 d6 33 24 be 22 c6 30 be a0 92 c6 be 06 51 4e 3e
       -0.16035399 -0.17263082 -0.3878374 0.20148095
000330 76 67 b8 3d 4a 6b 48 3e b5 92 20 3d f4 a1 83 3e
       0.090041086 0.19572178 0.03920241 0.25709498
000340 a1 04 e0 bd 98 c9 d6 be 96 19 5d bc 3a 59 d2 bd
       -0.10938383 -0.4195068 -0.01349487 -0.10270925
000350 ac 43 aa be 6d c7 b3 be 74 35 2e 3e 2f 03 ad be
       -0.33254755 -0.35113087 0.17012578 -0.3379149
000360 80 15 2c be 8d 23 6f be d4 d1 ca be 58 16 15 3e
       -0.16805077 -0.23353405 -0.3961321 0.14559305
000370 7d 3f c7 be 98 df c8 3e e2 96 73 be d1 d8 17 3e
       -0.38915625 0.39233088 -0.23788026 0.14828803
000380 01 27 23 be ee 9b b2 3e da b5 b5 3b 4f 32 bc 3e
       -0.15932848 0.3488459 0.00554536 0.36757132
000390 99 82 4a 3e cf 84 9d be 44 59 f6 bd 0b c8 99 be
       0.19776382 -0.30765387 -0.12028745 -0.30035433
0003a0 9e 4e 21 3d 96 c0 4b be b0 c0 d7 3c 71 1f e0 3d
       0.039381616 -0.19897684 0.026336998 0.10943497
0003b0 5c 26 c3 3d 22 b5 b3 3e 92 81 16 3e f2 4e 1c 3e
       0.09528801 0.3509913 0.14697865 0.1526449
0003c0 ad ad 38 3d 82 ba c9 3e 2c c8 9a be 21 b9 a6 be
       0.045087505 0.39400107 -0.30230844 -0.32563117
0003d0 cb d1 73 be de 0d a4 bd 78 63 b1 be a1 51 93 be
       -0.23810498 -0.080104575 -0.346462 -0.28773215
0003e0 26 d3 c2 be 46 e0 b0 3d cc 32 f8 3d db c3 25 3e
       -0.38051718 0.08636527 0.12119064 0.16187994
0003f0 83 89 bc be 0c b4 73 3d 0b 03 99 bd 73 81 b3 3c
       -0.36823663 0.059497878 -0.074712835 0.021912312

linear1.bias f4 [100]
000000 b5 40 7e be 57 c0 8a be 76 69 ef 3d 64 3d b6 bc
       -0.24829371 -0.2709987 0.11690037 -0.02224607
000010 44 5a 55 3e 35 aa dd 3d 7a 22 c3 be e2 4e 68 3c
       0.20835215 0.1082348 -0.3811224 0.014178963
000020 d5 e4 fe bc 77 dd 89 bd e7 8f 9a 3d 2d 41 ce be
       -0.031114975 -0.06731694 0.075469784 -0.402841
000030 e4 ae 37 3e 5b a3 d2 3e f5 13 6c be 0d 6b 99 be
       0.17937809 0.41140255 -0.23054488 -0.29964486
000040 3e f5 97 3e a8 89 3a be 4b cd 74 3e f5 79 4a 3e
       0.29679292 -0.18216574 0.23906438 0.19773085
000050 82 79 2c be 7e 8b 6f 3d d9 f1 71 be 8c db 9d be
       -0.16843227 0.05848264 -0.23627414 -0.30831563
000060 4c cb 80 be 6b 32 5a be 59 c0 88 3a c5 4a 81 be
       -0.25155103 -0.21308295 0.0010433301 -0.25252357
000070 da 40 f6 3d cb 8d bf 3d 9c 00 28 be 8c 7f be 3e
       0.12024088 0.09353217 -0.16406482 0.37206686
000080 71 d2 81 3e 56 62 cb 3e fb 79 0c 3e 82 66 95 3e
       0.25355867 0.39723462 0.13718407 0.2917977
000090 fa 22 1d 3e 4c 0b 27 bd f0 33 81 be e9 ab bf be
       0.15345374 -0.040782258 -0.25234938 -0.37435845
0000a0 31 c9 ea bd ae 73 2c be f1 df 62 be 77 63 b0 bd
       -0.114641555 -0.16841003 -0.2215574 -0.086127214
0000b0 97 43 91 be 47 fb 99 be 38 60 e5 3d 3c 72 ea bd
       -0.2837188 -0.30074522 0.11199993 -0.1144757
0000c0 98 0e 52 bd 24 e2 0d be 04 cc 8e be ee 72 c4 be
       -0.05128345 -0.13855797 -0.27890027 -0.38368934
0000d0 81 88 35 3e a3 d9 0d 3d d8 09 98 3d 55 dc dc 3c
       0.17727853 0.034631383 0.074237525 0.026960531
0000e0 f5 87 85 3c be 03 78 be f0 da e6 3d 02 b0 96 3e
       0.01630018 -0.24220178 0.11272228 0.29431158
0000f0 a4 b6 a3 3d 3b 55 84 be 03 22 96 bd 90 f1 87 3d
       0.0799382 -0.25846276 -0.07330706 0.06637871
000100 a7 f2 ea 3e 66 02 2c 3e da 16 db 3d f3 60 d6 3e
       0.45888254 0.1679779 0.10697718 0.4187084
000110 69 b3 ad 3d 74 8c 54 3d 65 28 ba be 78 95 a1 be
       0.084814854 0.05189176 -0.36358944 -0.31559348
000120 d1 67 f9 3d 90 6a 17 be 90 cd 06 3e 3a de a7 be
       0.121780045 -0.14786744 0.13164353 -0.32786733
000130 81 44 d4 3d 72 ed b1 bd d7 14 7b 3d 32 0d b0 3e
       0.103646286 -0.08687867 0.06129917 0.34385067
000140 6e fc f4 3c 66 90 94 3e 3a 7a 52 3e f9 32 b7 be
       0.029905524 0.29016417 0.20554438 -0.35781077
000150 88 4d 8c be 6d c0 e5 3d b2 e0 9a 3e 55 d9 7a bd
       -0.27402902 0.11218343 0.30249554 -0.06124242
000160 25 1d 87 bc cb 9d 2b 3e 95 eb d2 3e 02 26 3f 3e
       -0.01649339 0.16759412 0.4119536 0.18666843
000170 26 17 6b bd 8d 3f 64 bb a3 dc 2f be 16 b9 33 3e
       -0.057395123 -0.0034827918 -0.1717401 0.17551073
000180 fc 86 8b be 5f 4e 92 3e 4c f0 a9 be e2 fc d6 3c
       -0.27251422 0.28575417 -0.33191144 0.02624363

linear2.weight f4 [80, 100]
000000 af 7b 8f 3c 6d 67 12 bd 92 32 c9 3c 90 3c 01 3d
       0.017515032 -0.035743166 0.024560247 0.031551898
000010 50 82 46 3d 80 62 53 3d 37 67 0f 3d e3 a6 68 3d
       0.04846412 0.05160761 0.035010543 0.05679978
000020 33 31 5c bc 0f 2a 2d 3c 91 d7 52 bd cd b0 bb 3b
       -0.013439464 0.01056911 -0.05147511 0.0057278634
000030 0c 3a 95 bd 72 67 8f 3c aa 4f 1b 3d 9c f4 2d 3d
       -0.07286462 0.017505381 0.03791777 0.042469606
000040 b9 8d e4 3b 73 82 78 bd 63 f9 17 3d ad f4 98 bd
       0.0069749025 -0.06067128 0.037103068 -0.07468543
000050 3a 6b 96 3d 3d 5f 40 bd 28 2f 1a 3c 18 e3 51 bc
       0.073446706 -0.046965826 0.009410657 -0.012810491
000060 a8 29 b1 3c c4 6a d2 bc cd ad 4e bc f8 59 b0 bd
       0.021626309 -0.025685675 -0.0126146795 -0.0861091
000070 54 c3 d1 3c ed b2 6a 3d e1 32 23 bd ba 2f d9 bc
       0.025605835 0.057299543 -0.039843444 -0.026512016
000080 a7 aa a2 bd 8d e1 ca 3c cb 35 40 3c 52 fa 97 bd
       -0.079427056 0.024765754 0.011731575 -0.07420792
000090 23 13 9a bd ad b8 90 3c 16 d1 ba bd a1 38 cb bd
       -0.07523181 0.017666185 -0.09121911 -0.099229105
0000a0 d3 cc 65 3d 3a f2 8b bd 47 03 e6 bc 20 8d 51 bd
       0.05610354 -0.068333104 -0.028077735 -0.051159978
0000b0 15 69 71 bb c2 5f 90 3d df 89 90 bd 97 1c 76 3d
       -0.0036836315 0.07049514 -0.07057547 0.06008586
0000c0 91 56 a9 bd f7 cc 95 3d d0 f8 af 3d b6 6d 11 3d
       -0.08268464 0.073144846 0.08592379 0.03550502
0000d0 8e dd 61 3d 08 05 88 bd 22 39 9e bd 69 0e 3f 3d
       0.05514293 -0.06641585 -0.07725741 0.046644602
0000e0 3d 5a 48 bd 0c ea 7b bd 5f 33 ad 3d 21 7e be bc
       -0.048914183 -0.0615025 0.08457064 -0.023253502
0000f0 10 ab 13 3d 27 d1 e0 3b 68 51 cb bd ec a1 de 3c
       0.03605181 0.0068608704 -0.099276364 0.02717682
000100 6c 5f c1 3c d8 2a 99 bd 8d d7 61 3c 63 ff af 3c
       0.023605071 -0.07478875 0.0137843015 0.021484083
000110 a1 04 3f bd 7d 3f ef 3c 97 9b 3c 3d df 74 93 bd
       -0.046635274 0.029205078 0.04604682 -0.07200026
000120 a7 5e cb 3c 30 e7 a9 37 73 fd 79 3c db 93 af bd
       0.024825407 2.0254025e-05 0.015258181 -0.08573123
000130 08 d8 53 3d 00 9d 72 3b 73 45 93 bd 55 fb 86 bd
       0.051719695 0.0037019849 -0.07190981 -0.065909065
000140 42 dd bd 3d 12 c1 c7 bd 34 21 87 3d 81 22 53 3c
       0.09270717 -0.09753622 0.0659813 0.012886644
000150 40 19 08 bd c0 a7 6c bd b8 ce 80 bd 0d cf 85 3d
       -0.033227205 -0.057777166 -0.062894285 0.065336324
000160 20 bb 8a 3c fa fb d3 bc 18 20 75 bd 1a 5c 7d bd
       0.016934931 -0.025876988 -0.05984506 -0.061855413
000170 7a ab c2 bd d2 92 13 3d 27 26 47 3c a1 5c ac bc
       -0.09505363 0.03602869 0.012155092 -0.021040263
000180 41 1f 09 ba 93 43 a6 bd 9a ee 23 bb 74 f5 c7 bd
       -0.00052307924 -0.081183575 -0.0025014044 -0.09763613
000190 71 a3 5f 3d bf 9a 86 bd 77 d3 c5 3c 67 80 b6 3d
       0.05459923 -0.06572484 0.024148686 0.089112096
0001a0 e7 98 5b 3d 27 83 0c bc da 34 63 3d ef 11 92 bc
       0.053612616 -0.008576191 0.055470325 -0.017830817
0001b0 5f 21 60 3c f9 02 48 bd d4 57 c7 3d e3 b2 a9 b9
       0.013679831 -0.04883096 0.09733549 -0.00032367473
0001c0 ee 97 ae 3c 65 07 42 3b c5 ab b9 3d d9 44 9a 3d
       0.02131268 0.0029606458 0.090659656 0.07532663
0001d0 10 1b ce 3d 78 e5 aa bd 0d ca 80 bc 4d 70 1e 3d
       0.100637555 -0.08344549 -0.015721345 0.038681317
0001e0 90 75 68 3d 4b fb 8f bd f6 35 5a 3d 29 60 fe 3c
       0.05675274 -0.07030352 0.053274117 0.031051712
0001f0 c2 7a 6c 3d be 67 cf bc 11 f7 4b 3d 3c 6f d8 bc
       0.05773426 -0.025318023 0.049796168 -0.026420228
000200 eb 6b 40 bd f8 7a 9f bd b7 0a d2 3d ee 08 86 bd
       -0.04697792 -0.07787126 0.1025595 -0.06544672
000210 b8 d4 a5 bd f5 6f b4 bd 24 94 4a 3d 5d 9c 99 3d
       -0.080972135 -0.088104166 0.049457684 0.07500527
000220 00 0a a3 bd 63 08 b7 3d 28 64 91 bd 02 5b 58 bd
       -0.07960892 0.089371465 -0.070991814 -0.052821167
000230 18 83 56 bd 12 57 af bd d8 2d b7 3d 0d 29 bd 3d
       -0.052371114 -0.08561529 0.08944291 0.092363454
000240 1d 5a e8 3c 86 52 e1 3c 9e 54 4f 3d 92 22 1e 3c
       0.028363282 0.02750517 0.050617807 0.009651797
000250 10 46 a6 3d 9a 96 c9 3b 4d 06 a9 bc 17 41 87 bd
       0.08118832 0.0061519863 -0.020632887 -0.06604212
000260 29 e0 83 bd 87 40 cc bd 0b dc 78 3d 74 8d e0 bb
       -0.064392395 -0.09973245 0.060756724 -0.0068528
000270 d2 75 9d 3d 6b 53 07 bd 74 c2 a5 3d 95 e2 52 bd
       0.07688488 -0.033038538 0.080937296 -0.051485617
000280 e5 1c 26 3d 74 43 ce 3d 88 32 75 3d 17 3d 98 bc
       0.0405549 0.100714594 0.059862643 -0.018583817
000290 a9 64 b7 3b 59 78 09 bb d9 44 b1 bc ce b8 b2 bc
       0.0055967164 -0.0020976274 -0.021639274 -0.021816637
0002a0 38 9b 3c bd 04 c0 41 3d fa d9 29 3d a3 a0 8d bd
       -0.046046466 0.04730226 0.041467644 -0.06915405
0002b0 67 40 6b 3c 67 de 14 3d 60 e2 8e bc 98 6c 3f ba
       0.014358616 0.036344912 -0.017441928 -0.00073022535
0002c0 11 d2 57 3c 94 82 05 3d 93 51 0f 3d 2f 4a ba bd
       0.013172642 0.032595232 0.034989905 -0.09096181
0002d0 2d 54 52 3d cc cb c7 bc 74 51 83 bd 79 8c 4b 3d
       0.051349808 -0.02438917 -0.0641202 0.049694512
0002e0 95 8e aa bd 3c 5d cf bd e0 f1 08 bd 40 5a b8 bd
       -0.083279766 -0.10125205 -0.033433795 -0.09001589
0002f0 ea da b6 bd 5b 58 c2 bd 8a c1 62 bd a5 d5 9e bd
       -0.08928473 -0.09489509 -0.055360354 -0.07755593
000300 a7 3c 8d bc a1 95 00 3a 35 b1 a2 bc 8e f3 8a 3c
       -0.017240835 0.0004905109 -0.01985989 0.016961839
000310 6a 5e ca bd 18 f7 df 3c bd c3 77 bd a4 1b 5a 3c
       -0.09881289 0.027339503 -0.060489405 0.013312254
000320 f2 a2 92 bd 9e 69 80 bc 88 af 7b 3d 80 43 02 bc
       -0.071599856 -0.015675362 0.061446697 -0.007950664
000330 4d dd 46 bd 80 64 8a bc 10 ff c5 3d 2b 5f a4 bd
       -0.048550893 -0.016893625 0.0966779 -0.08025964
000340 ff b2 be bd fc 8a dd bc 2a 0d 8b 3d a1 99 9b 3d
       -0.093114845 -0.027043812 0.0678962 0.07597662
000350 55 73 9b bd 0f f6 a7 bd 08 dd b1 bd 49 52 8e bd
       -0.07590357 -0.08201229 -0.086847365 -0.069492884
000360 f3 41 07 bc 13 04 a0 3c 40 10 a4 3d 37 a3 92 3c
       -0.00825547 0.019533193 0.08010912 0.017900093
000370 0f 36 76 bd 12 fa 8f bd cd de 8d 3b 53 72 85 3d
       -0.060110148 -0.07030119 0.0043295384 0.06515946
000380 66 8b a7 3d 61 35 f6 3c b4 59 0b bc 07 ce 92 bd
       0.08180885 0.03005475 -0.008505274 -0.07168203
000390 d8 41 c4 bc 80 a7 bb 3d 05 97 8d bc de b4 79 bd
       -0.023957178 0.091628075 -0.017283926 -0.060963504
0003a0 bd f7 63 bd 40 35 06 3d 97 2b 10 3d 80 9e 12 3d
       -0.055656184 0.032765627 0.03519782 0.03579569
0003b0 67 52 54 bb 68 b9 a0 3d 9f ad 84 3d 80 63 21 bd
       -0.0032397748 0.078478634 0.06478428 -0.03940153
0003c0 a0 20 ab bc 22 35 8b 3d da 41 81 bc f3 96 39 3d
       -0.02088958 0.06797244 -0.01577847 0.045309972
0003d0 50 73 70 bc be b9 ba bd a5 39 87 bd 5e 16 5c 3d
       -0.01467593 -0.09117459 -0.06602792 0.05373227
0003e0 10 db 82 3d 5b 0c 76 3d fa 92 c4 3c 9a f9 ee bc
       0.06389439 0.060070377 0.023995865 -0.029171754
0003f0 a3 82 94 bd 22 d8 99 bd 6e 2b 49 bd ad 78 90 bd
       -0.072514795 -0.07511927 -0.049113683 -0.07054267

linear2.bias f4 [80]
000000 ac 53 ae bc a1 25 73 bc 21 7e 9a 3d 27 df 32 bd
       -0.021280132 -0.014840514 0.075435884 -0.043669846
000010 c4 7d 8b bd 43 70 1d 3e 1e f3 01 bc a8 02 0f bd
       -0.06811097 0.15374856 -0.007931499 -0.034914643
000020 30 c8 9d bd 2d ab f9 3d 38 e3 e4 bd 00 e6 b4 bd
       -0.07704198 0.12190852 -0.11176151 -0.088329315
000030 6c 12 97 bd af e0 9b 3d e2 24 d6 3b fc 64 aa bd
       -0.073765606 0.07611214 0.0065351585 -0.083200425
000040 54 58 c4 3c 92 49 8f bd 27 00 09 3d e1 15 8c 3d
       0.0239679 -0.06996454 0.03344741 0.068401106
000050 d1 c9 c7 3c 15 e2 e1 bd ad 0c 19 bd 4d dc 72 3c
       0.024388226 -0.1102945 -0.037365604 0.014823032
000060 a2 fb 5d bd 47 3f 37 3d 77 9f 77 bd 42 e1 01 3d
       -0.054195054 0.04473808 -0.060454812 0.031708963
000070 cd ae 8c 3b 95 89 0f be 35 e4 0e 3c bf 4a 25 bd
       0.004293299 -0.14017327 0.008721401 -0.040354487
000080 3b ff 83 bd d9 2e b9 3d 18 1e 9b ba c7 0a 09 3d
       -0.06445166 0.090421386 -0.001183453 0.033457544
000090 07 2b fe 3d cd 8c 5b 38 b9 84 a4 3a 1d 1c 82 3d
       0.124105506 5.23448e-05 0.0012551761 0.063530184
0000a0 14 58 d5 3c 83 a0 8f 3d 12 d5 12 3e 89 34 b4 3d
       0.026042975 0.07013037 0.14339092 0.08799083
0000b0 62 dd 8d bd a8 08 e0 bc 35 a8 0c 3d 51 9f 5a 3c
       -0.06926991 -0.027347878 0.034340102 0.013343648
0000c0 f6 ea 57 3d 01 6c 29 bc 56 17 a8 bd 8e 87 1a bd
       0.05271431 -0.010340692 -0.08207576 -0.03772693
0000d0 cf f7 8d bb 6b cf c0 bc 6b cb c9 3c 8d ef 5a 3d
       -0.0043325196 -0.023536405 0.02463313 0.05345111
0000e0 cd 03 ac 3c 21 f1 91 bd 31 11 72 3d 19 76 d6 3d
       0.020997906 -0.0712607 0.059098426 0.10471744
0000f0 e0 c2 18 3d 65 9c cc bd b3 f0 a3 3d de fb fd bc
       0.037295222 -0.099907674 0.08004894 -0.031003889
000100 5a 43 8d 3d e3 fe cf ba 4f d3 26 3e ca 97 02 bd
       0.06897612 -0.0015868809 0.16291545 -0.03188304
000110 76 fe c5 bd 83 29 46 3d 57 76 65 bd d5 f7 3e bd
       -0.09667675 0.048379432 -0.05602106 -0.04662307
000120 72 d8 87 bd 1d 35 b4 bd 99 de 97 3c 84 ec 2f 3c
       -0.066330805 -0.08799193 0.01853876 0.010737542
000130 ab b2 03 be e1 b3 6e bc 9c d7 be bc e7 6f 24 bc
       -0.12861125 -0.014569254 -0.02329617 -0.010036445

linear3.weight f4 [2, 80]
000000 52 a3 e8 bc f5 c4 3f bc f6 ef 11 3d c6 24 b6 3d
       -0.02839819 -0.011704673 0.035629235 0.08893733
000010 f3 6f de 3d 63 21 c8 3d f2 bc 7b 3d 8a c5 ae 3b
       0.10861196 0.09771993 0.06145949 0.005333607
000020 74 24 90 bd a7 55 94 3d e0 22 aa bd 21 d5 12 bd
       -0.07038203 0.072428994 -0.08307433 -0.035847787
000030 e8 68 b0 3d 30 3c 5a 3d 6c ea 67 3d 32 7b b6 bd
       0.08613759 0.053280056 0.056620046 -0.089102164
000040 42 2c a6 bd 8f b6 81 bd 07 93 c5 3c aa 09 5c bb
       -0.0811391 -0.063336484 0.02411796 -0.0033575096
000050 79 64 94 3d 60 fa 55 bd 51 ee a1 bd 5d ef 28 bd
       0.07245726 -0.05224073 -0.07906783 -0.0412439
000060 f3 1a 31 bd 9e 2e db 3d 8a 0d 90 bc 2b 81 c9 bd
       -0.04323859 0.10702251 -0.01758458 -0.0983909
000070 6f e3 97 ba 1b e3 48 3d 32 26 84 bd 1f 60 4f bc
       -0.0011588166 0.04904471 -0.06452598 -0.012657194
000080 00 d4 ab bd ec 39 c1 bd a0 67 43 3d 68 fe 9c 3d
       -0.08390045 -0.09434876 0.047706246 0.07665712
000090 e1 5a 9d 3d 49 94 8c bb 2d 5f c6 3d 92 6f c1 3c
       0.076833494 -0.004290138 0.09686122 0.023612771
0000a0 9e 91 9d bb a1 8f 94 3c 8b 80 50 3c db 66 1f 3d
       -0.0048086187 0.018134894 0.0127259595 0.03891645
0000b0 b1 a2 3c bd 46 be 99 3d 3e b3 52 3d 10 75 7e 3c
       -0.046053592 0.07506995 0.05144047 0.01553084
0000c0 ce b0 44 3d 64 6f a3 bd a5 1e 89 3d 89 19 e4 3a
       0.048020177 -0.079802305 0.06695298 0.001740263
0000d0 e5 8a 7e bb 03 51 6b bd 41 c3 9f bd c2 7a 8f 3c
       -0.0038840112 -0.057450306 -0.078009136 0.01751459
0000e0 cc 52 15 3d 3c a3 53 3d a4 5b 87 3d 10 14 af 3d
       0.036455914 0.051669344 0.06609276 0.085487485
0000f0 88 d3 c2 bd 7c 9b 1e 3d 80 55 c8 3d 05 8a 15 bd
       -0.09513003 0.0387225 0.09781933 -0.03650858
000100 a8 2b a0 bc 66 fe 2d 3d 86 9e 97 3d 98 fd 16 bd
       -0.019552067 0.04247894 0.07403283 -0.03686294
000110 e8 c6 8e bd 37 cc 56 b9 6e 34 6a bd b6 52 12 3d
       -0.06971532 -0.00020484706 -0.057178907 0.03572341
000120 86 0c b4 3d 55 4d 3b bd e2 69 87 bc 48 de 13 bd
       0.08791451 -0.045728046 -0.016529981 -0.036100656
000130 08 30 22 3d a8 17 c0 3d 9d b0 81 bb c6 53 f8 3c
       0.039596587 0.09379512 -0.0039578215 0.030313384
000140 4f e7 c1 3c b6 9e af bc d1 9d 8f 3d 01 1f c7 bd
       0.023669867 -0.021437984 0.07012523 -0.097227104
000150 ae 5c b1 bd 4f ec 82 3c 8c 03 f0 b9 44 6e c6 3d
       -0.08660255 0.015981821 -0.0004577901 0.09689
000160 2a 02 dc bd 1a b5 6a bd 1c e7 c4 3c bc da c3 3d
       -0.107426 -0.05730162 0.024035983 0.09563205
000170 ae 85 5a bd 5a 3e 53 bd 67 1c c2 3c 44 c0 a0 3d
       -0.053350143 -0.051573135 0.023695184 0.07849172
000180 a9 99 f7 3c 1a 71 5d 3d 6e bd c6 3c ab b7 67 bd
       0.030224638 0.05406294 0.024260249 -0.056571644
000190 17 71 90 bd 70 d6 73 3d 44 28 b0 3d 44 fd d7 3d
       -0.0705282 0.059530675 0.0860143 0.105463535
0001a0 55 71 21 3d ef c4 78 3d e2 0b 32 3d 7e 9d 32 bd
       0.039414722 0.060734686 0.043468364 -0.043607228
0001b0 24 a6 09 3c 41 5d b7 3d b5 31 2e bb 8e c6 29 3d
       0.008401427 0.08953334 -0.002657992 0.041449122
0001c0 de 13 19 bd 4e 08 d0 3b 4b 78 b5 bd 70 ac 3d bd
       -0.037372462 0.0063486462 -0.08860835 -0.046307027
0001d0 29 1c 32 bd b4 bc 8d 3c 61 cf 62 bd cc f5 dd bc
       -0.043483887 0.017301895 -0.055373553 -0.027094744
0001e0 67 22 7a ba d6 2f 36 3d 32 e2 0f bd bb 49 dc bd
       -0.00095418695 0.044479214 -0.035127826 -0.107562505
0001f0 e1 bf 81 3d a9 bc c8 bd 16 68 b2 bd 96 a9 2e bd
       0.06335426 -0.09801609 -0.08711259 -0.0426422
000200 e6 70 99 3d 6b 74 1c 3d 85 ef c7 3d db 07 99 bd
       0.07492237 0.038196962 0.097624816 -0.074722014
000210 dc 93 b9 3d 8e 88 ad bd 20 f3 d1 bd bb a8 41 bd
       0.09061405 -0.08473311 -0.102514505 -0.047280055
000220 63 d3 d7 3d 7e d4 95 3d 22 67 9b 3c ff e6 74 bc
       0.10538366 0.0731592 0.018970076 -0.014947652
000230 0c 7a 2f 3c f8 56 8d bd 36 3d dc bd e8 41 a1 3d
       0.010710251 -0.069013536 -0.107538626 0.07873899
000240 b9 e2 b1 bd 5f 58 95 bd 60 24 da bd 17 e3 cb 3d
       -0.08685822 -0.07292246 -0.10651469 0.09955423
000250 b3 8b d7 bd f6 93 54 bd bf 88 db bc b4 50 ad 3d
       -0.105246924 -0.05189892 -0.026798604 0.084626585
000260 13 c5 92 bd 4d 19 ba bc 69 a9 81 3d f9 23 0c bc
       -0.07166495 -0.022717142 0.063311405 -0.008553498
000270 de 61 91 3d c4 dd 14 3d ff b0 5e bd a3 32 59 3d
       0.07098745 0.036344305 -0.054368015 0.053026807

linear3.bias f4 [2]
000000 60 4d ba bc ef 5c 0e be
       -0.022741973 -0.13902639
