checkpoints/origin/2020-11-16T14-26-21-16-classify/classify_fold0_origin_0.943077.pth (torch, 38373 bytes, 6 tensors)

linear1.weight f4 [100, 6]
00000000: e013 753e 3a7b 9bbe 1a7a a3be 7e58 0dbe
00000010: 85ed c53e 7f19 3e3e dcd2 c33e 00f8 963e
00000020: ae41 98bb 0b94 73be 51b5 9a3e 02a1 593e
00000030: b1ce 323c ef05 0f3e abd7 3d3e d9d9 ac3e
00000040: 17a9 94bc b909 c13d c1d2 a6be 083f 1dbe
00000050: df34 0dbe 07e4 013c 75e3 be3e 2697 2fbe
00000060: 4ee5 cabd 8899 a23d d35d e3bd 83e7 cc3e
00000070: b6b5 243e 4975 75be e088 e1bd 9417 3bbe
00000080: ec55 8abe 5056 593e be38 b6be 4ac9 25be
00000090: a0ef 53be 26ca 8dbd 3e3d 07be 0121 693e
000000a0: af78 02bd b9e2 5a3e 6a95 2d3e 42ac 023e
000000b0: 7eff 64be d6f1 fa3d f4a4 913e 477f 933e
000000c0: d903 20be 4a84 ce3e aa8b 24be 7cf6 29be
000000d0: dbad 853e f2f7 833e 1735 f0bb b3dd 883d
000000e0: 82c1 663d a189 933e 6c90 d63d 50e5 4c3e
000000f0: f0e7 183e 5a73 713e 3e74 75be af70 983e
00000100: 4f9f 02be ef28 a43e 7653 cebe 602c b63d
00000110: d597 c73c 5e86 f33d ebed 60bd beef 2fbe
00000120: 4f86 e83e 7421 f83d 530a 23be 27b8 02be
00000130: 225d 543e ed4f 0b3e 00c7 eb3d cd47 17be
00000140: 7a16 4e3d 5217 a53d 71a6 54be 6321 bfbe
00000150: c59f 91be e0b8 9a3d ac1d 683e ff24 4c3d
00000160: b879 b43e 5e71 3d3e 340f a23e b80c 94be
00000170: 1ca3 ec3d 89eb 533e 3c52 ea3e c853 313d
00000180: 4e0d de3d e1d2 093e 295e abbd 3380 42be
00000190: cd61 963e e4ce a13e a8e9 2abe a959 b93e
000001a0: 716c 86be ea0e a93d 9efc 35bc a3be 64bd
000001b0: a725 27be 61d9 aebe d8de e7bd c7eb 3b3e
000001c0: 59dd 88bd 4374 c4be acad 8fbd a176 6e3e
000001d0: d0c7 853e 3e9d b03e 9da6 56be 49cf df3d
000001e0: 2c9c b3bd ca27 46be 3c40 9a3e 5480 71bd
000001f0: a498 d1be 4748 3dbe 64d4 923e b247 6d3d
00000200: f496 c9be 05c8 cbbe 0bc5 073e 4b83 63be
00000210: ab6b 6a3e c3e5 e5bd 13da 75be 591f 8ebe
00000220: 08b6 f13d 2311 773d f835 4b3c ce29 46bd
00000230: 5ca6 c63e cee5 87bd e068 5ebd a21f 8e3e
00000240: 3bb6 9a3c 680a b7be ac4a b93e f19d 82be
00000250: 1725 87bd 88b4 103d 59a0 1fbe 1bb9 c23e
00000260: e9d2 c33e 56e7 9cbd ecd0 943c 6638 52be
00000270: ccc8 efbd 91f6 90be f8a2 333e 8ccf b93e
00000280: b91f cebd 95a7 1abe 5459 f4bd 16e4 4b3e
00000290: 4677 bf3e 5deb a13e ff51 ac3e a0da c9be
000002a0: bebf a43e 39c0 1fbe e4ba c73e d549 d03e
000002b0: 57c3 0f3e 5e38 353e 9d53 4ebe b95f 1a3e
000002c0: 4b8b 08be e465 c4be ce25 f0bd bec8 7bbd
000002d0: 007a 993e 157a ab3e aa45 d4bd 7ffe 4c3e
000002e0: 5323 963e fd0c c13e 5501 89be 3a18 8cbd
000002f0: 4fda c43d 0df9 b8be c0bb 5cbe 78bf a3be
00000300: 3f4f a6bd dd09 b13d be61 39be 2170 31be
00000310: 866c 193e 2155 f3bd 28aa 39bd 395d 163d
00000320: d633 24be 22c6 30be a092 c6be 0651 4e3e
00000330: 0e3a bb3d 5d79 4e3e f48f 2b3d 7ab6 8a3e
00000340: cafd f2bd 093f d3be 9619 5dbc 3a59 d2bd
00000350: ac43 aabe 6dc7 b3be 7435 2e3e 2f03 adbe
00000360: 8015 2cbe 8d23 6fbe d4d1 cabe 5816 153e
00000370: 7d3f c7be 98df c83e e296 73be d1d8 173e
00000380: 0127 23be ee9b b23e dab5 b53b 4f32 bc3e
00000390: 1dc3 433e ffd4 9dbe 24d8 05be c5ce 9cbe
000003a0: 12a7 ea3c f62d 53be d8b1 f93c 7525 ec3d
000003b0: 9a6a cf3d 7d05 be3e c9cf 183e 0722 243e
000003c0: b082 2e3d e7a5 c93e adaf 99be 8800 92be
000003d0: 322d 7ebe 3e5c 8ebd 7863 b1be a151 93be
000003e0: 26d3 c2be 46e0 b03d cc32 f83d dbc3 253e
000003f0: 8389 bcbe 0cb4 733d 0b03 99bd 7381 b33c
0.23933363 -0.30367452 -0.31929094 -0.13803288 0.38657776 0.18564413 0.3824681 0.29486084
-0.0046465015 -0.23786943 0.30216458 0.21252826 0.010913537 0.13967107 0.18539302 0.33759955
-0.018147035 0.094256826 -0.32582667 -0.15356076 -0.137897 0.007927901 0.3728291 -0.17147502
-0.09907018 0.0793944 -0.1110188 0.4002038 0.16084942 -0.23970522 -0.11012435 -0.18270713
-0.27018678 0.21224332 -0.35590166 -0.16190067 -0.20696878 -0.069233224 -0.13206956 0.22766496
-0.031853374 0.2137555 0.16951528 0.12761024 -0.22363088 0.12253158 0.28446162 0.28808042
-0.15626468 0.40335304 -0.16068903 -0.16597933 0.26109204 0.25775105 -0.0073305476 0.06682911
0.056336887 0.2881594 0.10476765 0.20009351 0.14932227 0.2357916 -0.23970124 0.2977347
-0.12756084 0.3206248 -0.4029805 0.088951826 0.024364391 0.11890863 -0.054914396 -0.17181298
0.4541497 0.12115756 -0.15921907 -0.12765561 0.20738652 0.13604708 0.115125656 -0.14773484
0.050314404 0.080610886 -0.20766617 -0.3733016 -0.28442207 0.07554793 0.22667569 0.04983997
0.35249114 0.18500277 0.31652224 -0.28915954 0.11554548 0.20695318 0.45765865 0.04329279
0.108423814 0.1345935 -0.08367569 -0.18994217 0.2937149 0.31603158 -0.16690695 0.36201218
-0.2625461 0.08254798 -0.011107592 -0.055845868 -0.16322957 -0.34150222 -0.11321801 0.1835166
-0.06682844 -0.3836995 -0.07015547 0.23287441 0.26129007 0.34494966 -0.20961995 0.109282084
-0.08770022 -0.19351116 0.30127132 -0.058960274 -0.40936768 -0.18484603 0.28677666 0.057929702
-0.3937298 -0.3980104 0.1325876 -0.22218053 0.22892635 -0.11225464 -0.2400897 -0.2775829
0.11802298 0.060319077 0.012403004 -0.04837971 0.38798797 -0.06635629 -0.054299235 0.2775851
0.018885722 -0.35750127 0.36189783 -0.25511125 -0.06598871 0.035328418 -0.15588512 0.3803185
0.3824685 -0.07661311 0.018166028 -0.20529327 -0.11708221 -0.28313115 0.17542636 0.36291158
-0.10064644 -0.1510299 -0.119311005 0.19911227 0.37395686 0.3162488 0.33656308 -0.3942461
0.32177538 -0.15600671 0.39009774 0.4068133 0.1403936 0.17697284 -0.20149083 0.15075578
-0.13334386 -0.38358986 -0.11725961 -0.06147074 0.2997589 0.3349158 -0.1036485 0.20018958
0.29323825 0.37705222 -0.2675883 -0.06840558 0.096119516 -0.3612751 -0.21555996 -0.31982017
-0.08120584 0.086444594 -0.18103692 -0.1732793 0.14982805 -0.118814714 -0.04532829 0.036709998
-0.16035399 -0.17263082 -0.3878374 0.20148095 0.091419324 0.20163484 0.04188533 0.27092344
-0.11864813 -0.4125903 -0.01349487 -0.10270925 -0.33254755 -0.35113087 0.17012578 -0.3379149
-0.16805077 -0.23353405 -0.3961321 0.14559305 -0.38915625 0.39233088 -0.23788026 0.14828803
-0.15932848 0.3488459 0.00554536 0.36757132 0.19117399 -0.30826566 -0.13070732 -0.30626503
0.028644118 -0.20623001 0.03048031 0.11530582 0.101277545 0.37113562 0.14923014 0.16028605
0.042605102 0.39384386 -0.30016842 -0.2851603 -0.24821928 -0.069511876 -0.346462 -0.28773215
-0.38051718 0.08636527 0.12119064 0.16187994 -0.36823663 0.059497878 -0.074712835 0.021912312

linear1.bias f4 [100]
00000000: 2d9e 87be fe6a 88be be21 ce3d 643d b6bc
00000010: 445a 553e 35aa dd3d 7a22 c3be be6e 813c
00000020: 38c2 d2bc 9a74 54bd 3156 723d 3d6a c4be
00000030: a62e 3a3e 5db7 c03e e615 5cbe f479 a4be
00000040: 3e40 973e df39 51be 4bcd 743e 3d2c 593e
00000050: 3858 28be aa4f 683d 41d5 8abe 0d7a a6be
00000060: 9a0d 87be 02e0 46be a4ad a8bc 7a78 84be
00000070: f8d8 0f3e cb8d bf3d 60be 27be 2e88 ae3e
00000080: 71d2 813e 5662 cb3e 03d9 023e 8266 953e
00000090: fa22 1d3e 4c0b 27bd 1ab6 86be 657d bebe
000000a0: bbff ffbd ae73 2cbe f1df 62be c9e7 b0bd
000000b0: 9826 9ebe e326 91be 4f1b cc3d df1a bcbd
000000c0: 9902 5abd 54ed 28be 04cc 8ebe 9f13 c2be
000000d0: 7a13 313e a3d9 0d3d 3d69 633d 9abc a93b
000000e0: f587 853c 0592 8cbe 7f51 023e a6e4 8d3e
000000f0: 91cb d13d 4b18 89be 7e40 41bd 27a3 a33d
00000100: 4221 dc3e c1e9 353e 9a49 023e 910c d23e
00000110: 98f2 c73d f122 033d 6528 babe e706 a9be
00000120: d167 f93d 1b68 17be 90cd 063e 52e8 9cbe
00000130: 97b4 c73d 49e9 81bd 4fa7 b33d 320d b03e
00000140: 6efc f43c 043e 8a3e cea0 4e3e 1f1b bcbe
00000150: 884d 8cbe 000f f83d ccb7 a43e c86f acbd
00000160: 251d 87bc cb9d 2b3e 9415 c73e cc35 4c3e
00000170: 2617 6bbd ce56 4abc 773e 33be 9e4b 1a3e
00000180: f5b6 8ebe 52ad 843e 4cf0 a9be eaf4 d93c
-0.26487866 -0.2664413 0.100650296 -0.02224607 0.20835215 0.1082348 -0.3811224 0.015799876
-0.025727376 -0.051869012 0.05916423 -0.38362303 0.18181857 0.37639895 -0.21492729 -0.32124293
0.295412 -0.20432232 0.23906438 0.21208282 -0.16439903 0.0567166 -0.27115825 -0.32514992
-0.26377565 -0.1942139 -0.02059061 -0.25873166 0.14047611 0.09353217 -0.16381216 0.34088272
0.25355867 0.39723462 0.12778096 0.2917977 0.15345374 -0.040782258 -0.26310807 -0.37205043
-0.124999486 -0.16841003 -0.2215574 -0.086379595 -0.3088882 -0.2834998 0.09966146 -0.09184813
-0.053225134 -0.16496783 -0.27890027 -0.37905595 0.17292586 0.034631383 0.055520285 0.0051799538
0.01630018 -0.27455154 0.12726401 0.27713507 0.10243905 -0.26776347 -0.047180645 0.07990103
0.42994124 0.17764951 0.1272339 0.41025212 0.09763068 0.032015745 -0.36358944 -0.3301308
0.121780045 -0.14785807 0.13164353 -0.30645996 0.09751242 -0.06343324 0.08772146 0.34385067
0.029905524 0.2700044 0.2017853 -0.36739442 -0.27402902 0.12112236 0.32171476 -0.08419758
-0.01649339 0.16759412 0.3888365 0.19942397 -0.057395123 -0.012349797 -0.17504297 0.15067908
-0.2787396 0.25913483 -0.33191144 0.026606042

linear2.weight f4 [80, 100]
00000000: c47b 8f3c 6667 12bd 9d32 c93c 903c 013d
00000010: 5082 463d 8062 533d 3767 0f3d eca6 683d
00000020: 3331 5cbc 2d2a 2d3c 8ad7 52bd cdb0 bb3b
00000030: 0b3a 95bd 8167 8f3c aa4f 1b3d a3f4 2d3d
00000040: 088e e43b 7382 78bd 63f9 173d adf4 98bd
00000050: 3a6b 963d 345f 40bd 622f 1a3c 00e3 51bc
00000060: b229 b13c c26a d2bc cdad 4ebc f859 b0bd
00000070: 63c3 d13c edb2 6a3d da32 23bd ba2f d9bc
00000080: a7aa a2bd 8de1 ca3c e935 403c 52fa 97bd
00000090: 2313 9abd adb8 903c 13d1 babd a138 cbbd
000000a0: d3cc 653d 3af2 8bbd 4703 e6bc 208d 51bd
000000b0: 8068 71bb c25f 903d df89 90bd 971c 763d
000000c0: 9156 a9bd f7cc 953d d0f8 af3d bd6d 113d
000000d0: 96dd 613d 0805 88bd 2239 9ebd 6f0e 3f3d
000000e0: 3d5a 48bd 06ea 7bbd 5f33 ad3d 107e bebc
000000f0: 10ab 133d 80d1 e03b 6851 cbbd f3a1 de3c
00000100: 855f c13c d82a 99bd 8dd7 613c 7eff af3c
00000110: a104 3fbd 8e3f ef3c 979b 3c3d df74 93bd
00000120: a75e cb3c a66f aa37 73fd 793c db93 afbd
00000130: 0fd8 533d 009d 723b 7345 93bd 55fb 86bd
00000140: 42dd bd3d 12c1 c7bd 3521 873d 9422 533c
00000150: 4019 08bd c0a7 6cbd b8ce 80bd 0ecf 853d
00000160: 20bb 8a3c fafb d3bc 1020 75bd 1a5c 7dbd
00000170: 7aab c2bd da92 133d 2726 473c 8e5c acbc
00000180: f11b 09ba 9343 a6bd 9aee 23bb 74f5 c7bd
00000190: 9e87 643d a157 87bd 60aa d63c 6780 b63d
000001a0: e798 5b3d 2783 0cbc da34 633d f394 72bc
000001b0: 34e7 6f3c 397e 3cbd 85a1 b73d cfad d43b
000001c0: 116c 983c 0f43 8bbc 0846 bd3d d81b 9a3d
000001d0: dacb c13d 8bf9 a3bd 0dca 80bc cdb3 263d
000001e0: c757 6b3d 40ca 8ebd b023 803d 9154 033d
000001f0: c0b2 6c3d 63ce c3bc 5e8c 513d 4dcf cbbc
00000200: 24ed 3cbd f87a 9fbd 2030 d43d d92e 8ebd
00000210: b8d4 a5bd f56f b4bd f476 4a3d 5d9c 993d
00000220: 000a a3bd 6308 b73d b4d2 8fbd c85f 4ebd
00000230: 5378 58bd 1257 afbd d82d b73d b4bf bb3d
00000240: ae41 df3c e668 eb3c f37b 533d 4d85 4b3c
00000250: 99f8 a83d a914 803b 4d06 a9bc 5e69 86bd
00000260: 2ff7 81bd 8740 ccbd 8203 7d3d 36a3 0cbc
00000270: d275 9d3d d3cc 0ebd ebf7 a53d 8bee 54bd
00000280: ec26 2b3d 1a82 cf3d 1d78 7e3d 6f2f 98bc
00000290: ca90 e83c deec 89ba 5c11 a6bc d9c3 b1bc
000002a0: 7b98 39bd b008 433d fad9 293d 9590 8dbd
000002b0: 6740 6b3c 7120 153d 60e2 8ebc 3785 f33a
000002c0: f2d4 663c 8e3c 0e3d a4ae 183d 2f4a babd
000002d0: 2d54 523d bf19 c3bc 5a92 81bd a110 513d
000002e0: 958e aabd cb8b b5bd 3511 03bd cdb2 b7bd
000002f0: eada b6bd 5b58 c2bd c2c4 9dbd 5d66 9cbd
00000300: a73c 8dbc 0027 763a 1d93 2abb 4ce9 893c
00000310: 3f2a c1bd adca dd3c bdc3 77bd 7e05 653c
00000320: f2a2 92bd 9c69 80bc 88af 7b3d 8043 02bc
00000330: 4ddd 46bd 8064 8abc 10ff c53d 2b5f a4bd
00000340: ffb2 bebd fa8a ddbc 2a0d 8b3d a199 9b3d
00000350: 5573 9bbd 0ff6 a7bd 08dd b1bd 4952 8ebd
00000360: f341 07bc 1304 a03c 4010 a43d 39a3 923c
00000370: 0f36 76bd 12fa 8fbd cdde 8d3b 5372 853d
00000380: 668b a73d 6335 f63c ab59 0bbc 07ce 92bd
00000390: d641 c4bc 80a7 bb3d 0397 8dbc deb4 79bd
000003a0: bdf7 63bd 4035 063d 972b 103d 809e 123d
000003b0: 6752 54bb 68b9 a03d 9fad 843d 8063 21bd
000003c0: a020 abbc 2235 8b3d da41 81bc f396 393d
000003d0: 4773 70bc beb9 babd a539 87bd 5e16 5c3d
000003e0: 10db 823d 5b0c 763d fa92 c43c 9af9 eebc
000003f0: a382 94bd 22d8 99bd 6e2b 49bd ad78 90bd
0.01751507 -0.03574314 0.024560267 0.031551898 0.04846412 0.05160761 0.035010543 0.056799814
-0.013439464 0.0105691375 -0.051475085 0.0057278634 -0.072864614 0.01750541 0.03791777 0.042469632
0.0069749393 -0.06067128 0.037103068 -0.07468543 0.073446706 -0.046965793 0.009410711 -0.012810469
0.021626327 -0.025685672 -0.0126146795 -0.0861091 0.025605863 0.057299543 -0.039843418 -0.026512016
-0.079427056 0.024765754 0.011731603 -0.07420792 -0.07523181 0.017666185 -0.09121909 -0.099229105
0.05610354 -0.068333104 -0.028077735 -0.051159978 -0.0036835968 0.07049514 -0.07057547 0.06008586
-0.08268464 0.073144846 0.08592379 0.035505045 0.05514296 -0.06641585 -0.07725741 0.046644624
-0.048914183 -0.06150248 0.08457064 -0.02325347 0.03605181 0.006860912 -0.099276364 0.027176833
0.023605118 -0.07478875 0.0137843015 0.021484133 -0.046635274 0.02920511 0.04604682 -0.07200026
0.024825407 2.031757e-05 0.015258181 -0.08573123 0.05171972 0.0037019849 -0.07190981 -0.065909065
0.09270717 -0.09753622 0.065981306 0.012886662 -0.033227205 -0.057777166 -0.062894285 0.06533633
0.016934931 -0.025876988 -0.05984503 -0.061855413 -0.09505363 0.03602872 0.012155092 -0.021040227
-0.0005230299 -0.081183575 -0.0025014044 -0.09763613 0.055793397 -0.06608511 0.026204288 0.089112096
0.053612616 -0.008576191 0.055470325 -0.01480602 0.014642525 -0.046018813 0.08966354 0.006490446
0.018606218 -0.01699975 0.09241873 0.07524842 0.0946271 -0.08006581 -0.015721345 0.040698815
0.057456758 -0.0697217 0.06256807 0.03206307 0.057787657 -0.023902124 0.051159255 -0.024879122
-0.046124592 -0.07787126 0.103607416 -0.06942529 -0.080972135 -0.088104166 0.04942985 0.07500527
-0.07960892 0.089371465 -0.0702261 -0.050384313 -0.052849125 -0.08561529 0.08944291 0.09167424
0.027252998 0.028736543 0.05163188 0.012421918 0.08250541 0.003908713 -0.020632887 -0.06563066
-0.06345975 -0.09973245 0.061770923 -0.008583834 0.07688488 -0.034863304 0.08103927 -0.051985305
0.041785166 0.10132237 0.062126268 -0.018577306 0.028389353 -0.0010522862 -0.02027195 -0.021699833
-0.045311432 0.047615707 0.041467644 -0.069123425 0.014358616 0.03640789 -0.017441928 0.001857913
0.014088856 0.03472572 0.037275925 -0.09096181 0.051349808 -0.023815988 -0.063267425 0.05104125
-0.083279766 -0.08864554 -0.03199883 -0.089696504 -0.08928473 -0.09489509 -0.07703544 -0.07636712
-0.017240835 0.0009389967 -0.0026027628 0.016834877 -0.09431886 0.027074182 -0.060489405 0.01397836
-0.071599856 -0.015675358 0.061446697 -0.007950664 -0.048550893 -0.016893625 0.0966779 -0.08025964
-0.093114845 -0.027043808 0.0678962 0.07597662 -0.07590357 -0.08201229 -0.086847365 -0.069492884
-0.00825547 0.019533193 0.08010912 0.017900096 -0.060110148 -0.07030119 0.0043295384 0.06515946
0.08180885 0.030054754 -0.008505265 -0.07168203 -0.023957174 0.091628075 -0.017283922 -0.060963504
-0.055656184 0.032765627 0.03519782 0.03579569 -0.0032397748 0.078478634 0.06478428 -0.03940153
-0.02088958 0.06797244 -0.01577847 0.045309972 -0.014675922 -0.09117459 -0.06602792 0.05373227
0.06389439 0.060070377 0.023995865 -0.029171754 -0.072514795 -0.07511927 -0.049113683 -0.07054267

linear2.bias f4 [80]
00000000: 9953 aebc c4db ccbc 217e 9a3d 27df 32bd
00000010: 39c9 8dbd 6181 073e dec3 c6bc a402 0fbd
00000020: 5d10 9ebd e8c1 d43d 77ee c2bd 00e6 b4bd
00000030: 6c12 97bd afe0 9b3d b609 b63b 5703 7fbd
00000040: 408a 293d 9249 8fbd 21df 103d 1f91 543d
00000050: 72f3 893c c60b b3bd fd45 a3bc 946a 063d
00000060: bc4a 21bd 473f 373d 779f 77bd 42e1 013d
00000070: cdae 8c3b 1575 02be 73e4 0e3c 4ee1 b6bc
00000080: 32ff 83bd d92e b93d 8777 aebc c70a 093d
00000090: b0d5 d93d cd8c 5b38 7018 adbc 1d1c 823d
000000a0: 0a6d 113d 83a0 8f3d b69c 003e f6b3 a63d
000000b0: 6be1 50bd 38bf 41bd 0749 873c adc8 1bbc
000000c0: dc4a 543d f66b 29bc f929 a9bd 2da2 61bd
000000d0: 55f7 8dbb c1fc 07bd 3954 8b3c 1b0f 173d
000000e0: cd03 ac3c 21f1 91bd 2c05 593d a87b b43d
000000f0: e0c2 183d 659c ccbd d21b 7f3d 93a2 4abc
00000100: b607 5d3d 4ae9 3cbb 466d 103e e3a4 68bc
00000110: 648f c5bd 4c3f fc3c 5776 65bd 309f 22bd
00000120: 72d8 87bd 1d35 b4bd d01f 133d 730e c43c
00000130: 477e ecbd 3fcd e6bc 9383 20bd e76f 24bc
-0.021280097 -0.025007136 0.075435884 -0.043669846 -0.06923146 0.13232948 -0.024263319 -0.034914628
-0.07717965 0.10388547 -0.0951814 -0.088329315 -0.073765606 0.07611214 0.005555357 -0.062259044
0.04139161 -0.06996454 0.035369042 0.05189621 0.016839717 -0.0874248 -0.019930834 0.032816485
-0.039377913 0.04473808 -0.060454812 0.031708963 0.004293299 -0.12739976 0.008721459 -0.02232423
-0.06445159 0.090421386 -0.02129723 0.033457544 0.10636461 5.23448e-05 -0.021129817 0.063530184
0.03550438 0.07013037 0.1255978 0.081397936 -0.050996225 -0.0473015 0.016514314 -0.009508294
0.051829204 -0.010340681 -0.08259959 -0.055086304 -0.004332463 -0.03320003 0.017007934 0.03687964
0.020997906 -0.0712607 0.052983448 0.08812648 0.037295222 -0.099907674 0.06228239 -0.012367862
0.05396243 -0.0028825575 0.14104185 -0.014199468 -0.0964649 0.030791901 -0.05602106 -0.039702594
-0.066330805 -0.08799193 0.03591901 0.023932671 -0.11547523 -0.02817404 -0.03918798 -0.010036445

linear3.weight f4 [2, 80]
00000000: 64a3 e8bc c2ab 30bc f6ef 113d c624 b63d
00000010: 49b7 d33d c1a7 b73d 1da5 793d 9bc5 ae3b
00000020: c07e 91bd b59e 953d 0729 afbd 22d5 12bd
00000030: e868 b03d 303c 5a3d fe94 673d 3999 b4bd
00000040: 750a a5bd 8fb6 81bd 94a5 d13c ff3a 32bb
00000050: 34e1 983d 7f6f 40bd 7014 a2bd 7c7e 28bd
00000060: b173 38bd 9e2e db3d 8a0d 90bc 2b81 c9bd
00000070: 6fe3 97ba 6e8c 483d 3226 84bd 76d6 62bc
00000080: 04d4 abbd ec39 c1bd 6137 363d 68fe 9c3d
00000090: 8361 9f3d 4994 8cbb 69c5 be3d 9d6f c13c
000000a0: ce0c abbb a18f 943c 0a85 523c 67cd 283d
000000b0: 2612 35bd efb3 9d3d 0a60 4e3d e034 7d3c
000000c0: fed3 453d 646f a3bd c8dd 883d 6a44 9c3a
000000d0: 678b 7ebb d4eb 64bd 1f3e 9bbd e4b8 983c
000000e0: cc52 153d 39a3 533d 9672 8e3d ad29 b03d
000000f0: 88d3 c2bd 7c9b 1e3d 08d5 c23d 9463 10bd
00000100: 6d1e 97bc 6ae7 1e3d e931 983d 2609 0fbd
00000110: af36 8fbd 6948 84ba 6e34 6abd a7a0 163d
00000120: 860c b43d 554d 3bbd d676 85bc afb9 17bd
00000130: ce6c 283d f396 bd3d 125d 17bb c653 f83c
00000140: 59e7 c13c 2939 babc d19d 8f3d 011f c7bd
00000150: 7a94 afbd 8b15 dc3c 9c25 c73a 446e c63d
00000160: 7dd1 dbbd 2397 6abd 6aab d73c bcda c33d
00000170: ae85 5abd 5a3e 53bd 725a c23c 6a6b 9b3d
00000180: e89b f03c 1a71 5d3d 9a9d c23c 107a 6bbd
00000190: 9e35 98bd 9838 5d3d f1c4 b03d 2975 d73d
000001a0: 9b52 293d efc4 783d e20b 323d 7e9d 32bd
000001b0: 24a6 093c a1fd b83d 4c32 2ebb 37e5 2f3d
000001c0: de13 19bd 6908 d03b 9a85 adbd 70ac 3dbd
000001d0: a4e6 31bd b4bc 8d3c d3e1 46bd e4f5 ddbc
000001e0: f90d cbba d62f 363d 42ae 10bd e9c8 e5bd
000001f0: 58ba 7a3d e278 cdbd a39c b0bd 3903 2ebd
00000200: 12c8 983d 6b74 1c3d a009 c83d 6c7e 98bd
00000210: dc93 b93d 5c9e b3bd 5103 d9bd 606c 47bd
00000220: 63d3 d73d 7ed4 953d c908 8d3c 0536 76bc
00000230: 0c7a 2f3c f856 8dbd 5369 d6bd a76b 9e3d
00000240: 6d0d b6bd c7ed 8fbd caca d9bd eb74 c73d
00000250: fe29 d7bd cc42 52bd bf88 dbbc 2e82 ac3d
00000260: 13c5 92bd 4d19 babc 19ca 813d 890e 09bc
00000270: 241d 913d ab57 203d 6ee7 66bd a332 593d
-0.028398223 -0.010783138 0.035629235 0.08893733 0.10337693 0.089675434 0.06094848 0.005333615
-0.07104254 0.073056616 -0.08552747 -0.03584779 0.08613759 0.053280056 0.056538574 -0.088182874
-0.08058635 -0.063336484 0.02559165 -0.002719581 0.07464829 -0.04698133 -0.079140544 -0.04113625
-0.045032207 0.10702251 -0.01758458 -0.0983909 -0.0011588166 0.04896205 -0.06452598 -0.013845077
-0.08390048 -0.09434876 0.044486407 0.07665712 0.07782271 -0.004290138 0.09314997 0.023612792
-0.0052200323 0.018134894 0.012849102 0.041211512 -0.04420676 0.07700335 0.05038456 0.015454501
0.048297875 -0.079802305 0.066829264 0.0011922244 -0.0038840414 -0.055888966 -0.07580208 0.01864285
0.036455914 0.051669333 0.06955449 0.08601699 -0.09513003 0.0387225 0.09513289 -0.035251215
-0.018447125 0.038794912 0.074313946 -0.034920834 -0.06992852 -0.0010092381 -0.057178907 0.036774304
0.08791451 -0.045728046 -0.016292017 -0.037042316 0.04111939 0.09257307 -0.0023096246 0.030313384
0.023669885 -0.022732334 0.07012523 -0.097227104 -0.085732415 0.026865741 0.0015193704 0.09689
-0.10733316 -0.05727304 0.026326854 0.09563205 -0.053350143 -0.051573135 0.023724768 0.07588847
0.029371217 0.05406294 0.02375679 -0.057489455 -0.07432102 0.05400905 0.086313136 0.105203934
0.041338544 0.060734686 0.043468364 -0.043607228 0.008401427 0.09032751 -0.0026580272 0.042943206
-0.037372462 0.006348659 -0.08472748 -0.046307027 -0.043432847 0.017301895 -0.048555207 -0.027094789
-0.0015491835 0.044479214 -0.035322435 -0.11219961 0.061212867 -0.10032822 -0.08623626 -0.042483542
0.074600354 0.038196962 0.09767461 -0.07445988 0.09061405 -0.08770439 -0.10596336 -0.04868734
0.10538366 0.0731592 0.017216103 -0.015027528 0.010710251 -0.069013536 -0.10469308 0.07735377
-0.088892795 -0.07027774 -0.10634382 0.09739097 -0.10506056 -0.051333234 -0.026798604 0.08423267
-0.07166495 -0.022717142 0.06337375 -0.008365282 0.07085636 0.039146107 -0.056373052 0.053026807

linear3.bias f4 [2]
00000000: 3b63 1fbd 33d6 f9bd
-0.038912993 -0.121990584
