checkpoints/origin/2020-11-16T14-26-21-16-classify/classify_fold0_origin_0.956154.pth (torch, 38373 bytes, 6 tensors)

linear1.weight f4 [100, 6]
00000000: 9561 a23e 9ea2 7fbe 9a61 64be 7ce4 31be
00000010: 0976 053f 6642 803e 9019 b73e 86e7 673e
00000020: afeb 75bd 3c88 86be 23d5 8f3e c721 303e
00000030: 6919 d13c 7f6c a23d ef45 183e b42a 983e
00000040: 57df 87ba 4b90 7b3d c1d2 a6be 083f 1dbe
00000050: df34 0dbe 07e4 013c 75e3 be3e 2697 2fbe
00000060: a9ce 9bbd 6790 aa3d caea babd a6d2 d83e
00000070: fc66 263e 51f8 5dbe 0f9c 08be 2eeb 52be
00000080: 9a41 96be 597d 413e 231f c2be 95a0 3dbe
00000090: 4dc7 6bbe c56d bdbd aa14 1fbe c447 513e
000000a0: 0c97 61bd 710b 433e b6cd 3d3e 669b d53d
000000b0: 850c 64be f09a 083e b887 893e f987 993e
000000c0: b67e 83be 8adb bc3e f4b4 62be df4b 30bf
000000d0: 5cb3 813e 6127 053d a463 b7bd 4589 563d
000000e0: 05f2 a63c fbb7 b43e ba05 a1bb 4a41 353e
000000f0: 5ca5 1e3e ad41 783e 91fc 73be 210b 7b3d
00000100: 64c4 93bd cee7 503e 8c36 ecbe 6bf1 9a3d
00000110: 4e28 ebbb fbd2 233e 2313 ddbd b0f9 45be
00000120: 4016 f93e 28a6 f73d 001c 04be e007 7bbe
00000130: e537 2f3e 6741 453e a0ea 383e 9a6b c4be
00000140: 6094 5d3d de00 973c 91bb c7bd 26b4 d0be
00000150: 86b5 b4be 4d5d 613d 7c73 323e a34c 9b3d
00000160: e513 683e 0ea2 233e 1f27 b93e 1264 e7be
00000170: 9916 cb3d 1988 1c3e f924 073f 682f ce3c
00000180: a327 0a3e 0bc0 023e 58aa 98bd 3625 95be
00000190: 352a 813e 5afc ac3e 72fd 35be db16 c53e
000001a0: 705f 85be d1fa cfbe 0c74 8a3d 57fe 3dbe
000001b0: f24e 0fbe 98f0 a2be c430 b8bd 5dc0 533e
000001c0: 519f 32bd b288 b8be 82ed 25be 0f1c 3e3e
000001d0: 6bbd 283e b8e8 c93e 78a2 bcbe d318 133d
000001e0: 8d09 66be 68b6 5abe 9cde 253e a319 e8bd
000001f0: aa4f 1bbf 42ea 90be c411 9f3e 8835 a33d
00000200: e09d bfbe 1306 d1be 583a 2c3e 1436 5bbe
00000210: dc67 983e a326 2cbe 0813 37be e244 b5be
00000220: 57c6 553e 7392 3f3d 0601 41bc e421 a9bd
00000230: bc0e ae3e 7acc 2ebe d710 19bd 3d09 693e
00000240: 0b9e 093d fab9 a4be 259f a73e 77cc a3be
00000250: f07c 59bc 4fb8 643b 6027 45be f0fa c53e
00000260: 3cca bb3e d304 3d3d 4431 92bd ad6e 46be
00000270: 3cea aebd 4d9b e0be 93ae 0c3e 8c2e 9e3e
00000280: 083a 39bc 27ac 46be 149b 2abe 7893 063e
00000290: b838 a13e 2628 833e f04e 823e efa0 dbbe
000002a0: 631f 803e 2c8b 2fbe 5ec6 b23e 21f1 ed3e
000002b0: 7dde 733b 169b 253e 9d53 4ebe b95f 1a3e
000002c0: 4b8b 08be e465 c4be ce25 f0bd bec8 7bbd
000002d0: bbe0 943e 9901 a23e a074 02be 8b84 2c3e
000002e0: 4878 903e d4a0 b53e 88ab 54be c598 b5be
000002f0: 7156 ac3d 52b8 42bf b568 323c ff17 0bbf
00000300: 3f4f a6bd dd09 b13d be61 39be 2170 31be
00000310: 866c 193e 2155 f3bd 28aa 39bd 395d 163d
00000320: d633 24be 22c6 30be a092 c6be 0651 4e3e
00000330: 6c2f e93d 1950 123e de5e cd3c be72 863e
00000340: 53b2 10bd ba5c e2be 9619 5dbc 3a59 d2bd
00000350: ac43 aabe 6dc7 b3be 7435 2e3e 2f03 adbe
00000360: a33d 14be 3c4e 57be 19e6 bebe 82f0 2c3e
00000370: a056 bbbe 3ecb d43e 2d35 5fbe 2065 133e
00000380: 201d 23be aa85 be3e ff17 f0bb 329e c53e
00000390: 56c6 7a3e e2c9 8bbe 6d0f b2bd 7727 c4be
000003a0: edc4 d03d 8e84 15be afc7 14bd 7138 a13d
000003b0: 6e76 f73c abed b83e d6a7 d13d be92 b13d
000003c0: 9c58 4a3c 0c3c d13e cc57 9dbe 2909 40bf
000003d0: 4f12 44be f20d 62be 7863 b1be a151 93be
000003e0: 26d3 c2be 46e0 b03d cc32 f83d dbc3 253e
000003f0: 8389 bcbe 0cb4 733d 0b03 99bd 7381 b33c
0.31715074 -0.24964377 -0.22302857 -0.17372316 0.5213323 0.25050658 0.3576169 0.22646913
-0.06003922 -0.26275814 0.28092298 0.17200385 0.025524812 0.0793085 0.14870428 0.2972008
-0.0010366243 0.061416905 -0.32582667 -0.15356076 -0.137897 0.007927901 0.3728291 -0.17147502
-0.07607777 0.08328324 -0.09126814 0.42348212 0.16250223 -0.21676756 -0.13340782 -0.20597526
-0.29346925 0.18895473 -0.3791438 -0.18518288 -0.23025246 -0.092494525 -0.15535226 0.20437533
-0.05507569 0.19047333 0.18535504 0.104300305 -0.22270401 0.13340354 0.26861358 0.2998655
-0.2568261 0.36886245 -0.2213934 -0.6886577 0.25332153 0.032508258 -0.08954552 0.052377004
0.020379076 0.35296616 -0.0049140127 0.17700687 0.15492767 0.24243803 -0.23826815 0.06128991
-0.07215193 0.20400926 -0.46135366 0.07565578 -0.0071764356 0.15998451 -0.10794666 -0.1933353
0.48649788 0.12092239 -0.12901306 -0.24514723 0.17111166 0.1926323 0.18058252 -0.38363343
0.05409658 0.01843303 -0.09752572 -0.40762442 -0.3529474 0.05502062 0.17426866 0.07582977
0.22663839 0.15979788 0.3616266 -0.45193535 0.099164195 0.15286292 0.5279079 0.02516909
0.13491683 0.12768571 -0.074543655 -0.29129952 0.25227514 0.3378628 -0.17772463 0.38494
-0.26049376 -0.40621045 0.067604154 -0.18554054 -0.13994959 -0.31824183 -0.08993676 0.2067885
-0.043608967 -0.3604179 -0.16203883 0.18565391 0.16478507 0.39435363 -0.36842704 0.035912346
-0.22464581 -0.21358645 0.161982 -0.11333015 -0.6066843 -0.28303725 0.31068242 0.07969195
-0.37425137 -0.40824947 0.16819131 -0.21407348 0.29766738 -0.16811614 -0.17878354 -0.35404116
0.20876442 0.046770524 -0.011780029 -0.08258417 0.33995616 -0.17070189 -0.037369575 0.2275743
0.033597987 -0.3217314 0.32738605 -0.31991932 -0.013274416 0.0034899896 -0.19253302 0.38668013
0.3667773 0.04614718 -0.07138303 -0.19378157 -0.085407704 -0.43868485 0.1373847 0.30894887
-0.01130534 -0.19401608 -0.1666072 0.13142192 0.31488585 0.25616568 0.2545085 -0.4289622
0.25023946 -0.17142934 0.34916967 0.4647303 0.003721147 0.16172442 -0.20149083 0.15075578
-0.13334386 -0.38358986 -0.11725961 -0.06147074 0.29077706 0.31641844 -0.12739801 0.16847436
0.28216767 0.35474265 -0.20768559 -0.35468116 0.08414925 -0.760625 0.010889222 -0.5433349
-0.08120584 0.086444594 -0.18103692 -0.1732793 0.14982805 -0.118814714 -0.04532829 0.036709998
-0.16035399 -0.17263082 -0.3878374 0.20148095 0.11385998 0.14288367 0.02506965 0.26259416
-0.035326313 -0.4421137 -0.01349487 -0.10270925 -0.33254755 -0.35113087 0.17012578 -0.3379149
-0.14476638 -0.21025938 -0.37284926 0.16888621 -0.36589527 0.4156131 -0.21797629 0.14394045
-0.15929079 0.37211353 -0.0073270793 0.38597256 0.24489722 -0.27302462 -0.086943485 -0.3831136
0.101938106 -0.14601347 -0.036323246 0.078720935 0.030207839 0.36118826 0.1023709 0.08670567
0.012350228 0.40866125 -0.30731046 -0.7501398 -0.19147609 -0.22075632 -0.346462 -0.28773215
-0.38051718 0.08636527 0.12119064 0.16187994 -0.36823663 0.059497878 -0.074712835 0.021912312

linear1.bias f4 [100]
00000000: 98f6 04be 71ed 92be ae83 f33d 643d b6bc
00000010: 7f14 573e f22d ae3d 54fb cebe 551b fc37
00000020: 8b92 fbbc 856d 27be a8b6 ef3d e9ce dfbe
00000030: ddec 163e 268d f93e 0a99 afbe d119 80be
00000040: 6bf7 823e 5140 fbbd 9c3e 863e 2670 533d
00000050: 306d b9be fbec bc3d ae3b 39be 3913 9dbe
00000060: c908 59be 7202 92be 65a6 8e3d e35d aebe
00000070: 7610 1c3b cb8d bf3d d84a 31be b875 113f
00000080: 71d2 813e 5662 cb3e 7147 5a3e 8266 953e
00000090: e1ec 343e 530d 5dbd 3a7e 41be 8125 d7be
000000a0: 9145 86bd ae73 2cbe f1df 62be 284e 90bd
000000b0: 184a 6abe 5944 bfbe 25dd c03d 7b9f 38be
000000c0: 8561 33be 8938 adbd 04cc 8ebe cad3 c0be
000000d0: f97c 1b3e a3d9 0d3d bed0 a23d 2775 a03d
000000e0: f587 853c ed63 13be fa42 343d 6cbf b33e
000000f0: b103 05bd 880b 46be 3cf3 2fbe d859 9dbc
00000100: c9f2 023f 038f 1f3e dba7 543d 4ca4 e73e
00000110: 0ac7 c03d 7f0b ea3d c041 aebe 10e3 9ebe
00000120: d167 f93d ff6a 17be 90cd 063e 4d3b d4be
00000130: 026c b83d 676c 21be b8dd dfbc 320d b03e
00000140: 6efc f43c e579 963e 6355 323e 5a59 ccbe
00000150: 884d 8cbe 91e9 d83d d41e 4d3e c917 b63b
00000160: c7c0 22bd cb9d 2b3e b75a f23e bb9d e43d
00000170: 2617 6bbd 3a90 95bd 8c2e 37be 720c 6d3e
00000180: 5b3b 71be 954f bc3e 0e0f 9ebe 7669 50bd
-0.12984693 -0.28696778 0.1189035 -0.02224607 0.21003912 0.08504857 -0.40426123 3.0053468e-05
-0.030709526 -0.16350372 0.11704761 -0.43712547 0.14738794 0.487405 -0.34296447 -0.25019696
0.2557939 -0.12268127 0.26219642 0.051620625 -0.36216116 0.09224888 -0.18089172 -0.30678728
-0.21194758 -0.2851749 0.06965331 -0.34056005 0.0023813522 0.09353217 -0.17313707 0.5682025
0.25355867 0.39723462 0.21316315 0.2917977 0.17668487 -0.053967785 -0.18895808 -0.420208
-0.065562375 -0.16841003 -0.2215574 -0.07046157 -0.22879827 -0.37356833 0.0941718 -0.18029587
-0.1751767 -0.08458049 -0.27890027 -0.37661582 0.15184392 0.034631383 0.07949971 0.07834845
0.01630018 -0.14393587 0.044009186 0.3510698 -0.032474224 -0.19340336 -0.1718263 -0.01920788
0.5115171 0.15581898 0.051917892 0.45242536 0.09412964 0.11427974 -0.34034538 -0.3103261
0.121780045 -0.1478691 0.13164353 -0.41451493 0.09004976 -0.15764008 -0.027327403 0.34385067
0.029905524 0.29389873 0.17415385 -0.3991192 -0.27402902 0.10591424 0.20031291 0.0055570346
-0.039734628 0.16759412 0.47334835 0.11162897 -0.057395123 -0.073029 -0.1788885 0.23149279
-0.23557799 0.36779466 -0.3087086 -0.050881825

linear2.weight f4 [80, 100]
00000000: af7b 8f3c 6d67 12bd 9232 c93c 903c 013d
00000010: 5082 463d 8062 533d 3767 0f3d e3a6 683d
00000020: 3331 5cbc 0f2a 2d3c 91d7 52bd cdb0 bb3b
00000030: 0c3a 95bd 7267 8f3c aa4f 1b3d 9cf4 2d3d
00000040: b98d e43b 7382 78bd 63f9 173d adf4 98bd
00000050: 3a6b 963d 3d5f 40bd 282f 1a3c 18e3 51bc
00000060: a829 b13c c46a d2bc cdad 4ebc f859 b0bd
00000070: 54c3 d13c edb2 6a3d e132 23bd ba2f d9bc
00000080: a7aa a2bd 8de1 ca3c cb35 403c 52fa 97bd
00000090: 2313 9abd adb8 903c 16d1 babd a138 cbbd
000000a0: d3cc 653d 3af2 8bbd 4703 e6bc 208d 51bd
000000b0: 1569 71bb c25f 903d df89 90bd 971c 763d
000000c0: 9156 a9bd f7cc 953d d0f8 af3d b66d 113d
000000d0: 8edd 613d 0805 88bd 2239 9ebd 690e 3f3d
000000e0: 3d5a 48bd 0cea 7bbd 5f33 ad3d 217e bebc
000000f0: 10ab 133d 27d1 e03b 6851 cbbd eca1 de3c
00000100: 6c5f c13c d82a 99bd 8dd7 613c 63ff af3c
00000110: a104 3fbd 7d3f ef3c 979b 3c3d df74 93bd
00000120: a75e cb3c 30e7 a937 73fd 793c db93 afbd
00000130: 08d8 533d 009d 723b 7345 93bd 55fb 86bd
00000140: 42dd bd3d 12c1 c7bd 3421 873d 8122 533c
00000150: 4019 08bd c0a7 6cbd b8ce 80bd 0dcf 853d
00000160: 20bb 8a3c fafb d3bc 1820 75bd 1a5c 7dbd
00000170: 7aab c2bd d292 133d 2726 473c a15c acbc
00000180: 411f 09ba 9343 a6bd 9aee 23bb 74f5 c7bd
00000190: 5a82 303d 259b 94bd 7015 28bc 6780 b63d
000001a0: f17a f83c 237d 02bd 96d8 033d a7ec 12bd
000001b0: 6807 4a3c b17b a2bd fa2a 6d3d 59cf bfbc
000001c0: 3ed7 3b3c 5f5f 3fbd 956e 893d 0ee3 3a3d
000001d0: 26f7 c63d 99ad 96bd 89c1 1fbd 6e99 bc3b
000001e0: ef11 433d 3fad 94bd f6a2 b43b 5f83 ab3c
000001f0: 8725 453d a2e5 1bbd f850 7e3c 2096 7ebd
00000200: dd43 a3bd f87a 9fbd 743c 923d c493 9fbd
00000210: b8d4 a5bd f56f b4bd fe71 743c 5d9c 993d
00000220: 57b8 d2bd 855a 873d 4745 bfbd ab53 adbd
00000230: 136d 3cbd 1257 afbd d82d b73d a216 a93d
00000240: f828 993c 7265 493c d08a 1e3d 2b77 d7bc
00000250: 90b4 463d b275 02bc 4d06 a9bc 1362 8fbd
00000260: 3fb8 b4bd 8740 ccbd a331 e43c 553a 87bc
00000270: d275 9d3d 363c 0abd 2726 933d 033b 7cbd
00000280: 7af1 f13c c138 c93d e652 cb3c 1871 f9bc
00000290: d729 a1bd 4e0c c1bb f7e2 03bd 98e7 cbbc
000002a0: ba54 6fbd a4b6 4f3c 88fc 943c 0e4b 95bd
000002b0: 6740 6b3c 4acb 143d 60e2 8ebc 0786 01bd
000002c0: 3af5 94bc 1c5e 1539 d95f f53b 2f4a babd
000002d0: 2d54 523d c444 18bd e979 acbd e035 073d
000002e0: 958e aabd 2e96 fabd 5d92 87bd 8692 bebd
000002f0: e988 e6bd 5458 c2bd 81e5 7ebd d6ff dcbd
00000300: a73c 8dbc ecdc a8bc 80a2 adbc 9520 abbc
00000310: 35b4 e1bd 5434 d93c fa8f abbd 1f33 5f3b
00000320: f2a2 92bd 9e69 80bc 88af 7b3d 8043 02bc
00000330: 4ddd 46bd 8064 8abc 10ff c53d 2b5f a4bd
00000340: ffb2 bebd fc8a ddbc 2a0d 8b3d a199 9b3d
00000350: 5573 9bbd 0ff6 a7bd 08dd b1bd 4952 8ebd
00000360: f341 07bc 1304 a03c 4010 a43d 37a3 923c
00000370: 0f36 76bd 12fa 8fbd cdde 8d3b 5372 853d
00000380: 668b a73d 6135 f63c b459 0bbc 07ce 92bd
00000390: d841 c4bc 80a7 bb3d 0597 8dbc deb4 79bd
000003a0: bdf7 63bd 4035 063d 972b 103d 809e 123d
000003b0: 6752 54bb 68b9 a03d 9fad 843d 8063 21bd
000003c0: a020 abbc 2235 8b3d da41 81bc f396 393d
000003d0: 5073 70bc beb9 babd a539 87bd 5e16 5c3d
000003e0: 10db 823d 5b0c 763d fa92 c43c 9af9 eebc
000003f0: a382 94bd 22d8 99bd 6e2b 49bd ad78 90bd
0.017515032 -0.035743166 0.024560247 0.031551898 0.04846412 0.05160761 0.035010543 0.05679978
-0.013439464 0.01056911 -0.05147511 0.0057278634 -0.07286462 0.017505381 0.03791777 0.042469606
0.0069749025 -0.06067128 0.037103068 -0.07468543 0.073446706 -0.046965826 0.009410657 -0.012810491
0.021626309 -0.025685675 -0.0126146795 -0.0861091 0.025605835 0.057299543 -0.039843444 -0.026512016
-0.079427056 0.024765754 0.011731575 -0.07420792 -0.07523181 0.017666185 -0.09121911 -0.099229105
0.05610354 -0.068333104 -0.028077735 -0.051159978 -0.0036836315 0.07049514 -0.07057547 0.06008586
-0.08268464 0.073144846 0.08592379 0.03550502 0.05514293 -0.06641585 -0.07725741 0.046644602
-0.048914183 -0.0615025 0.08457064 -0.023253502 0.03605181 0.0068608704 -0.099276364 0.02717682
0.023605071 -0.07478875 0.0137843015 0.021484083 -0.046635274 0.029205078 0.04604682 -0.07200026
0.024825407 2.0254025e-05 0.015258181 -0.08573123 0.051719695 0.0037019849 -0.07190981 -0.065909065
0.09270717 -0.09753622 0.0659813 0.012886644 -0.033227205 -0.057777166 -0.062894285 0.065336324
0.016934931 -0.025876988 -0.05984506 -0.061855413 -0.09505363 0.03602869 0.012155092 -0.021040263
-0.00052307924 -0.081183575 -0.0025014044 -0.09763613 0.043093063 -0.07256154 -0.010259017 0.089112096
0.03033206 -0.03185762 0.032188974 -0.03587022 0.012330867 -0.079337485 0.057902314 -0.0234143
0.011464892 -0.046721812 0.06710545 0.045626692 0.097151086 -0.0735733 -0.03900293 0.005755595
0.047624525 -0.072596066 0.0055125905 0.020936666 0.048131492 -0.03806079 0.015522234 -0.06215489
-0.07971928 -0.07787126 0.07140437 -0.07791856 -0.080972135 -0.088104166 0.014919756 0.07500527
-0.10289066 0.06609062 -0.093393855 -0.08463224 -0.04600246 -0.08561529 0.08944291 0.0825627
0.018696293 0.012292253 0.0387066 -0.02630194 0.04851204 -0.007962631 -0.020632887 -0.07001128
-0.08824205 -0.09973245 0.0278557 -0.016507307 0.07688488 -0.033748828 0.07185011 -0.061579715
0.02953409 0.09825278 0.024819802 -0.030449435 -0.078693084 -0.0058913594 -0.032198872 -0.024890706
-0.05843041 0.012677822 0.018186823 -0.07289706 0.014358616 0.036326684 -0.017441928 -0.03162196
-0.01818334 0.00014244806 0.0074882326 -0.09096181 0.051349808 -0.037174955 -0.0842169 0.033010364
-0.083279766 -0.12235676 -0.066197135 -0.09305291 -0.11256582 -0.094895035 -0.06223059 -0.10790984
-0.017240835 -0.020613156 -0.02119565 -0.02088956 -0.110207 0.02651421 -0.08377071 0.003405757
-0.071599856 -0.015675362 0.061446697 -0.007950664 -0.048550893 -0.016893625 0.0966779 -0.08025964
-0.093114845 -0.027043812 0.0678962 0.07597662 -0.07590357 -0.08201229 -0.086847365 -0.069492884
-0.00825547 0.019533193 0.08010912 0.017900093 -0.060110148 -0.07030119 0.0043295384 0.06515946
0.08180885 0.03005475 -0.008505274 -0.07168203 -0.023957178 0.091628075 -0.017283926 -0.060963504
-0.055656184 0.032765627 0.03519782 0.03579569 -0.0032397748 0.078478634 0.06478428 -0.03940153
-0.02088958 0.06797244 -0.01577847 0.045309972 -0.01467593 -0.09117459 -0.06602792 0.05373227
0.06389439 0.060070377 0.023995865 -0.029171754 -0.072514795 -0.07511927 -0.049113683 -0.07054267

linear2.bias f4 [80]
00000000: ac53 aebc 655f 0cbd 217e 9a3d 27df 32bd
00000010: 273d 09be b931 093e bd26 933c a802 0fbd
00000020: f93d aebd f118 233e b359 1fbe 00e6 b4bd
00000030: 6c12 97bd 64ca b13d ab0d f3bc ddd6 34be
00000040: e09f 54bd 9249 8fbd 31f3 e8bb 1032 aa3d
00000050: 6286 7b3d 098f 36be 33b8 a9bd eecd 46bd
00000060: a44f 1bbe 473f 373d 779f 77bd 42e1 013d
00000070: cdae 8c3b 17b4 36be 35e4 0e3c 2a63 06be
00000080: 3bff 83bd d92e b93d 2caa 1a3d c70a 093d
00000090: fe43 113e cd8c 5b38 2136 4d3d a53f 713d
000000a0: fdcc 9e3c 83a0 8f3d 0b5f 353e 0e7a d93d
000000b0: 5bf2 36be f440 453c ca90 923d 54d7 573d
000000c0: 876f 873d 5a83 29bc 4a53 bcbd 7c46 9cbb
000000d0: 1932 19bc bc9f 21bd 7577 c83b aaab a43d
000000e0: cd03 ac3c 55f7 91bd 1174 683d 0bfd 0c3e
000000f0: e0c2 183d 659c ccbd c669 f43d adb7 e1bd
00000100: 7fad c83d 8d1d 833b 16d7 523e 6f16 cdbd
00000110: 76fe c5bd a510 a73d 5776 65bd b8ca 68bd
00000120: 97fb aebd 0bd8 e3bd 6a89 03bd c695 eabc
00000130: adc3 18be 8dc2 3a3c 5773 ccbc 80a0 b7bc
-0.021280132 -0.034270663 0.075435884 -0.043669846 -0.13402234 0.13397874 0.017962808 -0.034914643
-0.08507914 0.15927483 -0.15561561 -0.088329315 -0.073765606 0.08681181 -0.029669603 -0.17660089
-0.05191028 -0.06996454 -0.007109069 0.0831033 0.061407454 -0.17828001 -0.08287086 -0.048536234
-0.15167099 0.04473808 -0.060454812 0.031708963 0.004293299 -0.17842136 0.008721401 -0.13123766
-0.06445166 0.090421386 0.037759945 0.033457544 0.14186093 5.23448e-05 0.05010045 0.058898587
0.019384855 0.07013037 0.17712037 0.10618983 -0.17865889 0.012039412 0.071565226 0.052695587
0.06613069 -0.010346258 -0.09195574 -0.0047691446 -0.009350323 -0.039458975 0.006117756 0.08040555
0.020997906 -0.07127253 0.056751315 0.13768403 0.037295222 -0.099907674 0.11934237 -0.110213615
0.09798717 0.0040013255 0.20589861 -0.100140445 -0.09667675 0.081574716 -0.05602106 -0.056833953
-0.08544081 -0.11125191 -0.03211347 -0.02863587 -0.14918394 0.011398924 -0.024957342 -0.0224154

linear3.weight f4 [2, 80]
00000000: 52a3 e8bc 6109 203a f6ef 113d c624 b63d
00000010: 7f65 ea3d 8e5c c93d a9d8 393d 8ac5 ae3b
00000020: 8858 acbd 2714 973d 1658 a6bd 21d5 12bd
00000030: e868 b03d 4fc7 9c3d 7acd a53d b6cc 8dbd
00000040: 1bd9 debd 8fb6 81bd 0642 303d 729c 5d3c
00000050: 8322 873d a0ed f6bc 39f0 a9bd b551 d1bc
00000060: 04f4 68bd 9e2e db3d 8a0d 90bc 2b81 c9bd
00000070: 6fe3 97ba da7f 823d 3226 84bd e73b c7bc
00000080: 00d4 abbd ec39 c1bd 55d7 343d 68fe 9c3d
00000090: 937e ab3d 4994 8cbb 86cc a23d 6760 c43c
000000a0: d7cb 9f3c a18f 943c 07c6 073c 2deb e43c
000000b0: ae56 aabd 9bd3 a53d 9142 623d ad93 173d
000000c0: 9243 98bc 646f a3bd 9585 b93d 96a7 06bb
000000d0: a5ff 76bb a8af 0fbd 6030 66bd 6e14 c43b
000000e0: cc52 153d 3da3 533d 877d 9f3d 1278 743d
000000f0: 88d3 c2bd 7c9b 1e3d 9dd2 ac3d 6d1a d9bc
00000100: e409 0dbb e3da 8c3d f58e ab3d d557 6bbc
00000110: e8c6 8ebd ed4b b53c 6e34 6abd ac5d fb3c
00000120: 13a5 993d 60e0 b7bc 68f5 173b eff9 ecbc
00000130: be20 e63c e262 bd3d 2727 4d3c 20bd 3c3d
00000140: 4fe7 c13c 0595 59bc d19d 8f3d 011f c7bd
00000150: 72a8 39bd 90cc 36bb b693 713c 446e c63d
00000160: 0261 bdbd 7454 09bd 6ce6 b03b bcda c33d
00000170: ae85 5abd 2b4a 53bd 922d 583d 9238 b23d
00000180: b4fa ce3c 1a71 5d3d 62d3 a03c 8a03 29bd
00000190: 023b 76bd e93d 813d 607e 9c3d 1238 cd3d
000001a0: 2061 c93c efc4 783d e20b 323d 7e9d 32bd
000001b0: 24a6 093c 516b a43d b531 2ebb 9dcf 0f3d
000001c0: de13 19bd 4e08 d03b c039 5bbd 70ac 3dbd
000001d0: cb6c f5bc b4bc 8d3c 80e5 2ebd 71d4 e7bc
000001e0: 348d d93a d62f 363d 18dd c9bc 4c1d b1bd
000001f0: 230b 783d 4384 76bd 510f 9dbd 8a92 dbbc
00000200: d961 0b3e 5972 1c3d f7af c63d c404 73bd
00000210: 3c4c b93d 89aa 90bd b800 b6bd fbc7 d2bc
00000220: 63d3 d73d 6fd4 953d ce46 203d e86d ccbb
00000230: 0c7a 2f3c f856 8dbd 27ca b9bd 89ca a43d
00000240: 8a00 94bd f3d3 1dbe fa3d 9cbd 56f1 ba3d
00000250: b38b d7bd 53ed 22bd bf88 dbbc b59e ad3d
00000260: 448b 92bd 823c babc 437c 733d ae5f 19bc
00000270: efef 803d 659c 123d ebc0 1dbd 42ac 0f3d
-0.02839819 0.0006104913 0.035629235 0.08893733 0.1144514 0.098321065 0.04537264 0.005333607
-0.084153235 0.07376891 -0.0812227 -0.035847787 0.08613759 0.076552026 0.08095832 -0.06923811
-0.10881253 -0.063336484 0.043031715 0.013526069 0.065983795 -0.030142605 -0.08297772 -0.025551656
-0.056873336 0.10702251 -0.01758458 -0.0983909 -0.0011588166 0.06372042 -0.06452598 -0.024320556
-0.08390045 -0.09434876 0.04415067 0.07665712 0.083737515 -0.004290138 0.07949166 0.02397175
0.019506378 0.018134894 0.0082869595 0.027944172 -0.08317314 0.08097001 0.055239264 0.03700607
-0.018586908 -0.079802305 0.09058682 -0.0020546666 -0.0037688997 -0.03507963 -0.056198478 0.0059838807
0.036455914 0.051669348 0.07787614 0.05968482 -0.09513003 0.0387225 0.08438609 -0.026501859
-0.0021520788 0.06877687 0.08376876 -0.0143642025 -0.06971532 0.02213093 -0.057178907 0.030684315
0.075021885 -0.022445858 0.0023187045 -0.028927771 0.028091785 0.09247376 0.012521542 0.0460788
0.023669867 -0.013280158 0.07012523 -0.097227104 -0.045326658 -0.0027892925 0.01474469 0.09689
-0.092470184 -0.033527806 0.005398562 0.09563205 -0.053350143 -0.051584404 0.052777834 0.08702196
0.025266029 0.05406294 0.019632045 -0.04126314 -0.060114868 0.063106366 0.076412916 0.1002046
0.024582446 0.060734686 0.043468364 -0.043607228 0.008401427 0.080282815 -0.002657992 0.035110105
-0.037372462 0.0063486462 -0.05352187 -0.046307027 -0.029959103 0.017301895 -0.042699337 -0.028299542
0.0016597868 0.044479214 -0.024641559 -0.08648166 0.060557496 -0.06018473 -0.07668937 -0.026803274
0.13611545 0.038194988 0.097015314 -0.059330717 0.09047744 -0.07063777 -0.08886856 -0.025730124
0.10538366 0.07315909 0.039130025 -0.006238688 0.010710251 -0.069013536 -0.090717606 0.08046443
-0.07226665 -0.15412883 -0.076290086 0.091280624 -0.105246924 -0.03977711 -0.026798604 0.084775366
-0.07155469 -0.02273393 0.059444677 -0.009361191 0.06295764 0.03579368 -0.03851406 0.035076387

linear3.bias f4 [2]
00000000: c99d 943c 5b62 37be
0.018141644 -0.17908613
