checkpoints/origin/2020-11-16T14-26-21-16-classify/classify_fold0_origin_0.952308.pth (torch, 38373 bytes, 6 tensors)

linear1.weight f4 [100, 6]
0.26422065 -0.29560125 -0.28254533 -0.115343496 0.42118284 0.21288025 0.37681696 0.28232068
-0.0139442105 -0.23344937 0.2926091 0.2071008 0.01237636 0.12715489 0.17771515 0.29097942
0.00834191 0.082172245 -0.32582667 -0.15356076 -0.137897 0.007927901 0.3728291 -0.17147502
-0.09907018 0.0793944 -0.1110188 0.4002038 0.16084942 -0.23970522 -0.11012435 -0.18270713
-0.27018678 0.21224332 -0.35590166 -0.16190067 -0.20696878 -0.069233224 -0.13206956 0.22766496
-0.031853374 0.2137555 0.16483821 0.11458822 -0.2334874 0.11236064 0.2780275 0.2795155
-0.18403798 0.3875746 -0.18519543 -0.28310698 0.2561319 0.19493684 -0.038796496 0.06161976
0.04118768 0.33102244 0.041837335 0.19385652 0.15365395 0.2427631 -0.2407044 0.2181375
-0.093206204 0.2710035 -0.42671606 0.06994507 0.0072635906 0.16130471 -0.0929531 -0.17302819
0.48490465 0.12531945 -0.13529995 -0.12578203 0.20505978 0.18706928 0.13204947 -0.25895762
0.05103341 0.022870108 -0.1411993 -0.3964573 -0.3027083 0.06607746 0.21265094 0.078234755
0.3021973 0.1807083 0.32428643 -0.35406628 0.11011733 0.1562773 0.5003294 0.03357821
0.13108972 0.13419485 -0.071869455 -0.2118434 0.29640475 0.33552662 -0.14633977 0.37706953
-0.25397366 -0.04434237 0.035085414 -0.076752074 -0.16322957 -0.34150222 -0.11321801 0.1835166
-0.06682844 -0.3836995 -0.099301815 0.21530153 0.22391477 0.37385362 -0.287215 0.084916845
-0.11841918 -0.20302214 0.2659857 -0.10503055 -0.44312707 -0.21492018 0.29011223 0.060086735
-0.38959786 -0.39498028 0.13680011 -0.21858019 0.26433817 -0.089334115 -0.20134719 -0.27053878
0.16077219 0.0800616 0.014302429 -0.05592931 0.37949988 -0.11260551 -0.022130627 0.2653681
0.020167325 -0.3499544 0.35248387 -0.29988247 -0.03790687 0.02222036 -0.16913508 0.3741605
0.37648895 -0.038913477 -0.02683231 -0.20338842 -0.11385678 -0.32677475 0.16778004 0.31532267
-0.064270765 -0.16259255 -0.12196797 0.18690836 0.36504832 0.2879586 0.3415048 -0.4006206
0.30486095 -0.1566423 0.38004068 0.46159047 0.08528618 0.17896803 -0.20149083 0.15075578
-0.13334386 -0.38358986 -0.11725961 -0.06147074 0.29550618 0.32913473 -0.11465223 0.16818869
0.29567835 0.37106347 -0.23933132 -0.13788575 0.09560687 -0.46049717 -0.13467763 -0.37503064
-0.08120584 0.086444594 -0.18103692 -0.1732793 0.14982805 -0.118814714 -0.04532829 0.036709998
-0.16035399 -0.17263082 -0.3878374 0.20148095 0.09117999 0.18660307 0.035476882 0.24878126
-0.09090311 -0.4267362 -0.01349487 -0.10270925 -0.33254755 -0.35113087 0.17012578 -0.3379149
-0.16805077 -0.23353405 -0.3961321 0.14559305 -0.38915625 0.39233088 -0.23788026 0.14828803
-0.15932848 0.3488459 0.00554536 0.36757132 0.20554279 -0.3068531 -0.10631462 -0.2933801
0.052043285 -0.19033425 0.014287109 0.104496 0.08535504 0.35327056 0.12981896 0.14376342
0.039607864 0.397768 -0.30489182 -0.41266477 -0.22512853 -0.1183965 -0.346462 -0.28773215
-0.38051718 0.08636527 0.12119064 0.16187994 -0.36823663 0.059497878 -0.074712835 0.021912312
00000000: ee47 873e 0c59 97be c8a9 90be 3639 ecbd
00000010: 47a5 d73e 48fd 593e 27ee c03e 568c 903e
00000020: 4276 64bc 5a0d 6fbe dcd0 953e 3b12 543e
00000030: 37c6 4a3c e434 023e f6fa 353e 41fb 943e
00000040: 82ac 083c ec49 a83d c1d2 a6be 083f 1dbe
00000050: df34 0dbe 07e4 013c 75e3 be3e 2697 2fbe
00000060: 4ee5 cabd 8899 a23d d35d e3bd 83e7 cc3e
00000070: b6b5 243e 4975 75be e088 e1bd 9417 3bbe
00000080: ec55 8abe 5056 593e be38 b6be 4ac9 25be
00000090: a0ef 53be 26ca 8dbd 3e3d 07be 0121 693e
000000a0: af78 02bd b9e2 5a3e 59cb 283e 3bad ea3d
000000b0: 5217 6fbe 561d e63d 9f59 8e3e a81c 8f3e
000000c0: 7474 3cbe 2e70 c63e dfa3 3dbe 66f3 90be
000000d0: b823 833e 869d 473e 13e9 1ebd 0065 7c3d
000000e0: 6ab4 283d c67b a93e a05d 2b3d 5382 463e
000000f0: 7657 1d3e e496 783e 377b 76be 705f 5f3e
00000100: e5e2 bebd f9c0 8a3e 877a dabe 5c3f 8f3d
00000110: 6a03 ee3b 102d 253e 325e bebd 4d2e 31be
00000120: 6c45 f83e be53 003e 128c 0abe 01cd 00be
00000130: 31fb 513e 178f 3f3e fa37 073e 1896 84be
00000140: 6908 513d 185a bb3c 8d96 10be 74fc cabe
00000150: 95fc 9abe 9f53 873d 2bc1 593e 8b39 a03d
00000160: 9bb9 9a3e 990b 393e df08 a63e 2d48 b5be
00000170: 3285 e13d 2807 203e 9615 003f 4e89 093d
00000180: 623c 063e 606a 093e 4b30 93bd 7aed 58be
00000190: 5dc2 973e 25ca ab3e 18da 15be 420f c13e
000001a0: d608 82be 58a0 35bd b9b5 0f3d 3130 9dbd
000001b0: a725 27be 61d9 aebe d8de e7bd c7eb 3b3e
000001c0: 59dd 88bd 4374 c4be c05e cbbd 0178 5c3e
000001d0: ea49 653e be69 bf3e d80d 93be e2e8 ad3d
000001e0: c185 f2bd 09e5 4fbe 472f 883e 421a d7bd
000001f0: 8de1 e2be 0914 5cbe 9789 943e 821d 763d
00000200: 5f79 c7be db3a cabe 5415 0c3e 7cd3 5fbe
00000210: 5557 873e cef4 b6bd f52d 4ebe 0f84 8abe
00000220: 77a1 243e 56f7 a33d bc54 6a3c 2216 65bd
00000230: cf4d c23e b89d e6bd 4a4b b5bc 54de 873e
00000240: f235 a53c 392d b3be c478 b43e 328a 99be
00000250: 3c44 1bbd 7907 b63c bf31 2dbe f791 bf3e
00000260: 29c3 c03e bd63 1fbd 6fcf dbbc 0e45 50be
00000270: be2d e9bd 054f a7be 88ce 2b3e f971 a13e
00000280: 64a0 83bd a97e 26be 58ca f9bd e864 3f3e
00000290: 9de7 ba3e 4f6f 933e b8d9 ae3e 251e cdbe
000002a0: bc16 9c3e d766 20be b194 c23e 9655 ec3e
000002b0: 85aa ae3d 6543 373e 9d53 4ebe b95f 1a3e
000002c0: 4b8b 08be e465 c4be ce25 f0bd bec8 7bbd
000002d0: 964c 973e 5984 a83e cace eabd a839 2c3e
000002e0: 2763 973e 08fc bd3e 4513 75be ec31 0dbe
000002f0: 89cd c33d 49c6 ebbe efe8 09be 0404 c0be
00000300: 3f4f a6bd dd09 b13d be61 39be 2170 31be
00000310: 866c 193e 2155 f3bd 28aa 39bd 395d 163d
00000320: d633 24be 22c6 30be a092 c6be 0651 4e3e
00000330: 93bc ba3d e014 3f3e 3550 113d 84c0 7e3e
00000340: 692b babd 2b7d dabe 9619 5dbc 3a59 d2bd
00000350: ac43 aabe 6dc7 b3be 7435 2e3e 2f03 adbe
00000360: 8015 2cbe 8d23 6fbe d4d1 cabe 5816 153e
00000370: 7d3f c7be 98df c83e e296 73be d1d8 173e
00000380: 0127 23be ee9b b23e dab5 b53b 4f32 bc3e
00000390: cf79 523e d91b 9dbe 7bbb d9bd eb35 96be
000003a0: 572b 553d fbe6 42be 7a14 6a3c 0002 d63d
000003b0: a0ce ae3d e1df b43e 43ef 043e b836 133e
000003c0: db3b 223d 3fa8 cb3e c81a 9cbe cc48 d3be
000003d0: 1888 66be dd79 f2bd 7863 b1be a151 93be
000003e0: 26d3 c2be 46e0 b03d cc32 f83d dbc3 253e
000003f0: 8389 bcbe 0cb4 733d 0b03 99bd 7381 b33c

linear1.bias f4 [100]
-0.2302548 -0.27588806 0.12745163 -0.02224607 0.20835215 0.1082348 -0.3811224 0.009529522
-0.030108133 -0.11552532 0.09425685 -0.4220047 0.18002865 0.443157 -0.26571783 -0.2783141
0.29867986 -0.15734082 0.23906438 0.13395786 -0.19825992 0.060940254 -0.22853923 -0.29248837
-0.23567714 -0.23950784 0.01599649 -0.2536107 0.08492866 0.09353217 -0.16097891 0.42201057
0.25355867 0.39723462 0.15597065 0.2917977 0.15345374 -0.040782258 -0.23966137 -0.39182287
-0.10119595 -0.16841003 -0.2215574 -0.07431091 -0.25491208 -0.3252789 0.122469686 -0.14286123
-0.06962671 -0.111616075 -0.27890027 -0.38452414 0.17639492 0.034631383 0.09081904 0.05279387
0.01630018 -0.20579919 0.09243531 0.30882046 0.045496657 -0.24763356 -0.11114411 0.048555665
0.45754445 0.16081437 0.08354217 0.43247664 0.07381548 0.07480725 -0.36358944 -0.29811674
0.121780045 -0.14786899 0.13164353 -0.35800093 0.10543334 -0.11759754 0.027800817 0.34385067
0.029905524 0.3091014 0.20484993 -0.35570568 -0.27402902 0.10261056 0.2716193 -0.039403953
-0.01649339 0.16759412 0.43874803 0.16700089 -0.057395123 -0.0011331697 -0.16939546 0.2003128
-0.26445246 0.31351393 -0.33191144 0.011985189
00000000: eac7 6bbe 3341 8dbe ae82 023e 643d b6bc
00000010: 445a 553e 35aa dd3d 7a22 c3be b621 1c3c
00000020: 55a5 f6bc 8a98 ecbd bc09 c13d 0011 d8be
00000030: 6e59 383e 79e5 e23e 2b0c 88be 307f 8ebe
00000040: 91ec 983e f41d 21be 4bcd 743e 402c 093e
00000050: a604 4bbe 7d9c 793d 3006 6abe 09c1 95be
00000060: 5955 71be 8b41 75be 120b 833c 43d9 81be
00000070: 14ef ad3d cb8d bf3d a8d7 24be c511 d83e
00000080: 71d2 813e 5662 cb3e c5b6 1f3e 8266 953e
00000090: fa22 1d3e 4c0b 27bd ca69 75be 029d c8be
000000a0: d23f cfbd ae73 2cbe f1df 62be 5230 98bd
000000b0: d683 82be f58a a6be 63d1 fa3d 374a 12be
000000c0: 7398 8ebd f896 e4bd 04cc 8ebe 59e0 c4be
000000d0: dfa0 343e a3d9 0d3d 55ff b93d 633e 583d
000000e0: f587 853c 06bd 52be b94e bd3d b71d 9e3e
000000f0: b45a 3a3d a793 7dbe 869f e3bd 4ee2 463d
00000100: 4443 ea3e 86ac 243e 2818 ab3d 946d dd3e
00000110: 922c 973d 8b34 993d 6528 babe c2a2 98be
00000120: d167 f93d f86a 17be 90cd 063e e64b b7be
00000130: 6fed d73d fbd6 f0bd 8abe e33c 320d b03e
00000140: 6efc f43c 8a42 9e3e 2ec4 513e 0e1f b6be
00000150: 884d 8cbe 7c25 d23d af11 8b3e 0a66 21bd
00000160: 251d 87bc cb9d 2b3e 95a3 e03e 4802 2b3e
00000170: 2617 6bbd de86 94ba 0176 2dbe cc1e 4d3e
00000180: 5066 87be e684 a03e 4cf0 a9be 875d 443c

linear2.weight f4 [80, 100]
0.017515032 -0.035743166 0.024560247 0.031551898 0.04846412 0.05160761 0.035010543 0.05679978
-0.013439464 0.01056911 -0.05147511 0.0057278634 -0.07286462 0.017505381 0.03791777 0.042469606
0.0069749025 -0.06067128 0.037103068 -0.07468543 0.073446706 -0.046965826 0.009410657 -0.012810491
0.021626309 -0.025685675 -0.0126146795 -0.0861091 0.025605835 0.057299543 -0.039843444 -0.026512016
-0.079427056 0.024765754 0.011731575 -0.07420792 -0.07523181 0.017666185 -0.09121911 -0.099229105
0.05610354 -0.068333104 -0.028077735 -0.051159978 -0.0036836315 0.07049514 -0.07057547 0.06008586
-0.08268464 0.073144846 0.08592379 0.03550502 0.05514293 -0.06641585 -0.07725741 0.046644602
-0.048914183 -0.0615025 0.08457064 -0.023253502 0.03605181 0.0068608704 -0.099276364 0.02717682
0.023605071 -0.07478875 0.0137843015 0.021484083 -0.046635274 0.029205078 0.04604682 -0.07200026
0.024825407 2.0254025e-05 0.015258181 -0.08573123 0.051719695 0.0037019849 -0.07190981 -0.065909065
0.09270717 -0.09753622 0.0659813 0.012886644 -0.033227205 -0.057777166 -0.062894285 0.065336324
0.016934931 -0.025876988 -0.05984506 -0.061855413 -0.09505363 0.03602869 0.012155092 -0.021040263
-0.00052307924 -0.081183575 -0.0025014044 -0.09763613 0.053038295 -0.067111984 0.019057436 0.089112096
0.053612616 -0.008576191 0.055470325 -0.01770692 0.015220903 -0.053939596 0.09970111 -0.00032012642
0.020703841 0.0015746703 0.08639353 0.07229708 0.10302562 -0.07436889 -0.015721345 0.033994153
0.05262945 -0.07107238 0.039007433 0.02687096 0.053858235 -0.029874375 0.04473654 -0.031435184
-0.051385857 -0.07787126 0.0997607 -0.0681219 -0.080972135 -0.088104166 0.047555443 0.07500527
-0.07960892 0.089371465 -0.072034515 -0.057616938 -0.04434341 -0.08561529 0.08944291 0.088763006
0.025527094 0.02297596 0.046694275 0.004347235 0.076624736 0.00383478 -0.020632887 -0.06440278
-0.06520011 -0.09973245 0.05689325 -0.0074657355 0.07688488 -0.032392237 0.07720549 -0.054818727
0.03558273 0.09985185 0.05481182 -0.02091157 -0.020251358 -0.0012158621 -0.025781764 -0.018828757
-0.049704906 0.042911302 0.041467644 -0.07039364 0.014358616 0.036327228 -0.017441928 -0.0066368594
0.009892268 0.02764102 0.029869776 -0.09096181 0.051349808 -0.02856343 -0.063703224 0.04489495
-0.083279766 -0.09903399 -0.038172442 -0.09082881 -0.08928473 -0.09489509 -0.039832223 -0.08153937
-0.017240835 0.0008041173 -0.021341775 0.011865504 -0.10377627 0.026537243 -0.060489405 0.008913259
-0.071599856 -0.015675362 0.061446697 -0.007950664 -0.048550893 -0.016893625 0.0966779 -0.08025964
-0.093114845 -0.027043812 0.0678962 0.07597662 -0.07590357 -0.08201229 -0.086847365 -0.069492884
-0.00825547 0.019533193 0.08010912 0.017900093 -0.060110148 -0.07030119 0.0043295384 0.06515946
0.08180885 0.03005475 -0.008505274 -0.07168203 -0.023957178 0.091628075 -0.017283926 -0.060963504
-0.055656184 0.032765627 0.03519782 0.03579569 -0.0032397748 0.078478634 0.06478428 -0.03940153
-0.02088958 0.06797244 -0.01577847 0.045309972 -0.01467593 -0.09117459 -0.06602792 0.05373227
0.06389439 0.060070377 0.023995865 -0.029171754 -0.072514795 -0.07511927 -0.049113683 -0.07054267
00000000: af7b 8f3c 6d67 12bd 9232 c93c 903c 013d
00000010: 5082 463d 8062 533d 3767 0f3d e3a6 683d
00000020: 3331 5cbc 0f2a 2d3c 91d7 52bd cdb0 bb3b
00000030: 0c3a 95bd 7267 8f3c aa4f 1b3d 9cf4 2d3d
00000040: b98d e43b 7382 78bd 63f9 173d adf4 98bd
00000050: 3a6b 963d 3d5f 40bd 282f 1a3c 18e3 51bc
00000060: a829 b13c c46a d2bc cdad 4ebc f859 b0bd
00000070: 54c3 d13c edb2 6a3d e132 23bd ba2f d9bc
00000080: a7aa a2bd 8de1 ca3c cb35 403c 52fa 97bd
00000090: 2313 9abd adb8 903c 16d1 babd a138 cbbd
000000a0: d3cc 653d 3af2 8bbd 4703 e6bc 208d 51bd
000000b0: 1569 71bb c25f 903d df89 90bd 971c 763d
000000c0: 9156 a9bd f7cc 953d d0f8 af3d b66d 113d
000000d0: 8edd 613d 0805 88bd 2239 9ebd 690e 3f3d
000000e0: 3d5a 48bd 0cea 7bbd 5f33 ad3d 217e bebc
000000f0: 10ab 133d 27d1 e03b 6851 cbbd eca1 de3c
00000100: 6c5f c13c d82a 99bd 8dd7 613c 63ff af3c
00000110: a104 3fbd 7d3f ef3c 979b 3c3d df74 93bd
00000120: a75e cb3c 30e7 a937 73fd 793c db93 afbd
00000130: 08d8 533d 009d 723b 7345 93bd 55fb 86bd
00000140: 42dd bd3d 12c1 c7bd 3421 873d 8122 533c
00000150: 4019 08bd c0a7 6cbd b8ce 80bd 0dcf 853d
00000160: 20bb 8a3c fafb d3bc 1820 75bd 1a5c 7dbd
00000170: 7aab c2bd d292 133d 2726 473c a15c acbc
00000180: 411f 09ba 9343 a6bd 9aee 23bb 74f5 c7bd
00000190: af3e 593d 0272 89bd 571e 9c3c 6780 b63d
000001a0: e798 5b3d 2783 0cbc da34 633d 1a0e 91bc
000001b0: 1861 793c c4ef 5cbd 1830 cc3d a4d6 a7b9
000001c0: 1a9b a93c 2b65 ce3a 17ef b03d 7e10 943d
000001d0: 19ff d23d b74e 98bd 0dca 80bc 743d 0b3d
000001e0: fa91 573d 658e 91bd 42c6 1f3d 7d20 dc3c
000001f0: 749a 5c3d 1bbb f4bc aa3d 373d 2ec2 00bd
00000200: fa79 52bd f87a 9fbd 564f cc3d 7f83 8bbd
00000210: b8d4 a5bd f56f b4bd 7fc9 423d 5d9c 993d
00000220: 000a a3bd 6308 b73d d586 93bd bdff 6bbd
00000230: 6fa1 35bd 1257 afbd d82d b73d 61c9 b53d
00000240: 321e d13c 1538 bc3c 7f42 3f3d 4073 8e3b
00000250: 6eed 9c3d ef50 7b3b 4d06 a9bc 9be5 83bd
00000260: a387 85bd 8740 ccbd e608 693d 21a3 f4bb
00000270: d275 9d3d b9ad 04bd e91d 9e3d 9a89 60bd
00000280: 32bf 113d 207f cc3d 5c82 603d be4e abbc
00000290: 2de6 a5bc 905d 9fba 4734 d3bc c43e 9abc
000002a0: 5f97 4bbd c3c3 2f3d fad9 293d 8a2a 90bd
000002b0: 6740 6b3c dccb 143d 60e2 8ebc 037a d9bb
000002c0: 2e13 223c 6c6f e23c 76b1 f43c 2f4a babd
000002d0: 2d54 523d dbfd e9bc d676 82bd c4e3 373d
000002e0: 958e aabd 55d2 cabd b55a 1cbd 7504 babd
000002f0: eada b6bd 5b58 c2bd 1d27 23bd 1dfe a6bd
00000300: a73c 8dbc 66cb 523a f2d4 aebc 8867 423c
00000310: a788 d4bd a264 d93c bdc3 77bd eb08 123c
00000320: f2a2 92bd 9e69 80bc 88af 7b3d 8043 02bc
00000330: 4ddd 46bd 8064 8abc 10ff c53d 2b5f a4bd
00000340: ffb2 bebd fc8a ddbc 2a0d 8b3d a199 9b3d
00000350: 5573 9bbd 0ff6 a7bd 08dd b1bd 4952 8ebd
00000360: f341 07bc 1304 a03c 4010 a43d 37a3 923c
00000370: 0f36 76bd 12fa 8fbd cdde 8d3b 5372 853d
00000380: 668b a73d 6135 f63c b459 0bbc 07ce 92bd
00000390: d841 c4bc 80a7 bb3d 0597 8dbc deb4 79bd
000003a0: bdf7 63bd 4035 063d 972b 103d 809e 123d
000003b0: 6752 54bb 68b9 a03d 9fad 843d 8063 21bd
000003c0: a020 abbc 2235 8b3d da41 81bc f396 393d
000003d0: 5073 70bc beb9 babd a539 87bd 5e16 5c3d
000003e0: 10db 823d 5b0c 763d fa92 c43c 9af9 eebc
000003f0: a382 94bd 22d8 99bd 6e2b 49bd ad78 90bd

linear2.bias f4 [80]
-0.021280132 -0.012228861 0.075435884 -0.043669846 -0.07226713 0.1493167 0.011492892 -0.034914643
-0.08297647 0.14235538 -0.1312533 -0.088329315 -0.073765606 0.07611214 0.007290248 -0.11197186
-0.003989719 -0.06996454 0.027062243 0.08477844 0.03414094 -0.13799469 -0.058325913 -0.0064801476
-0.07989842 0.04473808 -0.060454812 0.031708963 0.004293299 -0.15277559 0.008721401 -0.06318017
-0.06445166 0.090421386 0.021577787 0.033457544 0.14046703 5.23448e-05 0.028008716 0.063530184
0.019934751 0.07013037 0.16162041 0.096804306 -0.09894393 -0.0059050987 0.054221578 0.036584195
0.05174643 -0.010340692 -0.08129936 -0.02008415 -0.0043325196 -0.019185549 0.026963394 0.07044774
0.020997906 -0.0712607 0.06418424 0.12388205 0.037295222 -0.099907674 0.100554876 -0.058305718
0.0825694 0.000303981 0.18713813 -0.05944604 -0.09667675 0.06397817 -0.05602106 -0.049602505
-0.066330805 -0.08799193 -0.0022844486 -0.008401963 -0.1428243 0.0021412293 -0.008096816 -0.010036445
00000000: ac53 aebc 905b 48bc 217e 9a3d 27df 32bd
00000010: ca00 94bd 7ae6 183e af4c 3c3c a802 0fbd
00000020: 91ef a9bd 9cc5 113e 4467 06be 00e6 b4bd
00000030: 6c12 97bd afe0 9b3d 08e3 ee3b 8151 e5bd
00000040: 30bc 82bb 9249 8fbd a3b1 dd3c 52a0 ad3d
00000050: 5fd7 0b3d 7b4e 0dbe 27e7 6ebd 6b57 d4bb
00000060: c8a1 a3bd 473f 373d 779f 77bd 42e1 013d
00000070: cdae 8c3b 3471 1cbe 35e4 0e3c 9b64 81bd
00000080: 3bff 83bd d92e b93d e6c3 b03c c70a 093d
00000090: 97d6 0f3e cd8c 5b38 8972 e53c 1d1c 823d
000000a0: 344e a33c 83a0 8f3d d27f 253e 5641 c63d
000000b0: 1da3 cabd 8f7f c1bb 7217 5e3d 4fd9 153d
000000c0: 11f4 533d 016c 29bc 4780 a6bd 8487 a4bc
000000d0: cff7 8dbb 032b 9dbc 56e2 dc3c e846 903d
000000e0: cd03 ac3c 21f1 91bd 0773 833d dfb5 fd3d
000000f0: e0c2 183d 659c ccbd b7ef cd3d fad1 6ebd
00000100: 251a a93d a45f 9f39 23a1 3f3e b17d 73bd
00000110: 76fe c5bd fd06 833d 5776 65bd ff2b 4bbd
00000120: 72d8 87bd 1d35 b4bd b0b6 15bb 63a8 09bc
00000130: 8940 12be de53 0c3b 82a8 04bc e76f 24bc

linear3.weight f4 [2, 80]
-0.02839819 -0.010705888 0.035629235 0.08893733 0.107638136 0.09560029 0.056311566 0.005333607
-0.07151102 0.07242608 -0.077144645 -0.035847787 0.08613759 0.053280056 0.056733225 -0.094503194
-0.079259865 -0.063336484 0.018768687 -0.0011210124 0.07134713 -0.05686339 -0.07822438 -0.043004908
-0.04133691 0.10702251 -0.01758458 -0.0983909 -0.0011588166 0.045820072 -0.06452598 -0.013935746
-0.08390045 -0.09434876 0.05158739 0.07665712 0.07545469 -0.004290138 0.09832031 0.023612771
-0.0036569035 0.018134894 0.013695494 0.038385265 -0.049473114 0.0743682 0.052018717 0.021945056
0.04491376 -0.079802305 0.06711602 0.0033781545 -0.0038840112 -0.05567321 -0.076743424 0.016609043
0.036455914 0.051669344 0.063841134 0.08316851 -0.09513003 0.0387225 0.097512 -0.040176537
-0.020015443 0.04627856 0.07775903 -0.042289153 -0.06971532 0.003764361 -0.057178907 0.0342825
0.08791451 -0.045728046 -0.017902521 -0.030222092 0.030958235 0.090436 -0.002028133 0.030313384
0.023669867 -0.017138684 0.07012523 -0.097227104 -0.08463644 0.002385192 -0.0047163134 0.09689
-0.10614889 -0.05769627 0.022793407 0.09563205 -0.053350143 -0.051573135 0.02364476 0.08548876
0.03246894 0.05406294 0.019392166 -0.053069666 -0.06998573 0.06370878 0.08509325 0.10663795
0.03871251 0.060734686 0.043468364 -0.043607228 0.008401427 0.08676784 -0.002657992 0.040274877
-0.037372462 0.0063486462 -0.088897884 -0.046307027 -0.044692792 0.017301895 -0.06580772 -0.027094744
0.0016593933 0.044479214 -0.03413062 -0.10592153 0.06544974 -0.0954448 -0.086304866 -0.042826995
0.07585319 0.038196962 0.097558774 -0.072351605 0.09061405 -0.07708234 -0.095100716 -0.04422786
0.10538366 0.0731592 0.01906248 -0.014307592 0.010710251 -0.069013536 -0.10711284 0.07992687
-0.08219969 -0.075772345 -0.10740517 0.100347936 -0.105246924 -0.050339893 -0.026798604 0.084726326
-0.07166495 -0.022717142 0.063407056 -0.0067672455 0.06665521 0.03109969 -0.046141066 0.053026807
00000000: 52a3 e8bc c067 2fbc f6ef 113d c624 b63d
00000010: 6271 dc3d 16ca c33d f5a6 663d 8ac5 ae3b
00000020: 5f74 92bd 2054 943d 03fe 9dbd 21d5 12bd
00000030: e868 b03d 303c 5a3d 1961 683d e48a c1bd
00000040: ff52 a2bd 8fb6 81bd cac0 993c efee 92ba
00000050: 721e 923d 96e9 68bd 1b34 a0bd ea25 30bd
00000060: e450 29bd 9e2e db3d 8a0d 90bc 2b81 c9bd
00000070: 6fe3 97ba d4ad 3b3d 3226 84bd c152 64bc
00000080: 00d4 abbd ec39 c1bd 4d4d 533d 68fe 9c3d
00000090: fd87 9a3d 4994 8cbb 295c c93d 926f c13c
000000a0: a9a8 6fbb a18f 943c 1163 603c de39 1d3d
000000b0: 52a4 4abd 5b4e 983d 9411 553d 1ec6 b33c
000000c0: 7ef7 373d 646f a3bd 2074 893d 0764 5d3b
000000d0: e58a 7ebb 9809 64bd a82b 9dbd b00f 883c
000000e0: cc52 153d 3ca3 533d 24bf 823d 4054 aa3d
000000f0: 88d3 c2bd 7c9b 1e3d 5fb4 c73d 2790 24bd
00000100: 6df7 a3bc 968e 3d3d 2040 9f3d 6437 2dbd
00000110: e8c6 8ebd 7fb3 763b 6e34 6abd cf6b 0c3d
00000120: 860c b43d 554d 3bbd 4fa8 92bc 5294 f7bc
00000130: 209c fd3c 8236 b93d 6dea 04bb c653 f83c
00000140: 4fe7 c13c 6d66 8cbc d19d 8f3d 011f c7bd
00000150: df55 adbd e250 1c3b 4e8b 9abb 446e c63d
00000160: 9764 d9bd ed52 6cbd 3db9 ba3c bcda c33d
00000170: ae85 5abd 5a3e 53bd a8b2 c13c bb14 af3d
00000180: 27fe 043d 1a71 5d3d 52dc 9e3c 945f 59bd
00000190: ae54 8fbd c079 823d 5f45 ae3d ff64 da3d
000001a0: 0291 1e3d efc4 783d e20b 323d 7e9d 32bd
000001b0: 24a6 093c 56b3 b13d b531 2ebb 45f7 243d
000001c0: de13 19bd 4e08 d03b 1810 b6bd 70ac 3dbd
000001d0: ca0f 37bd b4bc 8d3c 33c6 86bd ccf5 ddbc
000001e0: 0080 d93a d62f 363d 8dcc 0bbd 63ed d8bd
000001f0: 830a 863d 9078 c3bd 9bc0 b0bd 5c6b 2fbd
00000200: eb58 9b3d 6b74 1c3d e5cc c73d 142d 94bd
00000210: dc93 b93d 59dd 9dbd 2ac4 c2bd 4628 35bd
00000220: 63d3 d73d 7ed4 953d eb28 9c3c 646a 6abc
00000230: 0c7a 2f3c f856 8dbd fa5d dbbd b3b0 a33d
00000240: 5058 a8bd 882e 9bbd 3ef7 dbbd 3883 cd3d
00000250: b38b d7bd 3431 4ebd bf88 dbbc ff84 ad3d
00000260: 13c5 92bd 4d19 babc 8fdb 813d c5bf ddbb
00000270: 8782 883d c7c4 fe3c 6afe 3cbd a332 593d

linear3.bias f4 [2]
-0.0025906388 -0.15729451
00000000: b5c7 29bb d011 21be
