checkpoints/origin/2020-11-16T14-26-21-16-classify/classify_fold0_origin_0.973121.pth (torch, 38373 bytes, 6 tensors)

linear1.weight f4 [100, 6]
000000 85 46 ca bc 2b 40 b5 be 79 6d b3 be 87 6c 8c be
       -0.02469183 -0.3540052 -0.35044459 -0.2742655
000010 57 b7 3c bd 72 4e 89 be d4 c3 11 3e 75 b0 10 3e
       -0.046073284 -0.26817662 0.14234859 0.14129813
000020 43 27 10 3e af b5 c9 be ea c6 85 be 14 44 bc 3e
       0.14077477 -0.39396426 -0.26128322 0.3677069
000030 33 07 e3 bd 31 7c a2 be c1 dd 00 be 9f d5 b2 be
       -0.110853575 -0.31735376 -0.12584592 -0.34928605
000040 07 5b 7a 3e 4e 6a a4 3e 5d c5 ae be 5f 36 94 bd
       0.24448787 0.32112354 -0.3413495 -0.07236933
000050 dc 12 d3 3e 6c 3e 13 be 64 7c c8 be d8 47 92 3d
       0.41225326 -0.14379281 -0.39157403 0.07142609
000060 54 27 9d 3e 59 e7 5e be b1 7d b2 be 18 28 5c be
       0.30694067 -0.2176794 -0.3486152 -0.2149967
000070 a0 70 83 bc 60 55 31 bd de a1 0e 3e 20 42 b9 bd
       -0.016044915 -0.04329431 0.13928935 -0.090458155
000080 c2 97 82 bd 58 05 18 3e f9 56 88 3e af 59 83 bb
       -0.06376602 0.14845788 0.26628855 -0.004008494
000090 91 9f 86 be cd c7 8e be fc 6d ec 3d af 66 f6 3c
       -0.26293615 -0.2788681 0.11544415 0.03007826
0000a0 c6 90 b3 be 1d c8 79 be d9 09 bc be f2 ca 55 3e
       -0.3507139 -0.24392743 -0.36726263 0.20878199
0000b0 d1 1c b2 3e 71 3f 85 be 49 f5 9c be 73 86 8e 3e
       0.3478761 -0.26024964 -0.30655888 0.27836952
0000c0 93 be 6f be 5d e2 88 3e 15 00 c1 3d a6 d5 0c 3e
       -0.23412542 0.267352 0.09423844 0.13753375
0000d0 00 9e a4 be 02 c4 69 be 8d b4 c6 3d dd 9d b0 be
       -0.32151794 -0.22828677 0.09702406 -0.3449544
0000e0 e9 e5 03 3e de 20 80 bd b8 00 c7 bd c0 e8 3a be
       0.12880673 -0.06256269 -0.09716934 -0.1825285
0000f0 c1 06 94 bc 69 72 fd bd 5a 33 97 be 8b 42 99 3e
       -0.018069627 -0.12375338 -0.29531366 0.2993358
000100 d2 c6 89 3e e1 82 b9 be 05 27 5c bc 66 f9 fe bd
       0.269095 -0.36232665 -0.013437037 -0.12449913
000110 6b 52 85 3e 8f ec 9f bb b6 8c 90 3e 0f e6 83 3e
       0.26039442 -0.004880495 0.28232354 0.25761458
000120 73 ce b2 3d 45 fa 68 bd 81 0c 40 3e 1a 59 c4 3e
       0.08730783 -0.0568793 0.1875477 0.3834923
000130 ec ed a9 3e 92 d7 c0 3e 9a ed e3 bd 84 72 2d bd
       0.33189332 0.37664467 -0.11129303 -0.04234554
000140 70 e3 cc bd 82 07 bf be 2c ee bc bd 8f e7 5e 3e
       -0.10004318 -0.37310416 -0.09225115 0.2176802
000150 f1 55 3c be fa 28 14 bd c6 c7 2c 3d 82 1a 06 3e
       -0.18392159 -0.03617189 0.042182706 0.1309605
000160 7d b4 bd bb e9 b9 c9 be 0c 0e ca 3e c1 c1 b8 be
       -0.005789338 -0.3939965 0.39463842 -0.36085322
000170 42 90 f5 3d 61 8a 98 bc d4 79 ef 3d af 18 2e be
       0.119904056 -0.018620672 0.11693159 -0.17001604
000180 f4 db a8 3e e4 10 20 3e 81 0d 9a bd a4 f0 18 3e
       0.3298031 0.15631443 -0.07522107 0.14935547
000190 52 57 4a 3e 98 27 20 be 19 0f 5e 3d 52 b0 13 be
       0.19759873 -0.15640104 0.054213617 -0.1442273
0001a0 9d b2 a7 3e cd e0 c3 be 0f 6e bf be 2e fa ae 3e
       0.3275346 -0.38257447 -0.37388656 0.34175247
0001b0 46 0a d6 3b a7 e0 b4 3e d8 46 86 3c 1c ff 9c 3e
       0.0065319864 0.35327646 0.016391203 0.30663383
0001c0 20 45 c5 be 0f 82 86 bc 6e 03 16 3e 5c 96 f8 3c
       -0.385293 -0.016419439 0.14649746 0.030345134
0001d0 60 87 b6 be 3a 62 99 bd 6f 5e c3 3c c1 5c b2 be
       -0.35650158 -0.07489438 0.02384874 -0.3483639
0001e0 68 8f 9e 3d 9c c5 29 3e 87 40 27 3e fe e5 bc 3d
       0.07742196 0.16579288 0.16333209 0.09223555
0001f0 7f bb 44 be 48 9c c4 3e 40 bc b4 bd ea 71 84 be
       -0.19212149 0.38400483 -0.08824968 -0.2586816
000200 18 35 90 be 6b 54 0f 3e 3b ec a3 be 09 c1 89 3e
       -0.28165507 0.13997047 -0.32016167 0.26905087
000210 04 5f d5 3d ed 81 4e be ab a2 94 3e d6 6c cb 3e
       0.104185134 -0.2016675 0.29030356 0.39731473
000220 36 ca 8f 3e 15 40 70 be 44 87 84 3e d4 f0 c7 3c
       0.28083962 -0.23461945 0.2588445 0.024406828
000230 5c e0 8d be 19 bb c4 be c7 86 2f 3e ec 16 ab bd
       -0.27710235 -0.38423994 0.17141257 -0.083539814
000240 72 78 72 3e 61 24 76 be 6c 90 ce be ae 40 4e 3e
       0.23678759 -0.24037315 -0.4034456 0.20141861
000250 be b9 c1 3e 63 47 b0 bc 89 d0 ce 3e 3e 4f 16 3e
       0.37837023 -0.021518415 0.40393475 0.14678666
000260 84 33 22 be 39 64 a7 3e ee ff 8c be b7 4e b8 be
       -0.15839964 0.3269365 -0.2753901 -0.35997555
000270 9c bc 13 be 07 e5 1f 3e e7 95 6e be d4 2c 25 bd
       -0.14427418 0.15614711 -0.2329937 -0.040325955
000280 d2 6c 37 be 3f 0c 6e 3e 2a 1a 49 3e fb 5a d4 3c
       -0.17912605 0.23246859 0.19638887 0.02592229
000290 c6 bb b8 3e 5c 30 8b 3d 25 01 be be 55 66 3c be
       0.3608076 0.06796333 -0.37110248 -0.18398412
0002a0 26 da 4d bc 2c ea b3 be 4e 2c 76 3e 31 68 89 3e
       -0.012564218 -0.35139596 0.24040338 0.26837304
0002b0 63 eb 16 bd 35 b8 c7 3d 95 49 a3 3c 8a af 83 be
       -0.036845576 0.097519316 0.019932548 -0.25719863
0002c0 50 fc 9d 3e c2 3f c3 bd 00 24 7a 3e f4 04 7b bd
       0.30856562 -0.09533645 0.24427795 -0.06128402
0002d0 86 80 9b bd d6 3d b2 3e c0 14 a5 be 10 2f c2 3e
       -0.07592873 0.34812802 -0.32242393 0.3792653
0002e0 24 7b a2 3e c5 b8 bd 3d 4c 34 80 3d 90 5c 88 3e
       0.31734574 0.092637576 0.06259975 0.2663312
0002f0 6d 8b ea 3d 38 6e 8f 3d a3 7e 58 3d dd 10 07 be
       0.114523746 0.070034444 0.052855145 -0.13190027
000300 d0 a2 a2 3e 82 40 b2 bd e3 96 59 3e 04 d3 50 3e
       0.3176484 -0.0870371 0.21248965 0.20392996
000310 10 d1 29 bd f4 91 cd be 06 70 99 be 7f 18 a4 3d
       -0.041459143 -0.40150416 -0.2996828 0.08012485
000320 94 e3 a9 be e1 74 ae 3e f1 ba 51 be 08 67 4b 3e
       -0.3318144 0.34073547 -0.20481469 0.19863522
000330 fe b7 56 be ae 24 a0 3e 31 d4 79 be e5 9a cb be
       -0.20968625 0.31277984 -0.24397351 -0.39766613
000340 3d 2e 67 3c ad bb 85 bd 59 20 c2 3e 36 b1 59 3d
       0.014110145 -0.06529937 0.37915304 0.053147517
000350 97 6a 04 3e e0 9a 24 be 3c d6 8f be 74 92 a0 3e
       0.12931286 -0.16074705 -0.28093135 0.31361735
000360 6d a1 70 3e ca 00 ae be 8b f2 ce be 9b 93 c5 be
       0.23499079 -0.33984977 -0.4041942 -0.38589177
000370 7d 4f b0 3e 3a 10 9d 3e 45 61 7b 3e 8c af 5d 3e
       0.34435645 0.30676442 0.24548824 0.21648997
000380 a9 01 bf be be 28 11 3d 28 1d a1 be bb 6c c4 3d
       -0.37305954 0.035439245 -0.31467557 0.09591051
000390 0e a1 bb 3e 94 15 a7 be 9c 5e 58 be 42 ca ba 3d
       0.36646312 -0.3263365 -0.2112984 0.09120609
0003a0 f7 b6 52 3e 83 0d b1 3d 34 bc 6d be 63 b9 b2 3d
       0.20577608 0.08645155 -0.23216325 0.08726766
0003b0 00 db ab bd 84 3b bc 3e c1 c6 91 be 77 b7 bd be
       -0.0839138 0.36764157 -0.2847195 -0.37054035
0003c0 7d e6 cc be e7 f3 7d bd e5 7e b6 be b1 1b 6c 3e
       -0.400196 -0.06200018 -0.35643688 0.23057438
0003d0 ce e9 27 3d 3b 70 86 3e 44 3b 3e 3e 77 f6 a1 3e
       0.040994458 0.262575 0.18577296 0.3163335
0003e0 e6 de b6 be e3 b8 6f be 3e a4 64 3e be 8a 2a be
       -0.35716933 -0.23410372 0.22328278 -0.16654488
0003f0 e6 d8 c0 3e dd 3a b1 3e d3 db 27 3e e2 bd 97 3e
       0.3766548 0.34615222 0.1639245 0.29637057

linear1.bias f4 [100]
000000 e9 1a e7 bd 2b c9 90 be b6 b3 b5 3c eb 3b 9c 3e
       -0.112844296 -0.2827848 0.02218042 0.30514464
000010 43 1a 14 be fe ce c1 bd ec d2 84 3d 95 59 b2 bd
       -0.14463143 -0.09463309 0.06485543 -0.08708493
000020 5c df b0 be ba 05 9e 3c a8 70 5a 3e f1 8f e1 3d
       -0.3454541 0.01928984 0.21332037 0.11013783
000030 85 75 37 3e d5 01 ba 3e d7 51 c0 3e 95 73 86 3e
       0.17915924 0.36329523 0.3756244 0.26260057
000040 10 3d 6a be 66 ac 85 3e 66 9a cf 3e b3 37 b6 be
       -0.22874856 0.26108092 0.40547484 -0.3558937
000050 55 52 4d 3e 79 d3 b2 3e ca 6b 89 be 59 da ae bd
       0.20050938 0.34926966 -0.2684005 -0.0853774
000060 0b d6 9c be ba a6 32 bd e8 38 1d be 34 e0 ca be
       -0.30632052 -0.043616034 -0.1535374 -0.39624178
000070 7a 49 c0 be a6 f9 60 3d 74 12 b6 be 62 73 d0 be
       -0.37556058 0.054925583 -0.35560954 -0.4071303
000080 23 79 cf 3e 56 fc 13 bd 5f f8 aa 3d 43 88 2f 3d
       0.40522107 -0.03612932 0.08348154 0.04285456
000090 ea 2f 87 be 60 d8 a3 3e e3 5a 96 be 10 7c cf be
       -0.26403743 0.3200102 -0.29366216 -0.4052434
0000a0 d1 4b 79 bd 57 2e 88 bd 99 11 51 be 89 8d cd 3e
       -0.06086332 -0.066494636 -0.20416869 0.40147045
0000b0 c1 a9 36 be 7d 4b ad be b4 15 b5 be 50 85 a9 be
       -0.17838193 -0.33846655 -0.3536812 -0.33109522
0000c0 90 82 82 3e f8 c0 a7 3e a3 84 88 3d f6 82 96 3d
       0.25490236 0.3276441 0.066659234 0.073491976
0000d0 f1 81 a8 be 11 9d 88 be 72 da 84 3e 60 ad 89 3e
       -0.32911637 -0.26682332 0.2594791 0.26890087
0000e0 c8 fd 0f be 8f cf 66 be c7 60 63 3e 42 1f 13 3d
       -0.14061654 -0.22540115 0.22204886 0.03591848
0000f0 b1 b0 75 be 39 ae 63 be 13 0f b6 3e 3f d7 7f 3e
       -0.23993184 -0.2223443 0.35558376 0.24984454
000100 56 28 8d 3e db 80 82 3e 78 93 89 3d 20 db a9 3e
       0.27569836 0.25488934 0.067175806 0.33174992
000110 4f ed 1c be dd 82 cc be 46 66 4f 3d 2b 9e a9 be
       -0.15324901 -0.3994359 0.050634645 -0.33128485
000120 38 99 37 3d 6e 0a 38 3d e6 51 9e be 7f da 7b be
       0.044823855 0.04493182 -0.3092186 -0.24595068
000130 fd 09 d1 bd 21 28 c4 be 32 61 3b 3d 3d 05 a5 3d
       -0.10206983 -0.38311866 0.04574699 0.0805764
000140 0a 48 78 3e fa c6 af be 1b 7b 44 3e 02 c3 bd 3e
       0.2424623 -0.34331495 0.19187586 0.37062842
000150 66 c0 8e 3c 70 d1 d9 bd 20 21 c3 be c4 4c 8c 3c
       0.017425727 -0.1063565 -0.3811121 0.017126448
000160 8e a4 a8 be 0e 65 c8 be ab 03 79 3e 2d ff 5c be
       -0.32938045 -0.391396 0.24317805 -0.21581717
000170 1e d9 bd 3e d6 34 bb 3e 64 f0 56 3e be 37 03 3e
       0.3707971 0.36563748 0.20990139 0.12814233
000180 47 fe f8 bd 64 96 9b be e5 6b 92 be ce 92 0a be
       -0.121578746 -0.30388176 -0.28597942 -0.13532564

linear2.weight f4 [80, 100]
000000 c0 d8 32 bd 4f 03 b0 bd 40 a6 0b 3c 33 fc d5 3c
       -0.04366374 -0.08594381 0.008523524 0.026121235
000010 63 c5 38 3d ad c6 40 3d ca 29 a9 bd 2a 5a b8 3d
       0.045110118 0.047064472 -0.08259924 0.090015724
000020 57 c4 38 bd ba 88 8c 3c 9a 2f 81 bd b0 c7 9a bd
       -0.04510912 0.01715504 -0.063079074 -0.075576186
000030 c0 fc 01 bd b3 83 86 bc 13 4d b2 3d 00 93 e2 bb
       -0.03173518 -0.016420221 0.08706107 -0.0069144964
000040 27 d2 f7 bc 9a 4d cd bc 3d 25 ad bd ef d3 8e bd
       -0.030251576 -0.025061417 -0.08454368 -0.06974017
000050 b0 e7 7f bd f0 fd 77 bd 93 e9 6d bd 60 f1 ae 3d
       -0.062476814 -0.060544908 -0.05808408 0.085421324
000060 32 f3 81 3d 0f bb bb bd c7 a3 ae bd 6d 48 a6 bd
       0.06345214 -0.09166538 -0.08527332 -0.08119283
000070 d5 d2 87 bd d3 e6 1c bd 98 da a6 bd cb b3 bf 3d
       -0.0663201 -0.03830607 -0.08147162 0.09360465
000080 fa 20 92 3c 87 3b 93 3d c7 0d 6c bd 8d 92 90 bd
       0.01783799 0.07189088 -0.057630327 -0.07059202
000090 ed 7c c9 bd 40 63 38 bd 33 cd 21 bc da fe 47 bc
       -0.09838281 -0.045016527 -0.009875583 -0.012206757
0000a0 cd 64 3e bd 60 51 c1 bd 8a 86 99 bd 47 dc 62 3d
       -0.04648285 -0.09439349 -0.074963644 0.055385854
0000b0 a0 27 dd bc 20 29 97 bd 33 73 9a 3b 83 fe 08 3d
       -0.026996434 -0.07380891 0.00471344 0.033445846
0000c0 da d3 5e bc 63 bb 7a bd e0 c0 f9 bc 67 01 17 3d
       -0.013600314 -0.061213862 -0.030487478 0.03686657
0000d0 20 90 e9 bc a0 62 a7 bd b0 93 bc 3d 40 b5 f6 3c
       -0.028511107 -0.08173108 0.09207857 0.030115724
0000e0 b2 d3 b1 bd ba b1 50 3d da c3 75 3c 43 67 8e bd
       -0.08682956 0.050950743 0.015000308 -0.06953289
0000f0 2a e5 5b bd 60 22 dd 3c 27 54 32 3c e3 71 ca bd
       -0.053685345 0.02699393 0.010884321 -0.098850034
000100 b3 98 d9 bb cd 3b 44 3c a7 09 86 bd 92 de 9f 3d
       -0.0066405176 0.011977148 -0.0654481 0.07806124
000110 20 3e c2 3d 33 db 98 bc 73 d9 8e 3d d3 b1 84 3d
       0.09484506 -0.01865921 0.06975069 0.0647923
000120 7a bb 9d bc 17 4a 5f bd 82 f2 9f 3d ad 88 57 bd
       -0.019254435 -0.054514017 0.078099266 -0.05262058
000130 00 80 2b b9 e3 83 98 bd 03 5b 76 3d 7a 25 80 3c
       -0.00016355515 -0.074470304 0.06014539 0.01564287
000140 ea c3 33 3d 3f 3c c5 bd 97 1b 54 3d 4f f2 b5 bd
       0.04388801 -0.09630632 0.051784124 -0.08884107
000150 eb 95 87 bd ed 03 32 3d 8d f5 ba 3d 00 86 d1 3c
       -0.066203915 0.043460775 0.09128866 0.025576591
000160 6d 63 3d 3d e8 3d b2 bd 67 5e bb 3b 07 1f 9f 3c
       0.046237398 -0.08703214 0.0057180407 0.019423975
000170 c8 95 c2 bd bd ed 20 3d ea 55 5c bd 5d 2a 18 bd
       -0.09501225 0.039289225 -0.05379287 -0.037149776
000180 c3 5c ab bd 7a 34 a0 3d 7d ad 0b 3d 00 80 38 3a
       -0.08367302 0.07822509 0.034101 0.00070381165
000190 f0 77 4b bd 91 c6 76 3d 42 aa 8c bd f3 56 49 3c
       -0.04967493 0.06024796 -0.068684116 0.012288797
0001a0 94 b7 5a 3d af 38 5d 3d b3 37 18 3c 57 d2 a6 bd
       0.05339773 0.054009136 0.0092906235 -0.08145588
0001b0 ed a4 b0 bd ce 92 20 bc 27 06 cc bd 69 17 f8 3c
       -0.08625207 -0.009800626 -0.09962111 0.0302846
0001c0 b0 34 b4 bd d3 9f f6 bc 37 be 0a 3d b7 fb 3c 3d
       -0.08799112 -0.030105507 0.03387281 0.04613849
0001d0 36 e5 c8 bc ce 7c c3 3b 80 fe 9b 3d 44 11 bb 3d
       -0.024523359 0.0059658056 0.076169014 0.091341525
0001e0 5d bb b6 bd a7 1c 9a bc eb d4 c0 3c 6e 88 2c 3d
       -0.089224555 -0.01881249 0.023539027 0.042122297
0001f0 08 ae b3 bd 27 12 1c 3c 5d 99 09 3d 54 e9 81 3d
       -0.08773428 0.009525812 0.033593524 0.06343332
000200 00 75 17 bd e3 e3 c8 3d ba 3e f4 3c 10 04 ce bb
       -0.036976814 0.09809091 0.029815067 -0.0062871054
000210 0f 4e 53 bc 23 09 4e 3d ba 8b b9 bd ba f9 c6 3c
       -0.012897029 0.050301682 -0.09059854 0.024289
000220 c7 24 6a 3d 7a 22 ac 3d 18 33 6e bd a3 15 53 bd
       0.05716398 0.084050134 -0.058154196 -0.051534306
000230 33 76 c8 bc 54 b3 51 3d 74 14 af bc f6 ec 21 bd
       -0.024470424 0.05119641 -0.021372057 -0.039532624
000240 10 93 37 3d dd 87 95 bd df 89 a9 3d 16 c8 92 3d
       0.044817984 -0.073013045 0.0827825 0.071670696
000250 fe b8 70 3b b7 cf 41 3c 63 35 7e 3d eb 45 95 3d
       0.0036731358 0.011829308 0.062062632 0.072887264
000260 5f 87 b9 bd 30 1a 89 bd 47 4c 00 bd 5f 8a c2 3d
       -0.09059023 -0.06694448 -0.031322744 0.094990484
000270 ba d4 78 bd c5 a8 48 bd 90 3d b8 3d 1b ea 04 3d
       -0.060749747 -0.048989076 0.08996117 0.032449823
000280 b3 f0 69 bd f0 94 7e 3d ee 31 85 3d d0 74 a7 3d
       -0.057114314 0.062153757 0.06503664 0.08176577
000290 8a 12 30 bd ed b8 ae 3c 27 b2 7d 3c 60 70 dc 3c
       -0.04298643 0.021328414 0.015484369 0.026909053
0002a0 4d b2 91 3d 8d ed c5 3d 43 8c 7e bd 83 2a 57 bd
       0.07114086 0.0966445 -0.062145483 -0.052530777
0002b0 22 a1 37 bd 46 54 b5 bc 80 d0 64 3d d7 39 64 bd
       -0.044831403 -0.022134911 0.055862904 -0.055719223
0002c0 5f 08 5b bd b1 cb c3 bd 4c 70 bd bd 21 ac c7 3d
       -0.05347478 -0.095603354 -0.092499346 0.09749628
0002d0 97 4b 71 bd bb a6 6f bc 47 5d 52 3d c4 64 bf bc
       -0.05890998 -0.014627154 0.051358487 -0.023363478
0002e0 d1 a1 9b bd 9d cd 31 3d 7d b8 8f bd 37 50 18 bd
       -0.075992234 0.04340898 -0.0701761 -0.037185874
0002f0 9b 0a b4 bd e7 fe 37 bc 23 55 40 bd dc bb 95 bd
       -0.08791085 -0.011230207 -0.046956193 -0.07311222
000300 60 11 9f bd 33 90 85 bd 1a 6d c3 3d 98 c1 b8 bd
       -0.07766986 -0.065216444 0.09542294 -0.090213
000310 93 66 7a bd 99 f5 4a bd e7 fe 99 3d e3 9e 1e 3d
       -0.06113298 -0.049550626 0.07519322 0.038725745
000320 1a a5 ac bd 08 ef 79 3d 12 40 c8 3d d2 87 8c bd
       -0.08429928 0.061018974 0.097778454 -0.06861843
000330 5d 31 56 3b 51 7d ab bd 2d 26 a9 bc 40 c7 a0 3d
       0.0032683231 -0.083735116 -0.020648086 0.07850504
000340 53 5b bb bc 31 56 9a bc c5 10 bc bd 1f a5 2f bc
       -0.022870695 -0.018839927 -0.09182886 -0.01072052
000350 6c 31 c0 3d 00 40 68 3d fa 07 85 bd dd 66 af bb
       0.093844265 0.05670166 -0.06495662 -0.0053528384
000360 77 cb a9 bc 90 c2 b4 3d 91 65 bb 3d 43 1a 86 3c
       -0.020726902 0.08826172 0.09150232 0.016369944
000370 ba 7e 0b bc e6 1f 32 bd 85 9d 11 3d 07 8e af 3d
       -0.008514101 -0.043487452 0.035550613 0.085720114
000380 5c 18 a7 3d 9f e0 3b 3d 12 0c 88 3d ea 2b 70 bc
       0.08158943 0.045868512 0.06642927 -0.014658907
000390 c2 cf 95 bc 47 0f 04 bd cb 2e 89 3d 57 b1 c3 bd
       -0.018287543 -0.032241132 0.06698378 -0.09555309
0003a0 a7 7e 8a 3d e9 72 3a 3d 7a c8 83 bc b0 aa 6e 3b
       0.06762438 0.045519743 -0.016086806 0.0036417656
0003b0 21 de 2c bd 17 4a 84 bd 6c ca c8 3d 9c 5c ad bd
       -0.042204026 -0.06459444 0.09804234 -0.084649295
0003c0 3a 03 c5 bd 12 c3 9a bd 80 59 d0 bd 8b 9a 16 3c
       -0.09619756 -0.07556738 -0.10173321 0.009192119
0003d0 de c1 05 bd 85 0c 46 3d db 25 96 3d 0f 37 be 3c
       -0.03265559 0.048351783 0.07331439 0.023219613
0003e0 6b 8a 90 3d 90 4f 12 3d d5 0e c3 3d 2b 92 a8 bd
       0.07057651 0.035720408 0.09524313 -0.08231004
0003f0 a9 20 42 bd 27 f1 76 bd 88 62 9e bc 03 1a 68 bc
       -0.04739443 -0.060288575 -0.019334093 -0.014166358

linear2.bias f4 [80]
000000 03 2e 26 3d 97 38 cc bd 5d 89 d0 3c 48 a8 a4 3c
       0.040571224 -0.09971731 0.025456125 0.020099774
000010 e2 16 b7 3d b0 bf 0a 3d b4 41 a5 bb 2a 53 12 3c
       0.089399114 0.033874214 -0.005043233 0.008930961
000020 ec 84 82 bb ea 28 d2 bc 76 e0 a3 bd 36 a7 ba 3d
       -0.0039831307 -0.025654275 -0.08001797 0.09113924
000030 35 c6 c1 3d a1 a3 c2 bd 26 52 4f 3d 82 bb a8 3d
       0.09461633 -0.09503866 0.050615452 0.08238889
000040 f7 c5 5c bd 12 ea 51 bd bd e3 6a 3d 93 b6 a1 bc
       -0.05389973 -0.051248617 0.057346094 -0.019740378
000050 a7 7c 98 bd a8 26 3c 3c 2f 36 c5 bd e4 c1 ea 39
       -0.074456505 0.011483826 -0.09629475 0.00044776418
000060 2d e0 8e bd e2 38 55 3d e8 5b bf bd 13 ce bc bc
       -0.06976352 0.0520562 -0.093437016 -0.023047483
000070 da d2 73 3d 34 df 72 3d a1 9e b1 3d 9d 30 38 bd
       0.059527256 0.059294894 0.08672834 -0.044968236
000080 6f 9d 6f bd 07 89 a9 3c bc 06 b0 3d 5f 9d ba bd
       -0.05849975 0.020695223 0.085950345 -0.091120474
000090 24 4f 9c 3d a8 e6 5b bd 69 77 ee 3c d0 c9 9c bc
       0.076322824 -0.053686768 0.029109674 -0.0191392
0000a0 78 20 e7 bc 57 4b a1 bd df 64 d7 3c 0a ff 06 bd
       -0.028213724 -0.07875698 0.026293216 -0.032958068
0000b0 14 8d 0e bb 31 db 39 bc 19 27 c0 3c 83 31 3a 3d
       -0.002175157 -0.011343763 0.023456143 0.045457374
0000c0 7b 01 7a 3c f9 27 8c bd e2 38 71 3d c3 12 1f 3d
       0.015259142 -0.06843562 0.05889214 0.038836252
0000d0 5d b2 70 3d 7c 12 c6 3d ad bd 92 bd e0 42 ef 3c
       0.05876385 0.09671494 -0.07165084 0.029206693
0000e0 f2 67 19 3d 95 6b c9 3d 4f 35 85 bd 3b 38 95 bd
       0.037452646 0.09834973 -0.065043084 -0.07286116
0000f0 3a 22 62 3c ec a4 81 bc 52 ef 46 3c c9 8a 24 bc
       0.013802106 -0.015825711 0.012142019 -0.010042855
000100 f0 ee a2 bc 26 c9 90 3d 9b 6a 06 bd c0 3b 52 3d
       -0.019889325 0.07069616 -0.03281651 0.051326513
000110 1f 4f 77 bb e3 8c 28 3c 87 f1 b5 bd 35 2a b5 bd
       -0.0037736369 0.010287496 -0.08883958 -0.08845941
000120 40 0a b7 bc 41 5e 99 3d 00 45 5d bb d5 7a ad bd
       -0.022343755 0.07488681 -0.003376305 -0.08470694
000130 0d 51 5e 3d 5f 80 f6 bc 6a 31 a0 3c 21 87 15 bd
       0.054276515 -0.030090509 0.019554812 -0.036505822

linear3.weight f4 [2, 80]
000000 dc 18 eb 3c 46 30 bc bc 66 ff e1 bc c4 9b 7c 3b
       0.028698377 -0.022972237 -0.027587604 0.0038544992
000010 90 44 87 bb e9 d6 b7 bd 61 ac 1d 3d eb 6b 45 bc
       -0.0041280463 -0.08976538 0.03849447 -0.012049655
000020 18 7c 9a bd bd e1 40 bd 0e 6f 8c bd eb af 65 bb
       -0.075432 -0.04709028 -0.068571195 -0.0035047482
000030 26 e7 14 3b 5a ab 88 bb 25 1e 29 bd 5d 90 c3 3c
       0.0022720783 -0.0041708173 -0.041288514 0.023872549
000040 43 93 cc 3d 46 a0 fd 3d 9d d2 ca bd b8 04 c4 bd
       0.099890254 0.12384085 -0.099034525 -0.095712125
000050 ff f8 2d bd f5 96 db 3d 39 29 cf bd c1 80 a1 bd
       -0.04247379 0.10722152 -0.101152845 -0.07885886
000060 58 9a e1 bc 54 cb 72 3b b2 b4 fe 3d d2 39 c1 3c
       -0.027539417 0.0037047463 0.12436809 0.023587141
000070 8e d1 1d bd e6 bf e6 3d ea 0b 5b bd 3e 59 c2 3d
       -0.038529925 0.112670705 -0.05347816 0.09489678
000080 f5 01 30 3d 0c 55 50 3d 3f f4 8f bd b2 43 e9 3d
       0.042970616 0.050862357 -0.07029008 0.11389865
000090 7d a8 39 3d b7 f4 56 bc 55 ac 8e 3c 98 d4 c4 3d
       0.0453267 -0.013119868 0.017416159 0.096108615
0000a0 a9 c9 e7 3d 9f b0 eb bc 0e f1 3c bd 59 e5 db 3b
       0.113177605 -0.028770743 -0.046128325 0.00671069
0000b0 3d 25 96 3d 66 08 bc 3d d4 86 02 bd 0d df 04 3d
       0.073313214 0.091812894 -0.031866863 0.03243928
0000c0 df 7d 2e 3c cd cc d9 bd 89 04 d8 3d 92 a1 84 3d
       0.010650127 -0.10634766 0.1054774 0.064761296
0000d0 1d 20 b4 bd c7 bb 27 bd 63 0f 20 bc 27 ed 93 bd
       -0.087951876 -0.040950563 -0.0097692935 -0.072229676
0000e0 e2 5d 07 3d ae 96 fc bc 4a 62 a0 bd 2a f2 c9 3d
       0.033048518 -0.030833568 -0.07831247 0.09860642
0000f0 54 64 89 3b f7 c2 5e 3d e7 e9 b4 3d 7f d2 ce 3d
       0.0041928682 0.05438515 0.08833676 0.10098743
000100 a4 3c 34 3d b6 09 d3 3d 33 5d 9c bd 2d 2c 81 3d
       0.044003144 0.103045866 -0.07634964 0.06307254
000110 23 97 55 3c 79 c5 33 bd 00 58 8d 3c 00 a0 96 bc
       0.013036522 -0.043889496 0.017253876 -0.01838684
000120 ca df a0 bc 6c d5 15 3d c5 8c 6b bc 84 73 b4 bd
       -0.019637961 0.036580488 -0.014376824 -0.08811095
000130 e1 bd 83 3d b4 1e 4e bd e5 e2 07 bd 3b 36 81 3d
       0.06432701 -0.05032225 -0.033175368 0.06309172
000140 6a 4f 05 bd a8 05 8c bd 17 b8 18 3d b8 a1 c6 3d
       -0.03254644 -0.06837016 0.037284937 0.09698814
000150 6c 12 b1 bc 31 bd 83 3d da 91 1d be 27 0e 6d 3d
       -0.02161523 0.0643257 -0.15387669 0.057874825
000160 aa 54 05 3d a3 52 8c 3d f8 3b 2e 3d 46 c4 15 3d
       0.032551445 0.06851699 0.04253766 0.036564134
000170 43 6e 08 3d db 98 dc bd 3a 35 4b bd 20 0c 98 3c
       0.03330828 -0.10771342 -0.049611308 0.01856047
000180 b8 de 3a bd 51 e4 fb bd 27 c7 a0 3d 03 09 93 bd
       -0.045622557 -0.12299407 0.07850485 -0.07179453
000190 3b 9a 1c 3c d2 c8 ca 3d fc 35 43 bd 76 64 be 3d
       0.009558256 0.09901585 -0.047658905 0.09296505
0001a0 0b 1b d1 bd be 30 8b 3d 5f 81 92 bd 68 98 60 3c
       -0.10210236 0.06796406 -0.07153582 0.0137082115
0001b0 96 0e e2 bc 90 e8 28 3d 42 0f 66 bc 7d 35 a2 3d
       -0.027594846 0.041237414 -0.014041724 0.07920358
0001c0 9b 41 44 3d c8 b2 b8 bc a9 b5 14 3c 91 ef b8 3d
       0.04791413 -0.022546187 0.009076514 0.09030069
0001d0 06 4b a2 bd 31 d5 ad 3d af 5a 97 3c a6 d9 bc 3d
       -0.07924466 0.08487929 0.018475858 0.09221201
0001e0 bd 3e 04 be cb b4 39 3d ae a8 66 bb 19 c4 96 bb
       -0.12914558 0.045338433 -0.0035195756 -0.0046010134
0001f0 2a a0 a8 3b a1 08 0f 3d 3e b9 2a 3d 88 11 e9 3c
       0.005146046 0.03492034 0.041680567 0.028450742
000200 ff f1 8d 3d 20 c1 9a bd c9 18 7d bd 9f 5a 83 bc
       0.06930923 -0.07556367 -0.061791215 -0.016034422
000210 85 ba c4 3d 24 39 cb 3d 82 07 12 bd bb 62 44 3c
       0.09605888 0.09923008 -0.03565169 0.01198643
000220 af 11 fd bd 20 5a 9c 3d 6d ea 99 bc 44 83 84 3c
       -0.123568885 0.076343775 -0.01878854 0.016175874
000230 2e 47 a5 bd c3 d2 b4 3d cd d8 df bd 68 42 0d be
       -0.08070217 0.08829262 -0.10930023 -0.13794863
000240 ee ca 85 bb 22 20 a8 bc 8c 84 dc 3d ea 35 9f bd
       -0.004083029 -0.020523135 0.10767469 -0.07773955
000250 eb 5e 88 bc 1a 63 43 3d ee d1 3f bd 68 27 b9 bc
       -0.016646823 0.047701932 -0.046831064 -0.022601798
000260 ed f2 77 3d 39 f9 da 3d 5e 98 bb 3d 40 c3 b3 3d
       0.060534406 0.10692067 0.09159921 0.08777475
000270 66 4b 77 3d cf a3 3d bd 5d bc d4 bb 91 0a 76 bd
       0.06037464 -0.0462988 -0.006492181 -0.06006867

linear3.bias f4 [2]
000000 ae 1a c7 3d 31 65 90 bd
       0.097218856 -0.07050551
