checkpoints/origin/2020-11-16T14-26-21-16-classify/classify_fold0_origin_0.961538.pth (torch, 38373 bytes, 6 tensors)

linear1.weight f4 [100, 6]
000000 1b 69 a6 3e 67 f9 8a be 2c 81 68 be 5b 6f 83 be
       0.32502064 -0.27143404 -0.22705525 -0.25670895
000010 02 82 05 3f a6 f5 8b 3e 4a af b2 3e ff df 4a 3e
       0.521515 0.27335852 0.3489936 0.1981201
000020 98 d2 a1 bd e3 57 8e be 5b 18 89 3e 82 61 27 3e
       -0.07901496 -0.27801427 0.26776394 0.1634579
000030 46 7f b7 3c fb e0 8a 3d 42 e7 13 3e 8e af 97 3e
       0.022399556 0.06781193 0.14443687 0.29626125
000040 f1 c6 8d bc 6e ed 62 3d c1 d2 a6 be 08 3f 1d be
       -0.017306777 0.05540221 -0.32582667 -0.15356076
000050 df 34 0d be 07 e4 01 3c 75 e3 be 3e 26 97 2f be
       -0.137897 0.007927901 0.3728291 -0.17147502
000060 a9 ce 9b bd 67 90 aa 3d ca ea ba bd a6 d2 d8 3e
       -0.07607777 0.08328324 -0.09126814 0.42348212
000070 fc 66 26 3e 51 f8 5d be 0f 9c 08 be 2e eb 52 be
       0.16250223 -0.21676756 -0.13340782 -0.20597526
000080 9a 41 96 be 59 7d 41 3e 23 1f c2 be 95 a0 3d be
       -0.29346925 0.18895473 -0.3791438 -0.18518288
000090 4d c7 6b be c5 6d bd bd aa 14 1f be c4 47 51 3e
       -0.23025246 -0.092494525 -0.15535226 0.20437533
0000a0 0c 97 61 bd 71 0b 43 3e a2 d4 47 3e 65 37 a2 3d
       -0.05507569 0.19047333 0.19514707 0.07920722
0000b0 d3 c9 83 be ce 20 09 3e 06 ea 88 3e 0b bd b8 3e
       -0.25739917 0.1339142 0.26741046 0.36081728
0000c0 e1 02 98 be 54 d6 b7 3e e4 56 73 be 05 b4 76 bf
       -0.29689696 0.35905707 -0.23763615 -0.9636844
0000d0 63 28 84 3e 43 9f 4b bd f8 86 b8 bd 9a 02 52 3d
       0.25812063 -0.04971243 -0.09010118 0.051272012
0000e0 7d da 91 3c be bb b4 3e 07 1a d9 bc 3d 15 35 3e
       0.017804379 0.35299486 -0.026501669 0.17683883
0000f0 21 3e 1b 3e eb d5 74 3e 0b c4 7b be c5 0d 7a 3d
       0.15160419 0.23909728 -0.24586503 0.061048288
000100 99 9c 4e bd 76 2b 3e 3e 48 68 ec be f4 d6 99 3d
       -0.050442312 0.18571267 -0.4617331 0.07511702
000110 25 df f6 bb 90 d4 23 3e e3 66 fe bd f5 31 45 be
       -0.007533925 0.15999055 -0.12421968 -0.19257338
000120 67 e4 01 3f d8 d6 f6 3d 34 e3 df bd ea 35 8d be
       0.5073914 0.12052697 -0.109320074 -0.27580196
000130 2a 2a 36 3e c9 f6 55 3e 8c 3f 39 3e 12 24 c1 be
       0.17789522 0.20894922 0.18090647 -0.37722832
000140 1e 07 5c 3d ec 6a 8c 3c 49 9f e2 bd a0 7f d3 be
       0.053717725 0.017140828 -0.110655375 -0.41308308
000150 97 5a b4 be d0 9e 5b 3d 04 87 30 3e 57 6a 9c 3d
       -0.35225365 0.053618252 0.17239004 0.0763747
000160 46 2a 4e 3e db 05 2c 3e 1d 05 ba 3e 38 e8 e9 be
       0.20133314 0.16799109 0.36332026 -0.4568498
000170 f3 d1 ca 3d be 0c 1b 3e c7 f8 01 3f 22 8c cd 3c
       0.09903326 0.1514158 0.5077023 0.025091235
000180 1d 5c 1c 3e 0d d7 02 3e 1a 0f 6e bd e4 f5 a1 be
       0.15269513 0.12777348 -0.05811987 -0.31632912
000190 cd c4 6d 3e 38 cc b6 3e 4d 89 4c be 91 9f c4 3e
       0.23219605 0.35702682 -0.19974251 0.3840299
0001a0 90 33 88 be 56 80 25 bf 95 79 af 3d 5d 39 7d be
       -0.2660184 -0.6464895 0.08568112 -0.24728914
0001b0 f2 4e 0f be 98 f0 a2 be c4 30 b8 bd 5d c0 53 3e
       -0.13994959 -0.31824183 -0.08993676 0.2067885
0001c0 51 9f 32 bd b2 88 b8 be ee 60 2a be bc 62 31 3e
       -0.043608967 -0.3604179 -0.16638538 0.1732282
0001d0 4e b9 15 3e 99 a5 c9 3e 58 76 c4 be 22 ef e3 3c
       0.1462147 0.39384153 -0.3837154 0.027823988
0001e0 b1 26 87 be 79 e2 5d be e4 f8 19 3e 30 68 d2 bd
       -0.26396707 -0.21668424 0.1503635 -0.102737784
0001f0 7d 18 2a bf 3c ce a3 be b7 d4 a7 3e b5 00 9a 3d
       -0.66443616 -0.31993282 0.32779476 0.07519666
000200 65 1b c2 be ec ce e4 be 8f 06 4d 3e 67 5b 6e be
       -0.37911525 -0.4468912 0.20022033 -0.23277055
000210 f8 ac 9f 3e 53 39 33 be 9e 22 3c be bb 02 de be
       0.31186652 -0.17502336 -0.1837258 -0.43361458
000220 e5 26 59 3e 5c 25 96 3d f1 5e cc bc 77 10 b7 bd
       0.21206243 0.073313445 -0.024947615 -0.08938687
000230 ce 08 a8 3e 18 48 4d be 13 3f a6 bd cd c9 60 3e
       0.32819217 -0.20047033 -0.08117499 0.21951981
000240 20 5f 2c 3d 87 3a a6 be 7b 69 a3 3e 9b 16 96 be
       0.042082906 -0.32466528 0.31916413 -0.29314122
000250 a1 cb 80 bc da 50 a8 3c 29 91 4d be 2c 3e c0 3e
       -0.015722098 0.020546366 -0.20074905 0.37547433
000260 52 97 b7 3e 93 b9 af 3d 1a 3b 81 bd 7d 8c 4a be
       0.35857636 0.08580317 -0.06310101 -0.19780155
000270 8d aa 97 bd 63 67 d8 be d3 4d 0c 3e 62 35 9c 3e
       -0.07405577 -0.42266378 0.13701563 0.30509478
000280 20 79 22 bc 28 b4 43 be 52 0a 40 be 08 b1 fd 3d
       -0.009916574 -0.19111693 -0.18753937 0.12387282
000290 78 a8 98 3e 72 d0 81 3e e2 d2 31 3e de fb e0 be
       0.2981603 0.25354344 0.17365602 -0.4394216
0002a0 cd ba 64 3e 5d 63 39 be 1c 61 ab 3e a2 28 ee 3e
       0.22336884 -0.1810431 0.33472526 0.46515375
0002b0 d9 1b 8e bd d3 05 19 3e 9d 53 4e be b9 5f 1a 3e
       -0.06938905 0.14943628 -0.20149083 0.15075578
0002c0 4b 8b 08 be e4 65 c4 be ce 25 f0 bd be c8 7b bd
       -0.13334386 -0.38358986 -0.11725961 -0.06147074
0002d0 51 85 9c 3e 94 06 a1 3e d8 99 e2 bd 82 ec 25 3e
       0.30570462 0.3145033 -0.110644996 0.16203502
0002e0 b6 c0 9a 3e 63 b2 bb 3e 54 22 4c be 7a bb ea be
       0.30225152 0.36659536 -0.1993497 -0.45846158
0002f0 bc 47 b0 3d 26 f2 7d bf ba c5 b8 3d ec c0 27 bf
       0.08607432 -0.99197614 0.09022088 -0.6552875
000300 3f 4f a6 bd dd 09 b1 3d be 61 39 be 21 70 31 be
       -0.08120584 0.086444594 -0.18103692 -0.1732793
000310 86 6c 19 3e 21 55 f3 bd 28 aa 39 bd 39 5d 16 3d
       0.14982805 -0.118814714 -0.04532829 0.036709998
000320 d6 33 24 be 22 c6 30 be a0 92 c6 be 06 51 4e 3e
       -0.16035399 -0.17263082 -0.3878374 0.20148095
000330 4e eb e3 3d 7f 71 0c 3e a1 0e b4 3c c9 01 86 3e
       0.11128865 0.1371517 0.021979632 0.26173237
000340 60 59 81 bc 9b 46 e8 be 96 19 5d bc 3a 59 d2 bd
       -0.015789688 -0.45366368 -0.01349487 -0.10270925
000350 ac 43 aa be 6d c7 b3 be 74 35 2e 3e 2f 03 ad be
       -0.33254755 -0.35113087 0.17012578 -0.3379149
000360 a3 3d 14 be 3c 4e 57 be 19 e6 be be 82 f0 2c 3e
       -0.14476638 -0.21025938 -0.37284926 0.16888621
000370 a0 56 bb be 3e cb d4 3e 2d 35 5f be 20 65 13 3e
       -0.36589527 0.4156131 -0.21797629 0.14394045
000380 20 1d 23 be aa 85 be 3e ff 17 f0 bb 32 9e c5 3e
       -0.15929079 0.37211353 -0.0073270793 0.38597256
000390 a2 d5 87 3e f2 b4 99 be fd ee bd bd 11 0e f5 be
       0.26530176 -0.30020863 -0.09274099 -0.47862294
0003a0 8d 6c d9 3d d3 aa c6 bd c9 de 3f bd 9e 62 8a 3d
       0.106164075 -0.09700551 -0.046843324 0.06757091
0003b0 d1 58 ac 3c a4 5a b8 3e 66 0e 9f 3d 68 4f a5 3d
       0.021038445 0.36006653 0.07766418 0.08071786
0003c0 7e 67 ae 3c 15 6c d3 3e 04 e6 9d be f1 24 7a bf
       0.021289583 0.41293398 -0.3083955 -0.9771262
0003d0 fb 05 0f be b9 14 84 be 78 63 b1 be a1 51 93 be
       -0.13967125 -0.2579706 -0.346462 -0.28773215
0003e0 26 d3 c2 be 46 e0 b0 3d cc 32 f8 3d db c3 25 3e
       -0.38051718 0.08636527 0.12119064 0.16187994
0003f0 83 89 bc be 0c b4 73 3d 0b 03 99 bd 73 81 b3 3c
       -0.36823663 0.059497878 -0.074712835 0.021912312

linear1.bias f4 [100]
000000 6e 84 04 be e4 e4 99 be cc ad d3 3d 64 3d b6 bc
       -0.12941143 -0.30057442 0.103358835 -0.02224607
000010 7f 14 57 3e f2 2d ae 3d 54 fb ce be e9 49 84 ba
       0.21003912 0.08504857 -0.40426123 -0.0010092828
000020 5b 62 c6 bc 54 62 3e be 04 61 0f 3e d3 39 e8 be
       -0.024216821 -0.18592197 0.14001852 -0.45356616
000030 59 d8 1e 3e 59 01 f3 3e 48 29 bd be 30 48 8a be
       0.15512218 0.47461966 -0.36945558 -0.270082
000040 a3 66 72 3e d6 15 d3 bd 9c 3e 86 3e 82 5d 15 3d
       0.23671965 -0.10306899 0.26219642 0.03646613
000050 47 62 d7 be 98 c3 fd 3d fd 9c 35 be 5b 6c b3 be
       -0.42067167 0.12390822 -0.17735668 -0.35043606
000060 f0 98 5c be c3 42 8e be a3 61 92 3d bd b6 d7 be
       -0.21542716 -0.2778531 0.07147529 -0.42131606
000070 cd 6b 92 bd cb 8d bf 3d ea a4 1b be 2b d6 25 3f
       -0.071494676 0.09353217 -0.15199628 0.6477992
000080 71 d2 81 3e 56 62 cb 3e 71 89 6f 3e 82 66 95 3e
       0.25355867 0.39723462 0.23392273 0.2917977
000090 e1 ec 34 3e 53 0d 5d bd b3 3e 3c be cc d5 e3 be
       0.17668487 -0.053967785 -0.18383293 -0.44499052
0000a0 9e bb 47 bc ae 73 2c be f1 df 62 be 88 f1 ac bd
       -0.0121907275 -0.16841003 -0.2215574 -0.08444506
0000b0 34 72 6b be 1c 4b be be 99 45 34 3d 89 49 3a be
       -0.22992784 -0.3716668 0.044011686 -0.18192114
0000c0 ef ad 65 be 3f 0d ae bd 04 cc 8e be 4e 0e b9 be
       -0.22429632 -0.0849862 -0.27890027 -0.36143726
0000d0 05 9e 34 3e a3 d9 0d 3d 42 23 72 3d ef 3e aa 3d
       0.17638405 0.034631383 0.059115656 0.08312785
0000e0 f5 87 85 3c 7a 23 22 be d6 8c c1 3c 23 a8 b3 3e
       0.01630018 -0.15833846 0.023626726 0.35089216
0000f0 d1 ab 86 bd fa 0c 26 be 82 5a 4d be 23 0c 90 bd
       -0.0657574 -0.16215888 -0.20054057 -0.07033565
000100 bc 36 0b 3f d6 d9 3f 3e 58 b9 43 3d fc 61 01 3f
       0.54380393 0.18735442 0.04778418 0.5054014
000110 85 92 33 3e ac d1 04 3e c0 41 ae be 7a 12 ab be
       0.17536362 0.12970608 -0.34034538 -0.33412534
000120 d1 67 f9 3d ff 6a 17 be 90 cd 06 3e 32 9c db be
       0.121780045 -0.1478691 0.13164353 -0.42892605
000130 c3 6a 99 3d 1f 59 23 be bf cb 22 bd 32 0d b0 3e
       0.07491066 -0.15951966 -0.03974509 0.34385067
000140 6e fc f4 3c 32 f6 76 3e c4 96 82 3e 67 d7 e5 be
       0.029905524 0.24117354 0.2550565 -0.448909
000150 88 4d 8c be 30 d5 00 3e 6d fe 2b 3e 0d b7 9f 3c
       -0.27402902 0.12581325 0.16796274 0.019496465
000160 c7 c0 22 bd cb 9d 2b 3e d9 b3 02 3f 18 65 b4 3c
       -0.039734628 0.16759412 0.51055676 0.022020862
000170 26 17 6b bd 8c 72 5a bd 19 65 46 be eb 82 5c 3e
       -0.057395123 -0.053331897 -0.19374503 0.21534316
000180 54 13 54 be 4d 2f c2 3e 0e 0f 9e be 3b 51 9e bd
       -0.20710498 0.37926713 -0.3087086 -0.07730337

linear2.weight f4 [80, 100]
000000 af 7b 8f 3c 6d 67 12 bd 92 32 c9 3c 90 3c 01 3d
       0.017515032 -0.035743166 0.024560247 0.031551898
000010 50 82 46 3d 80 62 53 3d 37 67 0f 3d e3 a6 68 3d
       0.04846412 0.05160761 0.035010543 0.05679978
000020 33 31 5c bc 0f 2a 2d 3c 91 d7 52 bd cd b0 bb 3b
       -0.013439464 0.01056911 -0.05147511 0.0057278634
000030 0c 3a 95 bd 72 67 8f 3c aa 4f 1b 3d 9c f4 2d 3d
       -0.07286462 0.017505381 0.03791777 0.042469606
000040 b9 8d e4 3b 73 82 78 bd 63 f9 17 3d ad f4 98 bd
       0.0069749025 -0.06067128 0.037103068 -0.07468543
000050 3a 6b 96 3d 3d 5f 40 bd 28 2f 1a 3c 18 e3 51 bc
       0.073446706 -0.046965826 0.009410657 -0.012810491
000060 a8 29 b1 3c c4 6a d2 bc cd ad 4e bc f8 59 b0 bd
       0.021626309 -0.025685675 -0.0126146795 -0.0861091
000070 54 c3 d1 3c ed b2 6a 3d e1 32 23 bd ba 2f d9 bc
       0.025605835 0.057299543 -0.039843444 -0.026512016
000080 a7 aa a2 bd 8d e1 ca 3c cb 35 40 3c 52 fa 97 bd
       -0.079427056 0.024765754 0.011731575 -0.07420792
000090 23 13 9a bd ad b8 90 3c 16 d1 ba bd a1 38 cb bd
       -0.07523181 0.017666185 -0.09121911 -0.099229105
0000a0 d3 cc 65 3d 3a f2 8b bd 47 03 e6 bc 20 8d 51 bd
       0.05610354 -0.068333104 -0.028077735 -0.051159978
0000b0 15 69 71 bb c2 5f 90 3d df 89 90 bd 97 1c 76 3d
       -0.0036836315 0.07049514 -0.07057547 0.06008586
0000c0 91 56 a9 bd f7 cc 95 3d d0 f8 af 3d b6 6d 11 3d
       -0.08268464 0.073144846 0.08592379 0.03550502
0000d0 8e dd 61 3d 08 05 88 bd 22 39 9e bd 69 0e 3f 3d
       0.05514293 -0.06641585 -0.07725741 0.046644602
0000e0 3d 5a 48 bd 0c ea 7b bd 5f 33 ad 3d 21 7e be bc
       -0.048914183 -0.0615025 0.08457064 -0.023253502
0000f0 10 ab 13 3d 27 d1 e0 3b 68 51 cb bd ec a1 de 3c
       0.03605181 0.0068608704 -0.099276364 0.02717682
000100 6c 5f c1 3c d8 2a 99 bd 8d d7 61 3c 63 ff af 3c
       0.023605071 -0.07478875 0.0137843015 0.021484083
000110 a1 04 3f bd 7d 3f ef 3c 97 9b 3c 3d df 74 93 bd
       -0.046635274 0.029205078 0.04604682 -0.07200026
000120 a7 5e cb 3c 30 e7 a9 37 73 fd 79 3c db 93 af bd
       0.024825407 2.0254025e-05 0.015258181 -0.08573123
000130 08 d8 53 3d 00 9d 72 3b 73 45 93 bd 55 fb 86 bd
       0.051719695 0.0037019849 -0.07190981 -0.065909065
000140 42 dd bd 3d 12 c1 c7 bd 34 21 87 3d 81 22 53 3c
       0.09270717 -0.09753622 0.0659813 0.012886644
000150 40 19 08 bd c0 a7 6c bd b8 ce 80 bd 0d cf 85 3d
       -0.033227205 -0.057777166 -0.062894285 0.065336324
000160 20 bb 8a 3c fa fb d3 bc 18 20 75 bd 1a 5c 7d bd
       0.016934931 -0.025876988 -0.05984506 -0.061855413
000170 7a ab c2 bd d2 92 13 3d 27 26 47 3c a1 5c ac bc
       -0.09505363 0.03602869 0.012155092 -0.021040263
000180 41 1f 09 ba 93 43 a6 bd 9a ee 23 bb 74 f5 c7 bd
       -0.00052307924 -0.081183575 -0.0025014044 -0.09763613
000190 5a 82 30 3d 25 9b 94 bd 70 15 28 bc 67 80 b6 3d
       0.043093063 -0.07256154 -0.010259017 0.089112096
0001a0 f1 7a f8 3c 23 7d 02 bd 96 d8 03 3d a7 ec 12 bd
       0.03033206 -0.03185762 0.032188974 -0.03587022
0001b0 68 07 4a 3c b1 7b a2 bd fa 2a 6d 3d 59 cf bf bc
       0.012330867 -0.079337485 0.057902314 -0.0234143
0001c0 3e d7 3b 3c 5f 5f 3f bd 95 6e 89 3d 0e e3 3a 3d
       0.011464892 -0.046721812 0.06710545 0.045626692
0001d0 26 f7 c6 3d 99 ad 96 bd 89 c1 1f bd 6e 99 bc 3b
       0.097151086 -0.0735733 -0.03900293 0.005755595
0001e0 ef 11 43 3d 3f ad 94 bd f6 a2 b4 3b 5f 83 ab 3c
       0.047624525 -0.072596066 0.0055125905 0.020936666
0001f0 87 25 45 3d a2 e5 1b bd f8 50 7e 3c 20 96 7e bd
       0.048131492 -0.03806079 0.015522234 -0.06215489
000200 dd 43 a3 bd f8 7a 9f bd 74 3c 92 3d c4 93 9f bd
       -0.07971928 -0.07787126 0.07140437 -0.07791856
000210 b8 d4 a5 bd f5 6f b4 bd fe 71 74 3c 5d 9c 99 3d
       -0.080972135 -0.088104166 0.014919756 0.07500527
000220 57 b8 d2 bd 85 5a 87 3d 47 45 bf bd ab 53 ad bd
       -0.10289066 0.06609062 -0.093393855 -0.08463224
000230 13 6d 3c bd 12 57 af bd d8 2d b7 3d a2 16 a9 3d
       -0.04600246 -0.08561529 0.08944291 0.0825627
000240 f8 28 99 3c 72 65 49 3c d0 8a 1e 3d 2b 77 d7 bc
       0.018696293 0.012292253 0.0387066 -0.02630194
000250 90 b4 46 3d b2 75 02 bc 4d 06 a9 bc 13 62 8f bd
       0.04851204 -0.007962631 -0.020632887 -0.07001128
000260 3f b8 b4 bd 87 40 cc bd a3 31 e4 3c 55 3a 87 bc
       -0.08824205 -0.09973245 0.0278557 -0.016507307
000270 d2 75 9d 3d 36 3c 0a bd 27 26 93 3d 03 3b 7c bd
       0.07688488 -0.033748828 0.07185011 -0.061579715
000280 7a f1 f1 3c c1 38 c9 3d e6 52 cb 3c 18 71 f9 bc
       0.02953409 0.09825278 0.024819802 -0.030449435
000290 d7 29 a1 bd 4e 0c c1 bb f7 e2 03 bd 98 e7 cb bc
       -0.078693084 -0.0058913594 -0.032198872 -0.024890706
0002a0 ba 54 6f bd a4 b6 4f 3c 88 fc 94 3c 0e 4b 95 bd
       -0.05843041 0.012677822 0.018186823 -0.07289706
0002b0 67 40 6b 3c 4a cb 14 3d 60 e2 8e bc 07 86 01 bd
       0.014358616 0.036326684 -0.017441928 -0.03162196
0002c0 3a f5 94 bc 1c 5e 15 39 d9 5f f5 3b 2f 4a ba bd
       -0.01818334 0.00014244806 0.0074882326 -0.09096181
0002d0 2d 54 52 3d c4 44 18 bd e9 79 ac bd e0 35 07 3d
       0.051349808 -0.037174955 -0.0842169 0.033010364
0002e0 95 8e aa bd 2e 96 fa bd 5d 92 87 bd 86 92 be bd
       -0.083279766 -0.12235676 -0.066197135 -0.09305291
0002f0 e9 88 e6 bd 54 58 c2 bd 81 e5 7e bd d6 ff dc bd
       -0.11256582 -0.094895035 -0.06223059 -0.10790984
000300 a7 3c 8d bc ec dc a8 bc 80 a2 ad bc 95 20 ab bc
       -0.017240835 -0.020613156 -0.02119565 -0.02088956
000310 35 b4 e1 bd 54 34 d9 3c fa 8f ab bd 1f 33 5f 3b
       -0.110207 0.02651421 -0.08377071 0.003405757
000320 f2 a2 92 bd 9e 69 80 bc 88 af 7b 3d 80 43 02 bc
       -0.071599856 -0.015675362 0.061446697 -0.007950664
000330 4d dd 46 bd 80 64 8a bc 10 ff c5 3d 2b 5f a4 bd
       -0.048550893 -0.016893625 0.0966779 -0.08025964
000340 ff b2 be bd fc 8a dd bc 2a 0d 8b 3d a1 99 9b 3d
       -0.093114845 -0.027043812 0.0678962 0.07597662
000350 55 73 9b bd 0f f6 a7 bd 08 dd b1 bd 49 52 8e bd
       -0.07590357 -0.08201229 -0.086847365 -0.069492884
000360 f3 41 07 bc 13 04 a0 3c 40 10 a4 3d 37 a3 92 3c
       -0.00825547 0.019533193 0.08010912 0.017900093
000370 0f 36 76 bd 12 fa 8f bd cd de 8d 3b 53 72 85 3d
       -0.060110148 -0.07030119 0.0043295384 0.06515946
000380 66 8b a7 3d 61 35 f6 3c b4 59 0b bc 07 ce 92 bd
       0.08180885 0.03005475 -0.008505274 -0.07168203
000390 d8 41 c4 bc 80 a7 bb 3d 05 97 8d bc de b4 79 bd
       -0.023957178 0.091628075 -0.017283926 -0.060963504
0003a0 bd f7 63 bd 40 35 06 3d 97 2b 10 3d 80 9e 12 3d
       -0.055656184 0.032765627 0.03519782 0.03579569
0003b0 67 52 54 bb 68 b9 a0 3d 9f ad 84 3d 80 63 21 bd
       -0.0032397748 0.078478634 0.06478428 -0.03940153
0003c0 a0 20 ab bc 22 35 8b 3d da 41 81 bc f3 96 39 3d
       -0.02088958 0.06797244 -0.01577847 0.045309972
0003d0 50 73 70 bc be b9 ba bd a5 39 87 bd 5e 16 5c 3d
       -0.01467593 -0.09117459 -0.06602792 0.05373227
0003e0 10 db 82 3d 5b 0c 76 3d fa 92 c4 3c 9a f9 ee bc
       0.06389439 0.060070377 0.023995865 -0.029171754
0003f0 a3 82 94 bd 22 d8 99 bd 6e 2b 49 bd ad 78 90 bd
       -0.072514795 -0.07511927 -0.049113683 -0.07054267

linear2.bias f4 [80]
000000 ac 53 ae bc 65 5f 0c bd 21 7e 9a 3d 27 df 32 bd
       -0.021280132 -0.034270663 0.075435884 -0.043669846
000010 72 c7 0b be 75 65 07 3e 73 bf cf ba a8 02 0f bd
       -0.13650301 0.13222297 -0.0015849903 -0.034914643
000020 ed 79 fb 3c c2 ca 13 3e 96 05 1b be 00 e6 b4 bd
       0.030697787 0.14432815 -0.1513885 -0.088329315
000030 6c 12 97 bd 64 ca b1 3d cc 74 ff bc 86 07 5f be
       -0.073765606 0.08681181 -0.031183623 -0.21780214
000040 8b d0 ab bd 92 49 8f bd 05 fc 99 bc 38 b7 94 3d
       -0.08389386 -0.06996454 -0.01879693 0.07261509
000050 ec 54 bf 3d 05 18 49 be 24 c6 8b bd 5a 3d 91 bd
       0.093423694 -0.19638069 -0.06824902 -0.0709178
000060 b5 6c 37 be 5e 3f 37 3d 77 9f 77 bd 42 e1 01 3d
       -0.17912562 0.044738166 -0.060454812 0.031708963
000070 cd ae 8c 3b 41 9d 47 be 84 ae d2 3b b2 9c 34 be
       0.004293299 -0.19493581 0.0064294953 -0.176379
000080 3b ff 83 bd d9 2e b9 3d e5 52 a6 3c c7 0a 09 3d
       -0.06445166 0.090421386 0.020303199 0.033457544
000090 74 df db 3d cd 8c 5b 38 2a 0a 17 3d 01 a5 7e 3d
       0.1073598 5.23448e-05 0.036874928 0.06216908
0000a0 fd cc 9e 3c 83 a0 8f 3d 48 c2 2f 3e 5f 8b 04 3e
       0.019384855 0.07013037 0.17163956 0.12943791
0000b0 bc 29 59 be 86 e3 33 bb 50 d1 66 3d 9a 52 95 3c
       -0.21207327 -0.0027448847 0.05635196 0.018227864
0000c0 eb f8 0e 3e c7 e4 29 bc e4 38 c2 bd b7 b0 45 bc
       0.13962142 -0.010369486 -0.09483507 -0.012066058
0000d0 66 db 38 bc bc 9f 21 bd 75 77 c8 3b 95 47 92 3d
       -0.011282777 -0.039458975 0.006117756 0.071425594
0000e0 cd 03 ac 3c 0f a8 8f bd bf 21 7e 3d 2c 7f f6 3d
       0.020997906 -0.070144765 0.0620439 0.12035975
0000f0 e0 c2 18 3d 65 9c cc bd 4e 89 cd 3d c4 4c 1b be
       0.037295222 -0.099907674 0.100359544 -0.15166003
000100 b9 56 f6 3d 0e 66 86 3b f1 87 43 3e 46 f3 cc bd
       0.1202826 0.0041015213 0.19094826 -0.10007338
000110 76 fe c5 bd f9 41 47 3d 57 76 65 bd b8 ca 68 bd
       -0.09667675 0.0486469 -0.05602106 -0.056833953
000120 97 fb ae bd 0b d8 e3 bd ef 42 75 bd 86 c8 8b bc
       -0.08544081 -0.11125191 -0.059878286 -0.01706339
000130 ad c3 18 be 9d 0b 86 bc 46 b9 30 bd 08 dd b7 bc
       -0.14918394 -0.01636296 -0.04314544 -0.022444263

linear3.weight f4 [2, 80]
000000 52 a3 e8 bc 61 09 20 3a f6 ef 11 3d c6 24 b6 3d
       -0.02839819 0.0006104913 0.035629235 0.08893733
000010 80 9d ea 3d cf 34 e0 3d a0 fc f1 3c 8a c5 ae 3b
       0.11455822 0.109475724 0.029539406 0.005333607
000020 fc 6e 2b be 99 ff 7b 3d 9f 48 9b bd 21 d5 12 bd
       -0.16741556 0.061523054 -0.07582211 -0.035847787
000030 e8 68 b0 3d 4f c7 9c 3d 7a cd a5 3d f2 c8 93 bd
       0.08613759 0.076552026 0.08095832 -0.07216062
000040 36 59 df bd 8f b6 81 bd 97 25 30 3d 05 ad 5f 3c
       -0.109056875 -0.063336484 0.0430046 0.013652091
000050 6a aa 95 3d 63 2d ff bc 8f 1c 9e bd 0d b4 ce bc
       0.073078945 -0.031149572 -0.07720291 -0.02523234
000060 a0 e4 77 bd 9e 2e db 3d 8a 0d 90 bc 2b 81 c9 bd
       -0.06052077 0.10702251 -0.01758458 -0.0983909
000070 6f e3 97 ba c2 d2 80 3d fa f6 82 bd 58 82 28 bd
       -0.0011588166 0.06290199 -0.06394763 -0.04113993
000080 00 d4 ab bd ec 39 c1 bd 6b 5f fc 3c 68 fe 9c 3d
       -0.08390045 -0.09434876 0.030807218 0.07665712
000090 1f 41 97 3d 49 94 8c bb 85 d8 78 3d 3e 2d f1 3c
       0.07385468 -0.004290138 0.060753364 0.029440518
0000a0 d7 cb 9f 3c a1 8f 94 3c 90 ea de 3a e0 6c e6 3c
       0.019506378 0.018134894 0.0017007161 0.028128088
0000b0 7e 88 b5 bd 2d 07 9f 3d 0e cc 4c 3d 53 7b 07 3d
       -0.088639244 0.077650405 0.04999929 0.033076596
0000c0 1d 20 82 be 15 6d a3 bd 95 85 b9 3d 4f 21 ff bb
       -0.25415125 -0.0797979 0.09058682 -0.007785953
0000d0 3a b7 76 bb a8 af 0f bd 60 30 66 bd ad e3 96 bb
       -0.0037645833 -0.03507963 -0.056198478 -0.004604778
0000e0 cc 52 15 3d 17 7e 85 3d d3 bb 9e 3d 5c 8d 53 3d
       0.036455914 0.0651819 0.077506684 0.051648483
0000f0 88 d3 c2 bd 7c 9b 1e 3d 2c 30 9f 3d 2e 22 02 bd
       -0.09513003 0.0387225 0.0777286 -0.031770878
000100 6b 3e 98 ba da 51 2d 3e cb f7 9b 3d cd 58 6b bc
       -0.0011615282 0.16925755 0.07615622 -0.0143644335
000110 e8 c6 8e bd d2 48 6d 3c 6e 34 6a bd ac 5d fb 3c
       -0.06971532 0.014482694 -0.057178907 0.030684315
000120 13 a5 99 3d 60 e0 b7 bc fc 39 ba 3a 03 48 db bc
       0.075021885 -0.022445858 0.0014207955 -0.026767736
000130 be 20 e6 3c 52 59 af 3d ec b2 4f 3c e7 dd 3c 3d
       0.028091785 0.085619584 0.012676936 0.04611006
000140 4f e7 c1 3c 05 95 59 bc d1 9d 8f 3d 01 1f c7 bd
       0.023669867 -0.013280158 0.07012523 -0.097227104
000150 3d ee 9a bd 91 fe 91 bc 07 98 e2 3c 44 6e c6 3d
       -0.075649716 -0.017821582 0.027660383 0.09689
000160 a1 06 67 bd e2 98 b0 bc 7b 51 4a 3a bc da c3 3d
       -0.056402806 -0.021557275 0.000771783 0.09563205
000170 ae 85 5a bd 2b 4a 53 bd 87 53 57 3d 31 05 df 3d
       -0.053350143 -0.051584404 0.052569892 0.10889662
000180 52 6c e3 3c 1a 71 5d 3d 6f 7e a5 3c cd 70 2f bd
       0.027761612 0.05406294 0.02020189 -0.042832185
000190 af 25 92 bd b1 84 97 3d 22 d3 90 3d 1e 51 ca 3d
       -0.07136094 0.07398356 0.070715204 0.09878753
0001a0 83 14 01 3d ef c4 78 3d e2 0b 32 3d 7e 9d 32 bd
       0.031513702 0.060734686 0.043468364 -0.043607228
0001b0 24 a6 09 3c c0 b4 a1 3d 9e 13 3b bb 9c 18 54 3d
       0.008401427 0.078958035 -0.0028545628 0.05178128
0001c0 de 13 19 bd 4e 08 d0 3b 8f 68 4e bd 70 ac 3d bd
       -0.037372462 0.0063486462 -0.050392684 -0.046307027
0001d0 ef 8e 96 bc b4 bc 8d 3c 7e 25 1c bd b1 11 0b bd
       -0.018378703 0.017301895 -0.038121693 -0.03395242
0001e0 34 8d d9 3a d6 2f 36 3d 30 cf ad bc 32 3e b8 bd
       0.0016597868 0.044479214 -0.021216959 -0.08996238
0001f0 b6 28 8c 3d e9 f8 41 bd 5b 71 98 bd f3 30 9f bc
       0.068437025 -0.04735652 -0.07443496 -0.01943252
000200 04 a7 90 3e d0 6a 1c 3d 3c 8a c6 3d 1f 75 69 bd
       0.28252423 0.0381878 0.09694335 -0.05699646
000210 e0 48 b9 3d 89 aa 90 bd b8 00 b6 bd a4 5f 9f bc
       0.09047103 -0.07063777 -0.08886856 -0.019454785
000220 63 d3 d7 3d 7e a5 94 3d 60 54 2f 3d 7b 87 74 bb
       0.10538366 0.07258128 0.042805076 -0.0037312198
000230 0c 7a 2f 3c f8 56 8d bd aa 57 af bd 43 92 bd 3d
       0.010710251 -0.069013536 -0.085616425 0.09256413
000240 7d ec 9a bd e2 86 be be 95 60 8c bd b1 f3 ba 3d
       -0.07564638 -0.37212282 -0.06854359 0.09128512
000250 b3 8b d7 bd 35 db fb bc bf 88 db bc b5 9e ad 3d
       -0.105246924 -0.030744174 -0.026798604 0.084775366
000260 44 8b 92 bd 82 3c ba bc ab 96 7f 3d f0 c9 26 bc
       -0.07155469 -0.02273393 0.062399548 -0.010179982
000270 ef ef 80 3d 3e a7 1f 3d 84 54 23 bd 69 88 0f 3d
       0.06295764 0.038977854 -0.039875522 0.0350422

linear3.bias f4 [2]
000000 69 85 2e ba 95 fb 2c be
       -0.0006657453 -0.16892846
