checkpoints/origin/2020-11-16T14-26-21-16-classify/classify_fold0_origin_0.951538.pth (torch, 38373 bytes, 6 tensors)

linear1.weight f4 [100, 6]
00000000: 0eba 863e c1c7 97be b77c 91be 7734 eebd
00000010: 6ae1 d63e 7cc5 583e 125a c13e 3d47 913e
00000020: 38b2 52bc a0c2 6ebe b75c 963e b0fe 543e
00000030: ae30 4f3c 8684 033e 94c6 363e af0e 953e
00000040: 1fc5 1d3c bba8 a73d c1d2 a6be 083f 1dbe
00000050: df34 0dbe 07e4 013c 75e3 be3e 2697 2fbe
00000060: 4ee5 cabd 8899 a23d d35d e3bd 83e7 cc3e
00000070: b6b5 243e 4975 75be e088 e1bd 9417 3bbe
00000080: ec55 8abe 5056 593e be38 b6be 4ac9 25be
00000090: a0ef 53be 26ca 8dbd 3e3d 07be 0121 693e
000000a0: af78 02bd b9e2 5a3e 2c8d 283e 714d ea3d
000000b0: 0151 6fbe 4623 e63d 1934 8e3e 6817 8f3e
000000c0: 6462 39be 6d1a c73e 2b9f 3bbe c918 8bbe
000000d0: 07aa 833e af23 4d3e c60c 1ebd 69ef 7b3d
000000e0: ca9c 263d 2520 a93e 5d8d 2e3d ceb0 463e
000000f0: 83c5 203e 15c5 793e 5769 74be e281 693e
00000100: d20e bdbd fa16 8e3e 3537 d9be 79d4 943d
00000110: 664a 223c 2328 233e f432 b7bd 5bf9 2fbe
00000120: fd97 f73e 2375 003e 3c6d 0cbe 5f41 00be
00000130: 0f98 533e b581 3c3e 6ff5 073e f2c6 81be
00000140: 8380 583d 8d4f bd3c 9d0c 0fbe 0dba cabe
00000150: 94ab 9abe 0c3d 883d 14fb 593e 69f2 9f3d
00000160: bca3 9a3e 882e 3a3e 5dae a53e cb14 b4be
00000170: 4757 e23d a015 203e 0b2c 003f 50df 053d
00000180: f656 053e edbf 093e 5965 95bd 9aba 58be
00000190: d46a 983e 2a07 ab3e 213c 11be 05e0 c13e
000001a0: 4ab3 80be e01d ecbc f0bb 163d 297d 8bbd
000001b0: a725 27be 61d9 aebe d8de e7bd c7eb 3b3e
000001c0: 59dd 88bd 4374 c4be 1e67 c9bd 36b7 5d3e
000001d0: f9f6 653e 1112 bf3e eeb4 91be 9c53 af3d
000001e0: e2e6 f0bd 5b98 50be a3d6 883e 89ca d6bd
000001f0: 58df e1be 52c6 5bbe 4b74 943e 438b 753d
00000200: a694 c7be a64d cabe 6adf 0b3e 9f01 60be
00000210: 290e 873e 9f1e b3bd ce45 4ebe 10e4 89be
00000220: f4db 233e c844 a53d f75e 783c 61a5 61bd
00000230: 9fe5 c23e 52a6 e5bd f855 aebc 4822 883e
00000240: 971f 953c fed4 b5be 34a0 b33e b4a3 99be
00000250: 6b80 29bd 1536 a93c 12c1 2cbe c4ff bf3e
00000260: 18cf c03e 3643 20bd 1116 d7bc 11f6 4fbe
00000270: c25d eabd fb72 a6be e531 2c3e 6076 a13e
00000280: 4e56 83bd 5b34 27be 8919 f9bd 2aa1 403e
00000290: 4f48 bb3e 7678 933e 106f af3e c214 cdbe
000002a0: 8980 9c3e 7036 20be dfb4 c23e 3237 ec3e
000002b0: 9655 b13d cd01 383e 9d53 4ebe b95f 1a3e
000002c0: 4b8b 08be e465 c4be ce25 f0bd bec8 7bbd
000002d0: be00 973e 98f6 a83e aff8 ebbd 6131 2c3e
000002e0: 87d1 973e b173 bd3e 7ded 71be 9c42 06be
000002f0: bf53 cc3d 90d1 e5be b2ee 09be 173f bcbe
00000300: 3f4f a6bd dd09 b13d be61 39be 2170 31be
00000310: 866c 193e 2155 f3bd 28aa 39bd 395d 163d
00000320: d633 24be 22c6 30be a092 c6be 0651 4e3e
00000330: 04e3 bb3d fd9a 403e 5233 153d 4d1a 7f3e
00000340: a6b4 babd 881b dabe 9619 5dbc 3a59 d2bd
00000350: ac43 aabe 6dc7 b3be 7435 2e3e 2f03 adbe
00000360: 8015 2cbe 8d23 6fbe d4d1 cabe 5816 153e
00000370: 7d3f c7be 98df c83e e296 73be d1d8 173e
00000380: 0127 23be ee9b b23e dab5 b53b 4f32 bc3e
00000390: 40a2 513e b327 9dbe 2668 ddbd 49a1 96be
000003a0: 6dc7 4f3d aed1 43be feb6 5c3c ebc8 d53d
000003b0: 2d8a ad3d 4b95 b43e 2072 033e 5030 133e
000003c0: 5f11 323d 9652 cc3e 08f9 9abe 3b99 ccbe
000003d0: 3e19 65be 51cc e3bd 7863 b1be a151 93be
000003e0: 26d3 c2be 46e0 b03d cc32 f83d dbc3 253e
000003f0: 8389 bcbe 0cb4 733d 0b03 99bd 7381 b33c
0.26313823 -0.29644588 -0.28415462 -0.116311006 0.41968852 0.21169084 0.3776403 0.28374663
-0.0128598735 -0.23316431 0.2936761 0.2080028 0.0126458835 0.12843522 0.17849189 0.29112765
0.009629517 0.0818648 -0.32582667 -0.15356076 -0.137897 0.007927901 0.3728291 -0.17147502
-0.09907018 0.0793944 -0.1110188 0.4002038 0.16084942 -0.23970522 -0.11012435 -0.18270713
-0.27018678 0.21224332 -0.35590166 -0.16190067 -0.20696878 -0.069233224 -0.13206956 0.22766496
-0.031853374 0.2137555 0.16460103 0.11440552 -0.23370744 0.112371966 0.27774122 0.27947545
-0.1810394 0.3888735 -0.18322437 -0.27167347 0.25715658 0.20033143 -0.0385864 0.061507616
0.04067687 0.33032337 0.042615283 0.19403383 0.15700345 0.24391587 -0.23868309 0.22803453
-0.092313424 0.27751905 -0.42424932 0.072670884 0.009905433 0.1593328 -0.089452654 -0.17184965
0.48358145 0.12544684 -0.13713545 -0.12524937 0.20663475 0.18408854 0.13277219 -0.25347096
0.052856933 0.023109222 -0.13969655 -0.3959507 -0.3020903 0.06652269 0.21287185 0.07809908
0.30203044 0.18181813 0.3235959 -0.35172114 0.11051803 0.1563325 0.50067204 0.03268367
0.13021454 0.1345212 -0.07294721 -0.21164933 0.29769003 0.33403903 -0.14183094 0.37866226
-0.25136787 -0.02882284 0.036800325 -0.06810982 -0.16322957 -0.34150222 -0.11321801 0.1835166
-0.06682844 -0.3836995 -0.09834121 0.2165192 0.22457494 0.3731847 -0.2845835 0.08560869
-0.117627874 -0.20370619 0.26726255 -0.10487849 -0.4411571 -0.21462372 0.28994974 0.059947263
-0.38980597 -0.39512366 0.13659444 -0.21875618 0.2637799 -0.08746075 -0.20143816 -0.2693181
0.16001874 0.080697596 0.01515936 -0.05508936 0.38065812 -0.11213364 -0.021281227 0.26588655
0.01820354 -0.35514063 0.35083163 -0.30007708 -0.041382235 0.020655671 -0.16870525 0.3749982
0.37658 -0.039126597 -0.02625564 -0.2030871 -0.11443664 -0.32509598 0.16815908 0.31535625
-0.06412946 -0.16328566 -0.121630736 0.18811479 0.36578605 0.28802842 0.3426442 -0.400549
0.30566815 -0.15645766 0.3802862 0.4613586 0.08658902 0.17969437 -0.20149083 0.15075578
-0.13334386 -0.38358986 -0.11725961 -0.06147074 0.29492754 0.33000636 -0.11522042 0.16815712
0.29652044 0.37002328 -0.23625751 -0.13111347 0.09976911 -0.44886446 -0.13469961 -0.36766884
-0.08120584 0.086444594 -0.18103692 -0.1732793 0.14982805 -0.118814714 -0.04532829 0.036709998
-0.16035399 -0.17263082 -0.3878374 0.20148095 0.09174159 0.18809123 0.036425896 0.24912377
-0.09116487 -0.4259913 -0.01349487 -0.10270925 -0.33254755 -0.35113087 0.17012578 -0.3379149
-0.16805077 -0.23353405 -0.3961321 0.14559305 -0.38915625 0.39233088 -0.23788026 0.14828803
-0.15932848 0.3488459 0.00554536 0.36757132 0.2047205 -0.3069435 -0.1081088 -0.29419926
0.050727297 -0.19122955 0.013471363 0.10438713 0.084736206 0.35270151 0.12836504 0.14373899
0.043473598 0.39906758 -0.3026812 -0.39960656 -0.2237291 -0.11122955 -0.346462 -0.28773215
-0.38051718 0.08636527 0.12119064 0.16187994 -0.36823663 0.059497878 -0.074712835 0.021912312

linear1.bias f4 [100]
00000000: a84f 6dbe e4b7 8cbe 65ce 033e 643d b6bc
00000010: 445a 553e 35aa dd3d 7a22 c3be b36e 173c
00000020: 58c2 eebc e2dc eabd d6bf c23d e643 d6be
00000030: 97ea 393e 3ea6 e33e 2e1c 88be 3c55 8ebe
00000040: a58f 993e dd6d 1fbe 4bcd 743e 39f0 0b3e
00000050: 9600 49be 37c4 783d f4c9 6abe 1157 95be
00000060: 9be3 74be c7a2 74be b90a 843c 8644 81be
00000070: e9ae b03d cb8d bf3d 9002 24be 120b d83e
00000080: 71d2 813e 5662 cb3e 5b68 1f3e 8266 953e
00000090: fa22 1d3e 4c0b 27bd 2dc3 76be e354 c9be
000000a0: 1881 ccbd ae73 2cbe f1df 62be b402 98bd
000000b0: 4553 82be 6fd1 a6be 59df fc3d 239f 12be
000000c0: c46d 87bd 40fc e2bd 04cc 8ebe 6750 c4be
000000d0: c496 353e a3d9 0d3d 4b7a bb3d 159b 5b3d
000000e0: f587 853c 7760 52be 799c be3d 9761 9e3e
000000f0: e4e1 3d3d eb71 7ebe 28f9 e1bd 99bd 4d3d
00000100: 1300 ea3e 09e2 243e e944 a93d 9b73 dd3e
00000110: ad79 973d 3e9c 993d 6528 babe fdb9 97be
00000120: d167 f93d f86a 17be 90cd 063e 812a b7be
00000130: 9c24 db3d 29ec f0bd 527c e43c 320d b03e
00000140: 6efc f43c 63ee 9e3e 4b92 513e 43ff b4be
00000150: 884d 8cbe 482e d33d b2ad 8b3e ca36 25bd
00000160: 251d 87bc cb9d 2b3e 873a e13e 91e8 2a3e
00000170: 2617 6bbd 1a40 bbba d83a 2ebe 219c 4d3e
00000180: b713 88be 2871 a03e 4cf0 a9be 59d6 523c
-0.23174918 -0.27484047 0.12871702 -0.02224607 0.20835215 0.1082348 -0.3811224 0.009242701
-0.029145405 -0.11467911 0.09509246 -0.41848677 0.18155895 0.4446277 -0.26584 -0.27799404
0.29992405 -0.15569253 0.23906438 0.13665856 -0.1962913 0.060734 -0.22928602 -0.2916799
-0.2391495 -0.2389022 0.016118394 -0.25247592 0.086271115 0.09353217 -0.16016603 0.42195946
0.25355867 0.39723462 0.15567152 0.2917977 0.15345374 -0.040782258 -0.24097891 -0.39322576
-0.0998556 -0.16841003 -0.2215574 -0.074223906 -0.25454155 -0.3258166 0.12347288 -0.14318518
-0.06612733 -0.11083269 -0.27890027 -0.38342592 0.17733294 0.034631383 0.09154185 0.053614695
0.01630018 -0.20544611 0.093071885 0.3093383 0.046358004 -0.24848144 -0.11033851 0.050229643
0.45703182 0.1610185 0.08265097 0.43252262 0.07396255 0.07500504 -0.36358944 -0.29634085
0.121780045 -0.14786899 0.13164353 -0.35774615 0.10700342 -0.11763794 0.027891312 0.34385067
0.029905524 0.3104125 0.20465963 -0.35351 -0.27402902 0.10311562 0.27280957 -0.040335454
-0.01649339 0.16759412 0.43989965 0.1669028 -0.057395123 -0.0014286072 -0.17014635 0.2007909
-0.2657754 0.3133633 -0.33191144 0.012868487

linear2.weight f4 [80, 100]
00000000: af7b 8f3c 6d67 12bd 9232 c93c 903c 013d
00000010: 5082 463d 8062 533d 3767 0f3d e3a6 683d
00000020: 3331 5cbc 0f2a 2d3c 91d7 52bd cdb0 bb3b
00000030: 0c3a 95bd 7267 8f3c aa4f 1b3d 9cf4 2d3d
00000040: b98d e43b 7382 78bd 63f9 173d adf4 98bd
00000050: 3a6b 963d 3d5f 40bd 282f 1a3c 18e3 51bc
00000060: a829 b13c c46a d2bc cdad 4ebc f859 b0bd
00000070: 54c3 d13c edb2 6a3d e132 23bd ba2f d9bc
00000080: a7aa a2bd 8de1 ca3c cb35 403c 52fa 97bd
00000090: 2313 9abd adb8 903c 16d1 babd a138 cbbd
000000a0: d3cc 653d 3af2 8bbd 4703 e6bc 208d 51bd
000000b0: 1569 71bb c25f 903d df89 90bd 971c 763d
000000c0: 9156 a9bd f7cc 953d d0f8 af3d b66d 113d
000000d0: 8edd 613d 0805 88bd 2239 9ebd 690e 3f3d
000000e0: 3d5a 48bd 0cea 7bbd 5f33 ad3d 217e bebc
000000f0: 10ab 133d 27d1 e03b 6851 cbbd eca1 de3c
00000100: 6c5f c13c d82a 99bd 8dd7 613c 63ff af3c
00000110: a104 3fbd 7d3f ef3c 979b 3c3d df74 93bd
00000120: a75e cb3c 30e7 a937 73fd 793c db93 afbd
00000130: 08d8 533d 009d 723b 7345 93bd 55fb 86bd
00000140: 42dd bd3d 12c1 c7bd 3421 873d 8122 533c
00000150: 4019 08bd c0a7 6cbd b8ce 80bd 0dcf 853d
00000160: 20bb 8a3c fafb d3bc 1820 75bd 1a5c 7dbd
00000170: 7aab c2bd d292 133d 2726 473c a15c acbc
00000180: 411f 09ba 9343 a6bd 9aee 23bb 74f5 c7bd
00000190: 9cc6 593d e381 89bd aa59 9d3c 6780 b63d
000001a0: e798 5b3d 2783 0cbc da34 633d 9b2c 90bc
000001b0: 4d9d 7f3c 9c6c 5dbd 642a ce3d cf5b 15ba
000001c0: f23a ab3c 2f24 8b3b c244 b13d 4dc4 933d
000001d0: 30c2 d23d 1e08 98bd 0dca 80bc 2adb 0b3d
000001e0: 9c4a 583d b96e 91bd 8f20 253d 0692 dc3c
000001f0: aab8 5c3d 2dcc f1bc 163e 383d 7038 febc
00000200: 7073 52bd f87a 9fbd f38c cc3d 8a28 88bd
00000210: b8d4 a5bd f56f b4bd 67e9 463d 5d9c 993d
00000220: 000a a3bd 6308 b73d 6c55 93bd 01e8 6bbd
00000230: ed6d 35bd 1257 afbd d82d b73d 4f31 b63d
00000240: 82b8 d13c 9d55 bc3c 903f 413d cd29 9d3b
00000250: e34f 9d3d 9da8 8f3b 4d06 a9bc 35db 82bd
00000260: 5d56 85bd 8740 ccbd 64bd 693d afc6 eabb
00000270: d275 9d3d 1e8f 06bd a61c 9e3d a4f4 5fbd
00000280: 4062 123d 57a3 cc3d e7bb 613d 8d4b a5bc
00000290: 8ef3 92bc 2ca4 36ba 45e3 d1bc 3f49 95bc
000002a0: 2957 49bd ed31 303d fad9 293d 45e8 90bd
000002b0: 6740 6b3c 2acc 143d 60e2 8ebc 0190 d1bb
000002c0: b100 223c 8f25 e43c aee3 f93c 2f4a babd
000002d0: 2d54 523d f825 e7bc 2765 82bd cb2a 393d
000002e0: 958e aabd 817a cbbd 58c4 1bbd d2de b9bd
000002f0: eada b6bd 5b58 c2bd 1cad 1fbd be28 a7bd
00000300: a73c 8dbc 0bb2 553a f3c1 b2bc dc0e 4c3c
00000310: 92b6 d3bd 70ff d43c bdc3 77bd 2815 133c
00000320: f2a2 92bd 9e69 80bc 88af 7b3d 8043 02bc
00000330: 4ddd 46bd 8064 8abc 10ff c53d 2b5f a4bd
00000340: ffb2 bebd fc8a ddbc 2a0d 8b3d a199 9b3d
00000350: 5573 9bbd 0ff6 a7bd 08dd b1bd 4952 8ebd
00000360: f341 07bc 1304 a03c 4010 a43d 37a3 923c
00000370: 0f36 76bd 12fa 8fbd cdde 8d3b 5372 853d
00000380: 668b a73d 6135 f63c b459 0bbc 07ce 92bd
00000390: d841 c4bc 80a7 bb3d 0597 8dbc deb4 79bd
000003a0: bdf7 63bd 4035 063d 972b 103d 809e 123d
000003b0: 6752 54bb 68b9 a03d 9fad 843d 8063 21bd
000003c0: a020 abbc 2235 8b3d da41 81bc f396 393d
000003d0: 5073 70bc beb9 babd a539 87bd 5e16 5c3d
000003e0: 10db 823d 5b0c 763d fa92 c43c 9af9 eebc
000003f0: a382 94bd 22d8 99bd 6e2b 49bd ad78 90bd
0.017515032 -0.035743166 0.024560247 0.031551898 0.04846412 0.05160761 0.035010543 0.05679978
-0.013439464 0.01056911 -0.05147511 0.0057278634 -0.07286462 0.017505381 0.03791777 0.042469606
0.0069749025 -0.06067128 0.037103068 -0.07468543 0.073446706 -0.046965826 0.009410657 -0.012810491
0.021626309 -0.025685675 -0.0126146795 -0.0861091 0.025605835 0.057299543 -0.039843444 -0.026512016
-0.079427056 0.024765754 0.011731575 -0.07420792 -0.07523181 0.017666185 -0.09121911 -0.099229105
0.05610354 -0.068333104 -0.028077735 -0.051159978 -0.0036836315 0.07049514 -0.07057547 0.06008586
-0.08268464 0.073144846 0.08592379 0.03550502 0.05514293 -0.06641585 -0.07725741 0.046644602
-0.048914183 -0.0615025 0.08457064 -0.023253502 0.03605181 0.0068608704 -0.099276364 0.02717682
0.023605071 -0.07478875 0.0137843015 0.021484083 -0.046635274 0.029205078 0.04604682 -0.07200026
0.024825407 2.0254025e-05 0.015258181 -0.08573123 0.051719695 0.0037019849 -0.07190981 -0.065909065
0.09270717 -0.09753622 0.0659813 0.012886644 -0.033227205 -0.057777166 -0.062894285 0.065336324
0.016934931 -0.025876988 -0.05984506 -0.061855413 -0.09505363 0.03602869 0.012155092 -0.021040263
-0.00052307924 -0.081183575 -0.0025014044 -0.09763613 0.053167924 -0.06714227 0.019207794 0.089112096
0.053612616 -0.008576191 0.055470325 -0.017599395 0.015601468 -0.054058656 0.10066679 -0.00056975795
0.02090213 0.004246257 0.08655693 0.07215176 0.102909446 -0.07423423 -0.015721345 0.034144558
0.052805528 -0.07101197 0.040314253 0.026925098 0.053887047 -0.029516304 0.044981085 -0.03103277
-0.05137962 -0.07787126 0.099878214 -0.06648357 -0.080972135 -0.088104166 0.048562434 0.07500527
-0.07960892 0.089371465 -0.07194027 -0.057594303 -0.044294287 -0.08561529 0.08944291 0.088961236
0.025600675 0.022990042 0.04717976 0.004796243 0.07681253 0.004384114 -0.020632887 -0.06389467
-0.06510613 -0.09973245 0.057065383 -0.007164798 0.07688488 -0.03285133 0.07720308 -0.054676667
0.03573823 0.09992092 0.05511084 -0.020177627 -0.017938402 -0.00069672125 -0.025621066 -0.018223403
-0.049155388 0.043016363 0.041467644 -0.07075552 0.014358616 0.03632752 -0.017441928 -0.0063953404
0.00988786 0.02784994 0.030504074 -0.09096181 0.051349808 -0.028216347 -0.063669495 0.045206826
-0.083279766 -0.09935475 -0.038029045 -0.09075703 -0.08928473 -0.09489509 -0.03898345 -0.08162068
-0.017240835 0.00081518356 -0.021820998 0.012454715 -0.10337557 0.026000708 -0.060489405 0.008977212
-0.071599856 -0.015675362 0.061446697 -0.007950664 -0.048550893 -0.016893625 0.0966779 -0.08025964
-0.093114845 -0.027043812 0.0678962 0.07597662 -0.07590357 -0.08201229 -0.086847365 -0.069492884
-0.00825547 0.019533193 0.08010912 0.017900093 -0.060110148 -0.07030119 0.0043295384 0.06515946
0.08180885 0.03005475 -0.008505274 -0.07168203 -0.023957178 0.091628075 -0.017283926 -0.060963504
-0.055656184 0.032765627 0.03519782 0.03579569 -0.0032397748 0.078478634 0.06478428 -0.03940153
-0.02088958 0.06797244 -0.01577847 0.045309972 -0.01467593 -0.09117459 -0.06602792 0.05373227
0.06389439 0.060070377 0.023995865 -0.029171754 -0.072514795 -0.07511927 -0.049113683 -0.07054267

linear2.bias f4 [80]
00000000: ac53 aebc 19aa 34bc 217e 9a3d 27df 32bd
00000010: 90b8 93bd 06a7 193e 31be 413c a802 0fbd
00000020: 578a a9bd 334a 123e 0ddc 06be 00e6 b4bd
00000030: 6c12 97bd afe0 9b3d 717f ea3b 7c48 e4bd
00000040: 8bc1 1ebb 9249 8fbd 85e5 e13c 1b7c af3d
00000050: fdeb 0d3d d068 0cbe 138d 70bd d925 e8bb
00000060: d760 a2bd 473f 373d 779f 77bd 42e1 013d
00000070: cdae 8c3b b158 1dbe 35e4 0e3c fbf8 81bd
00000080: 3bff 83bd d92e b93d 6941 b63c c70a 093d
00000090: 6f27 113e cd8c 5b38 2d2e ea3c 1d1c 823d
000000a0: 344e a33c 83a0 8f3d dd53 263e 7896 c63d
000000b0: e897 c7bd e662 adbb 12b8 603d 9803 193d
000000c0: 69df 533d 016c 29bc d4b3 a6bd 082d 9dbc
000000d0: cff7 8dbb add3 93bc f44c e63c f2bc 913d
000000e0: cd03 ac3c 21f1 91bd 08db 823d 724a fe3d
000000f0: e0c2 183d 659c ccbd 9d0e cf3d ca29 6cbd
00000100: 2123 ab3d 3e8e 2eb6 2b49 403e a6d2 71bd
00000110: 76fe c5bd 6b97 853d 5776 65bd 532c 4bbd
00000120: 72d8 87bd 1d35 b4bd c6c1 38bb 116d fcbb
00000130: 4c13 13be 909b 053b 1e8f f0bb e76f 24bc
-0.021280132 -0.011026883 0.075435884 -0.043669846 -0.07212937 0.1500512 0.01182513 -0.034914643
-0.08278339 0.14286117 -0.1316988 -0.088329315 -0.073765606 0.07611214 0.0071563055 -0.11146638
-0.0024224247 -0.06996454 0.027575264 0.08568593 0.034648884 -0.13711858 -0.05872829 -0.00708459
-0.07928627 0.04473808 -0.060454812 0.031708963 0.004293299 -0.15365864 0.008721401 -0.063463174
-0.06445166 0.090421386 0.022247987 0.033457544 0.14175199 5.23448e-05 0.028586471 0.063530184
0.019934751 0.07013037 0.16242929 0.096966684 -0.09745771 -0.0052913306 0.054863043 0.037356943
0.051726732 -0.010340692 -0.08139768 -0.019186512 -0.0043325196 -0.01804527 0.028112866 0.071161166
0.020997906 -0.0712607 0.06389433 0.12416543 0.037295222 -0.099907674 0.10110209 -0.05765704
0.0835631 -2.6010816e-06 0.18777911 -0.05903878 -0.09667675 0.06523021 -0.05602106 -0.049602818
-0.066330805 -0.08799193 -0.002819167 -0.0077034314 -0.1436283 0.0020386912 -0.0073412796 -0.010036445

linear3.weight f4 [2, 80]
00000000: 52a3 e8bc 6718 27bc f6ef 113d c624 b63d
00000010: 40fc db3d f7c6 c33d be40 6b3d 8ac5 ae3b
00000020: 2640 92bd 870a 963d 5cbc 9dbd 21d5 12bd
00000030: e868 b03d 303c 5a3d ab53 683d 790b c1bd
00000040: b249 a2bd 8fb6 81bd 658d 993c 3185 c9b9
00000050: c67f 953d f357 69bd 787f 9fbd 5576 2ebd
00000060: ceb4 28bd 9e2e db3d 8a0d 90bc 2b81 c9bd
00000070: 6fe3 97ba 020f 3d3d 3226 84bd 3e94 5fbc
00000080: 00d4 abbd ec39 c1bd 85ee 5a3d 68fe 9c3d
00000090: 8b0f 9b3d 4994 8cbb ab65 cd3d 926f c13c
000000a0: a9a8 6fbb a18f 943c 2784 693c 03d9 213d
000000b0: 1430 4abd 6a71 9a3d b33a 583d 0181 b53c
000000c0: 9f72 383d 646f a3bd a76b 893d ec11 873b
000000d0: e58a 7ebb 18e4 61bd 2534 9cbd 071a 8e3c
000000e0: cc52 153d 3ca3 533d 1b21 843d 30ce ab3d
000000f0: 88d3 c2bd 7c9b 1e3d eb72 ca3d 7089 23bd
00000100: dfcc 9ebc 7c30 3c3d a8db a13d a6c3 2dbd
00000110: e8c6 8ebd 2c7b 833b 6e34 6abd 156c 0c3d
00000120: 860c b43d 554d 3bbd d420 8fbc 058b f7bc
00000130: 0ba3 ff3c 7de2 ba3d ee51 83ba c653 f83c
00000140: 4fe7 c13c f225 8fbc d19d 8f3d 011f c7bd
00000150: 646d adbd c4c0 1b3b 7bdf bcbb 446e c63d
00000160: 0c91 d9bd b137 6ebd 6a7c bc3c bcda c33d
00000170: ae85 5abd 5a3e 53bd 6bbd c13c 667a ae3d
00000180: f2fb 063d 1a71 5d3d f1a3 9f3c e4bf 5bbd
00000190: 5cc4 92bd 0467 833d 2d32 ae3d cde5 d93d
000001a0: 4757 1f3d efc4 783d e20b 323d 7e9d 32bd
000001b0: 24a6 093c cf6e b13d b531 2ebb fb5a 243d
000001c0: de13 19bd 4e08 d03b 5612 b9bd 70ac 3dbd
000001d0: bb61 36bd b4bc 8d3c 4a73 89bd ccf5 ddbc
000001e0: 0080 d93a d62f 363d 022f 0dbd 2abb dbbd
000001f0: 30ae 863d 158f c5bd 2122 b2bd cfaf 2ebd
00000200: 3541 9b3d 6b74 1c3d edcf c73d 5a65 95bd
00000210: dc93 b93d d5a0 9ebd d979 c3bd 7a3a 37bd
00000220: 63d3 d73d 7ed4 953d 4b41 963c 5e90 71bc
00000230: 0c7a 2f3c f856 8dbd 1000 debd ba6e a33d
00000240: 2398 a9bd 98b6 9abd 6d9f debd 4a2a ce3d
00000250: b38b d7bd 2cd8 4ebd bf88 dbbc f084 ad3d
00000260: 13c5 92bd 4d19 babc fb7e 813d 1b74 d9bb
00000270: 3e66 883d fc7f fa3c 04cf 3fbd a332 593d
-0.02839819 -0.010198689 0.035629235 0.08893733 0.10741472 0.09559434 0.05743479 0.005333607
-0.071411416 0.07326227 -0.07701942 -0.035847787 0.08613759 0.053280056 0.056720417 -0.09426016
-0.079242125 -0.063336484 0.01874418 -0.00038436943 0.072997615 -0.05696864 -0.077879846 -0.04259332
-0.041188054 0.10702251 -0.01758458 -0.0983909 -0.0011588166 0.04615689 -0.06452598 -0.013646184
-0.08390045 -0.09434876 0.053450126 0.07665712 0.07571324 -0.004290138 0.10029157 0.023612771
-0.0036569035 0.018134894 0.014252699 0.0395136 -0.049362257 0.07541163 0.052790355 0.02215624
0.045031186 -0.079802305 0.06709986 0.0041220095 -0.0038840112 -0.055149168 -0.07627133 0.017346395
0.036455914 0.051669344 0.06451627 0.083889365 -0.09513003 0.0387225 0.098852 -0.039925992
-0.0193848 0.045944676 0.07903224 -0.042422913 -0.06971532 0.004012486 -0.057178907 0.034282763
0.08791451 -0.045728046 -0.017471708 -0.030217657 0.031205675 0.091252305 -0.0010018924 0.030313384
0.023669867 -0.017474148 0.07012523 -0.097227104 -0.0846813 0.002376602 -0.0057639456 0.09689
-0.106233686 -0.05815858 0.023008544 0.09563205 -0.053350143 -0.051573135 0.023649892 0.085194394
0.032955118 0.05406294 0.019487353 -0.053649798 -0.07166359 0.06416133 0.08505664 0.10639534
0.038901594 0.060734686 0.043468364 -0.043607228 0.008401427 0.08663713 -0.002657992 0.04012583
-0.037372462 0.0063486462 -0.090367004 -0.046307027 -0.044526797 0.017301895 -0.06711443 -0.027094744
0.0016593933 0.044479214 -0.03446866 -0.10729058 0.065761924 -0.09646431 -0.08697916 -0.042648133
0.07580797 0.038196962 0.097564556 -0.07294722 0.09061405 -0.0774552 -0.09544725 -0.044733502
0.10538366 0.0731592 0.018341681 -0.0147438925 0.010710251 -0.069013536 -0.10839856 0.07980104
-0.08280971 -0.07554358 -0.10870252 0.1006666 -0.105246924 -0.050499126 -0.026798604 0.084726214
-0.07166495 -0.022717142 0.06323048 -0.0066361553 0.06660126 0.030578606 -0.046828285 0.053026807

linear3.bias f4 [2]
00000000: ea54 23bb d6df 21be
-0.002492244 -0.15808043
