checkpoints/origin/2020-11-16T14-26-21-16-classify/classify_fold0_origin_0.927692.pth (torch, 38373 bytes, 6 tensors)

linear1.weight f4 [100, 6]
00000000: b745 5f3e 6f27 9dbe 9c49 b2be 354c 21be
00000010: 609c b63e 61f5 263e 212f c53e 317e 973e
00000020: 7a5d 30bb dc7f 77be f4f1 9d3e e750 5a3e
00000030: b3ba 643b 8859 153e f32c 403e 400e b63e
00000040: c6f4 1dbd b410 d23d c1d2 a6be 083f 1dbe
00000050: df34 0dbe 07e4 013c 75e3 be3e 2697 2fbe
00000060: 4ee5 cabd 8899 a23d d35d e3bd 83e7 cc3e
00000070: b6b5 243e 4975 75be e088 e1bd 9417 3bbe
00000080: ec55 8abe 5056 593e be38 b6be 4ac9 25be
00000090: a0ef 53be 26ca 8dbd 3e3d 07be 0121 693e
000000a0: af78 02bd b9e2 5a3e 0f4a 213e 0a02 e83d
000000b0: e56c 71be 2016 f93d 1939 893e af50 8f3e
000000c0: fcb4 17be 697a d13e 568c 1bbe 856b 11be
000000d0: ccbb 873e 48ab 8c3e 3670 79bb 08fe 923d
000000e0: 4d55 703d 0778 993e e63c cb3d 19b7 563e
000000f0: e8ca 093e b58c 5f3e d0a4 82be e884 9a3e
00000100: a5e5 1abe 8f37 a23e 9b88 cabe 8a11 c53d
00000110: 3d64 df3c c7d5 d03d 24de 2abd 7b50 35be
00000120: f473 dc3e ff88 de3d 9527 36be efa5 04be
00000130: 659b 403e 0ac1 e43d 103b 8f3d 2dbe e0bd
00000140: 0aea c63c a1bf a33d 98cb 80be 328f cbbe
00000150: bdc5 90be b741 a73d 3315 6b3e d3f8 4a3d
00000160: bd0b b83e da9a 3e3e 26f4 9c3e 8a06 8dbe
00000170: 2cfe ec3d 69b0 663e c537 dc3e 45df 533d
00000180: 2247 cf3d d879 0b3e f3ee a6bd f8df 3abe
00000190: 1d6b 903e cbed a23e f969 39be 8270 b33e
000001a0: a46e 8bbe 5dc1 e53d 7eae 05bd a47b 66bd
000001b0: a725 27be 61d9 aebe d8de e7bd c7eb 3b3e
000001c0: 59dd 88bd 4374 c4be 82bf 89bd f9a3 773e
000001d0: 89a5 8a3e 4949 b23e 766b 4fbe 1c2a ec3d
000001e0: adb2 9bbd 4605 45be 22d3 9f3e e1d6 60bd
000001f0: 6fd0 c9be b931 34be 7c24 943e 5ef3 733d
00000200: 3e48 c8be 284d cabe 9d69 0a3e 0ce7 60be
00000210: 2eed 463e 5bb9 03be 1a7c 90be 5f76 9ebe
00000220: da40 a03d d640 d23c 9830 943b 187c 2cbd
00000230: 7e02 c83e 2064 5dbd f7c1 a0bd ca4d 913e
00000240: 5f70 9a3c fb7c b9be 9698 b93e 6c8d 81be
00000250: b420 81bd 2905 143d 69bf 16be 8a45 bf3e
00000260: 723d c53e 056a adbd 37c0 373d 2aad 54be
00000270: 8641 fbbd 18d2 84be c5f0 373e 69f3 c33e
00000280: 11aa fdbd cafc 0ebe fee2 f9bd 3165 503e
00000290: c751 c03e fdc4 a63e e505 a73e 50ae c7be
000002a0: 3820 a83e 3cee 20be 0707 c93e 3234 c93e
000002b0: 4704 223e 1abe 323e 9d53 4ebe b95f 1a3e
000002c0: 4b8b 08be e465 c4be ce25 f0bd bec8 7bbd
000002d0: 55cc 993e cb5d ac3e 081e c8bd 684b 563e
000002e0: 7521 953e 1141 c33e e89b 82be 9b59 84bd
000002f0: 07a3 db3d 299b b6be 12a4 4bbe 0863 a1be
00000300: 3f4f a6bd dd09 b13d be61 39be 2170 31be
00000310: 866c 193e 2155 f3bd 28aa 39bd 395d 163d
00000320: d633 24be 22c6 30be a092 c6be 0651 4e3e
00000330: e274 b73d 2da1 553e a572 383d 4457 8c3e
00000340: 795b 04be 1f98 d1be 9619 5dbc 3a59 d2bd
00000350: ac43 aabe 6dc7 b3be 7435 2e3e 2f03 adbe
00000360: 8015 2cbe 8d23 6fbe d4d1 cabe 5816 153e
00000370: 7d3f c7be 98df c83e e296 73be d1d8 173e
00000380: 0127 23be ee9b b23e dab5 b53b 4f32 bc3e
00000390: 6463 393e ee71 9ebe 6042 14be a397 a1be
000003a0: fd7b 4c3c 981d 5ebe 3c81 e63c 5e03 043e
000003b0: 6a3c de3d 9612 c53e cf3c 123e 7977 2b3e
000003c0: d28b 253d 59ca c83e cc10 99be eeaa 83be
000003d0: 8e66 83be ee4d 70bd 7863 b1be a151 93be
000003e0: 26d3 c2be 46e0 b03d cc32 f83d dbc3 253e
000003f0: 8389 bcbe 0cb4 733d 0b03 99bd 7381 b33c
0.21803938 -0.30694148 -0.34821784 -0.15751727 0.3566618 0.16304542 0.3851252 0.29588464
-0.0026911185 -0.24169868 0.30848658 0.21319924 0.003490132 0.14584935 0.18767147 0.35557747
-0.038563512 0.10257092 -0.32582667 -0.15356076 -0.137897 0.007927901 0.3728291 -0.17147502
-0.09907018 0.0793944 -0.1110188 0.4002038 0.16084942 -0.23970522 -0.11012435 -0.18270713
-0.27018678 0.21224332 -0.35590166 -0.16190067 -0.20696878 -0.069233224 -0.13206956 0.22766496
-0.031853374 0.2137555 0.15750907 0.11328514 -0.23576696 0.12162423 0.26801375 0.27991244
-0.14815134 0.40913704 -0.15190253 -0.14201172 0.26510465 0.27474427 -0.0038061268 0.07177359
0.0586751 0.29974386 0.09923725 0.20968284 0.13456309 0.21831019 -0.25516367 0.30179524
-0.15126665 0.31683013 -0.39557347 0.09622486 0.027269477 0.10197025 -0.041715756 -0.17706482
0.43057215 0.10865974 -0.17788537 -0.12953924 0.18809278 0.11169632 0.06993687 -0.10973773
0.02428152 0.07995535 -0.2515533 -0.39757687 -0.28275862 0.08166831 0.22957306 0.049553704
0.35946456 0.18613759 0.3065502 -0.2754405 0.11571917 0.22528233 0.430113 0.0517266
0.101209894 0.13620698 -0.08151045 -0.182495 0.2820672 0.31822047 -0.18106832 0.35046774
-0.2723285 0.11218522 -0.03263711 -0.056270257 -0.16322957 -0.34150222 -0.11321801 0.1835166
-0.06682844 -0.3836995 -0.0672598 0.24183644 0.27079418 0.34821537 -0.20255837 0.11531469
-0.07602439 -0.19240293 0.3121577 -0.054892424 -0.39416835 -0.17597093 0.28934085 0.059558265
-0.39117616 -0.3951199 0.13516851 -0.21963137 0.19426414 -0.12863676 -0.28219682 -0.30949685
0.078248695 0.025665682 0.0045223944 -0.042110533 0.390644 -0.054050565 -0.07849496 0.2837966
0.01885241 -0.36228165 0.36249226 -0.2530321 -0.06305066 0.036137734 -0.14721455 0.37357742
0.38523442 -0.08467487 0.044861045 -0.20769182 -0.12268357 -0.2594154 0.1796294 0.38271645
-0.12385953 -0.13963619 -0.122014984 0.20351101 0.3756239 0.32572165 0.32621685 -0.39000177
0.3283708 -0.15715879 0.39263174 0.39297634 0.15821944 0.1745533 -0.20149083 0.15075578
-0.13334386 -0.38358986 -0.11725961 -0.06147074 0.30038705 0.33665308 -0.09771353 0.20927203
0.29127088 0.3813558 -0.25509572 -0.064624034 0.107244544 -0.35665253 -0.19886807 -0.31520867
-0.08120584 0.086444594 -0.18103692 -0.1732793 0.14982805 -0.118814714 -0.04532829 0.036709998
-0.16035399 -0.17263082 -0.3878374 0.20148095 0.089578405 0.20862265 0.04503121 0.27410328
-0.12925519 -0.40936372 -0.01349487 -0.10270925 -0.33254755 -0.35113087 0.17012578 -0.3379149
-0.16805077 -0.23353405 -0.3961321 0.14559305 -0.38915625 0.39233088 -0.23788026 0.14828803
-0.15932848 0.3488459 0.00554536 0.36757132 0.18104321 -0.30946296 -0.14478445 -0.31561002
0.012480733 -0.21690977 0.028137796 0.1289191 0.10851367 0.38490742 0.14281009 0.16744794
0.040416546 0.3921688 -0.29895627 -0.25716347 -0.2566418 -0.05866807 -0.346462 -0.28773215
-0.38051718 0.08636527 0.12119064 0.16187994 -0.36823663 0.059497878 -0.074712835 0.021912312

linear1.bias f4 [100]
00000000: 97f4 96be 7b2b 85be b118 a43d 643d b6bc
00000010: 445a 553e 35aa dd3d 7a22 c3be 636f 32ba
00000020: bb9e b2bc bff3 6abd 187d 103d a09a bdbe
00000030: b546 263e 9836 aa3e 2cdf 54be 389d b2be
00000040: 1b35 913e 6d77 67be 4bcd 743e 7d67 603e
00000050: 10b3 18be 2ae3 723d 802f 9fbe 53ef b2be
00000060: 1088 85be 0d78 2bbe dbb8 33bd 75cd 89be
00000070: 8531 223e cb8d bf3d 9ce6 29be ee13 b73e
00000080: 71d2 813e 5662 cb3e 3fbf ef3d 8266 953e
00000090: fa22 1d3e 4c0b 27bd c101 8fbe 99ce c1be
000000a0: bbcd 08be ae73 2cbe f1df 62be 6c26 b6bd
000000b0: 4e6e a7be 36a7 87be 9566 ac3d 5daa 89bd
000000c0: 6c3c 82bd e254 49be 04cc 8ebe 2a3f c0be
000000d0: 412a 183e a3d9 0d3d 31dd 0e3d 2b6d 9dbc
000000e0: f587 853c 1cdc 99be 8471 173e 47cc 813e
000000f0: afab fa3d 8ec2 8dbe 4070 a6bc de62 c73d
00000100: 0d92 c93e 000a 413e 0d31 173e cf3c ce3e
00000110: c04a f53d 8f39 453c 6528 babe dc83 b0be
00000120: d167 f93d cf1d 16be 90cd 063e 3e55 93be
00000130: fa98 b93d 3a2a 12bd b487 ef3d 320d b03e
00000140: 6efc f43c 07f1 793e 0c11 4b3e 576a c2be
00000150: 884d 8cbe 3fb1 063e ae43 b03e a565 e8bd
00000160: 251d 87bc cb9d 2b3e d14c bb3e 1899 5a3e
00000170: 2617 6bbd 348c 08bd ccdb 38be 0fb7 f73d
00000180: 6471 9dbe 661a 743e 4cf0 a9be f1a4 2e3d
-0.29483482 -0.26009735 0.08012522 -0.02224607 0.20835215 0.1082348 -0.3811224 -0.0006806759
-0.021804204 -0.05736136 0.03527555 -0.37032032 0.1623791 0.33244777 -0.20788258 -0.34885573
0.2836083 -0.22604151 0.23906438 0.21914478 -0.14912057 0.05929867 -0.31090927 -0.34948215
-0.2608037 -0.16745014 -0.043877464 -0.26914564 0.15839203 0.09353217 -0.16591877 0.35757393
0.25355867 0.39723462 0.11706399 0.2917977 0.15345374 -0.040782258 -0.27931026 -0.37852934
-0.1335973 -0.16841003 -0.2215574 -0.08894047 -0.32701343 -0.2649476 0.084180035 -0.06721947
-0.06359181 -0.19661286 -0.27890027 -0.3754819 0.14859869 0.034631383 0.034878913 -0.019217094
0.01630018 -0.30050743 0.14789397 0.25351164 0.12239777 -0.27687496 -0.020317197 0.09735654
0.3936924 0.18851471 0.14764805 0.40280768 0.11977148 0.012037649 -0.36358944 -0.344756
0.121780045 -0.14659809 0.13164353 -0.28775972 0.09062381 -0.0356848 0.11695805 0.34385067
0.029905524 0.24408351 0.19830722 -0.37971756 -0.27402902 0.13153552 0.34426636 -0.11347512
-0.01649339 0.16759412 0.36582044 0.21347463 -0.057395123 -0.033336833 -0.18052596 0.120954625
-0.30750573 0.23838195 -0.33191144 0.04263777

linear2.weight f4 [80, 100]
00000000: 128e 963c 51b4 0fbd e967 cd3c 903c 013d
00000010: 5082 463d 8062 533d 3767 0f3d baec 6b3d
00000020: 3331 5cbc 7045 363c 8a04 50bd cdb0 bb3b
00000030: 71bd 93bd b1bd 943c aa4f 1b3d 66d1 303d
00000040: 5388 fb3b 7382 78bd 63f9 173d 677a 98bd
00000050: 3a6b 963d 3015 3dbd 747e 2b3c 446a 4abc
00000060: 66ff b43c 85b9 d0bc cdad 4ebc c1ed afbd
00000070: b1f0 d63c edb2 6a3d c974 20bd ba2f d9bc
00000080: a7aa a2bd 8de1 ca3c fdfc 493c 52fa 97bd
00000090: 2313 9abd adb8 903c 0708 b9bd a80c cabd
000000a0: d3cc 653d 3af2 8bbd 4703 e6bc 208d 51bd
000000b0: f229 47bb c25f 903d df89 90bd 971c 763d
000000c0: ce14 a8bd f633 973d d0f8 af3d 3a39 143d
000000d0: 9feb 643d 0805 88bd 6fe1 9cbd 3db7 413d
000000e0: 3d5a 48bd 1153 79bd 6d9f ad3d 2c0d b9bc
000000f0: 10ab 133d 1276 fa3b 6851 cbbd 1a5e e13c
00000100: 6f63 c93c d82a 99bd 8dd7 613c 37f1 b83c
00000110: 6811 3ebd ad09 f53c 979b 3c3d 0a1c 92bd
00000120: a75e cb3c 0eda 9b3a 73fd 793c db93 afbd
00000130: 0587 563d 009d 723b 7345 93bd 55fb 86bd
00000140: 42dd bd3d d3a5 c6bd d5a2 883d c549 593c
00000150: 4019 08bd c0a7 6cbd a503 80bd 4266 873d
00000160: 20bb 8a3c fafb d3bc 66df 71bd 1a5c 7dbd
00000170: 7aab c2bd a68e 163d 2726 473c 4341 a6bc
00000180: 32c8 ca39 fde2 a4bd 9aee 23bb 454d c7bd
00000190: 9ca5 753d b486 87bd 0503 e93c 6780 b63d
000001a0: e798 5b3d 2783 0cbc da34 633d 0478 89bc
000001b0: 7178 683c a765 2ebd be1e a63d eb08 033c
000001c0: e9d3 7e3c a27e 45bd af0b c23d cf12 9a3d
000001d0: d42f bb3d 4687 a9bd 0dca 80bc 03cf 2f3d
000001e0: f4bb 6f3d 83c3 89bd 8804 9e3d 0101 0a3d
000001f0: 19bc 6f3d 72ba b7bc 4b60 573d d764 c1bc
00000200: b083 38bd f87a 9fbd 1830 d73d 8328 98bd
00000210: b8d4 a5bd f56f b4bd 83b2 423d 5d9c 993d
00000220: 000a a3bd 6308 b73d 93d4 8abd 9d5d 43bd
00000230: e10c 69bd 1257 afbd d82d b73d c217 be3d
00000240: f348 dd3c 4b5c fb3c dba4 593d 80e5 743c
00000250: cb02 ac3d f7cc f739 4d06 a9bc 9691 88bd
00000260: 482d 84bd 8740 ccbd 7271 803d 7e36 28bc
00000270: d275 9d3d 0b72 0cbd 6011 a83d c989 55bd
00000280: db83 313d 0b90 d43d 71b3 833d 572f 9bbc
00000290: 2da0 3a3d 0b12 c6ba a7c6 94bc 3343 bfbc
000002a0: 2515 38bd 9f8f 423d fad9 293d fcc4 88bd
000002b0: 6740 6b3c 393d 1c3d 60e2 8ebc d1ea 923b
000002c0: b543 763c 1ba4 183d f5db 203d 2f4a babd
000002d0: 2d54 523d 4b33 bebc de40 80bd 9d2a 573d
000002e0: 958e aabd fb83 babd d259 f7bc 0daf b6bd
000002f0: eada b6bd 5b58 c2bd fe08 b1bd 2ccb 98bd
00000300: a73c 8dbc 729d a03a 89c0 f5bb fda8 713c
00000310: 01c2 a9bd 3666 e63c bdc3 77bd 3213 7a3c
00000320: f2a2 92bd a070 7dbc 2b88 7c3d 8043 02bc
00000330: 4ddd 46bd 8064 8abc 10ff c53d 2b5f a4bd
00000340: ffb2 bebd afd9 dbbc 2a0d 8b3d ed05 9c3d
00000350: 5573 9bbd 0ff6 a7bd b970 b1bd fae5 8dbd
00000360: f341 07bc 1304 a03c 4010 a43d 8854 943c
00000370: 6c5d 75bd 12fa 8fbd cdde 8d3b a2de 853d
00000380: b5f7 a73d b2e6 f73c 17f7 07bc b861 92bd
00000390: 8790 c2bc 80a7 bb3d c5e5 8bbc 3cdc 78bd
000003a0: bdf7 63bd 4035 063d 3a04 113d 809e 123d
000003b0: 6752 54bb 68b9 a03d 9fad 843d dd8a 20bd
000003c0: a020 abbc 2235 8b3d da41 81bc 956f 3a3d
000003d0: b110 6dbc 6f4d babd 56cd 86bd 01ef 5c3d
000003e0: 5f47 833d fde4 763d fa92 c43c 9af9 eebc
000003f0: a382 94bd 22d8 99bd cb52 48bd 5e0c 90bd
0.018378291 -0.035084073 0.025073962 0.031551898 0.04846412 0.05160761 0.035010543 0.057598807
-0.013439464 0.011124954 -0.05078558 0.0057278634 -0.072138675 0.018156858 0.03791777 0.043168448
0.007676163 -0.06067128 0.037103068 -0.074452214 0.073446706 -0.046162784 0.0104671605 -0.012354437
0.02209444 -0.025479088 -0.0126146795 -0.0859027 0.026237817 0.057299543 -0.039173875 -0.026512016
-0.079427056 0.024765754 0.0123283835 -0.07420792 -0.07523181 0.017666185 -0.09034734 -0.09865695
0.05610354 -0.068333104 -0.028077735 -0.051159978 -0.0030389992 0.07049514 -0.07057547 0.06008586
-0.08207093 0.07382958 0.08592379 0.036187388 0.05588877 -0.06641585 -0.076601855 0.04729389
-0.048914183 -0.060870234 0.08477674 -0.022589289 0.03605181 0.0076434696 -0.099276364 0.027510691
0.024583546 -0.07478875 0.0137843015 0.022575958 -0.04640332 0.02991184 0.04604682 -0.07134254
0.024825407 0.0011890547 0.015258181 -0.08573123 0.05237486 0.0037019849 -0.07190981 -0.065909065
0.09270717 -0.09699597 0.06671683 0.013262217 -0.033227205 -0.057777166 -0.06250695 0.06611301
0.016934931 -0.025876988 -0.05905094 -0.061855413 -0.09505363 0.036757134 0.012155092 -0.020294791
0.000386776 -0.08051107 -0.0025014044 -0.09731535 0.05997239 -0.066174895 0.028443823 0.089112096
0.053612616 -0.008576191 0.055470325 -0.01678086 0.014188872 -0.042577412 0.08111332 0.007997732
0.015553453 -0.04821647 0.09474885 0.07523119 0.09139982 -0.082777545 -0.015721345 0.04292203
0.058528855 -0.06726744 0.07715708 0.033692364 0.058528993 -0.022427771 0.052582067 -0.023607654
-0.045047462 -0.07787126 0.1050722 -0.07429602 -0.080972135 -0.088104166 0.047533523 0.07500527
-0.07960892 0.089371465 -0.067788266 -0.0476967 -0.056897048 -0.08561529 0.08944291 0.09281875
0.027012324 0.030683657 0.053135734 0.014947295 0.0839897 0.00047264222 -0.020632887 -0.06668393
-0.06453949 -0.09973245 0.06271638 -0.010266898 0.07688488 -0.034288447 0.08206439 -0.052133355
0.043338638 0.103790365 0.0643071 -0.018943472 0.04556291 -0.0015111578 -0.018161131 -0.023347473
-0.04494204 0.04750025 0.041467644 -0.06678197 0.014358616 0.038144324 -0.017441928 0.0044835587
0.015030791 0.03726588 0.039272267 -0.09096181 0.051349808 -0.023217818 -0.062623724 0.052530874
-0.083279766 -0.091072045 -0.030194197 -0.08920107 -0.08928473 -0.09489509 -0.08644293 -0.07460627
-0.017240835 0.0012253954 -0.0074997586 0.014749763 -0.082889564 0.02812491 -0.060489405 0.015263366
-0.071599856 -0.015468746 0.061653297 -0.007950664 -0.048550893 -0.016893625 0.0966779 -0.08025964
-0.093114845 -0.026837198 0.0678962 0.07618318 -0.07590357 -0.08201229 -0.08664078 -0.0692863
-0.00825547 0.019533193 0.08010912 0.018106714 -0.059903547 -0.07030119 0.0043295384 0.065366045
0.08201543 0.030261371 -0.008298657 -0.071475446 -0.023750557 0.091628075 -0.017077336 -0.060756907
-0.055656184 0.032765627 0.03540442 0.03579569 -0.0032397748 0.078478634 0.06478428 -0.03919493
-0.02088958 0.06797244 -0.01577847 0.04551657 -0.014469312 -0.090968005 -0.065821335 0.05393887
0.06410097 0.060276974 0.023995865 -0.029171754 -0.072514795 -0.07511927 -0.048907083 -0.07033609

linear2.bias f4 [80]
00000000: 001d a8bc cb19 17bd 64ea 9a3d 27df 32bd
00000010: aa04 9fbd 2c3d e03d deb5 39bd a2d5 0cbd
00000020: 8978 95bd f3aa a73d c12a 9abd be22 b4bd
00000030: 20a6 96bd afe0 9b3d 615c 573b ca38 3ebd
00000040: af6e 7c3d 9249 8fbd cb32 073d 4686 063d
00000050: d1f5 183c e5d2 7fbd dcb7 b93a 4b97 5b3d
00000060: d44f a2bc 473f 373d 779f 77bd bf1f 033d
00000070: cdae 8c3b 0e15 e9bd 6a39 213c 9d6c 16ba
00000080: d166 80bd 6cb4 b93d ad95 37bd c70a 093d
00000090: 880d ad3d cd8c 5b38 a365 51bd d047 833d
000000a0: aef5 533d 83a0 8f3d 25a0 d63d d127 863d
000000b0: c5f3 f7bc 03c9 97bd 28d1 9cbb a933 25bd
000000c0: 3f91 4f3d 363f 25bc 577c aabd 8a9b 99bd
000000d0: fbac 54bb 4980 2ebd e53e 203c 3a07 8a3c
000000e0: cd03 ac3c 1648 91bd 5194 0d3d 2b10 893d
000000f0: e0c2 183d 659c ccbd 94e2 273d bb03 063c
00000100: 1db3 153d 2b84 cdbc 9741 f63d b82b b43b
00000110: 004a acbd e5fd 393c 5776 65bd c98c d0bc
00000120: 72d8 87bd 1d35 b4bd 74b9 673d e0c3 313d
00000130: f730 d4bd b136 42bd 2be1 6dbd e76f 24bc
-0.02052164 -0.036889832 0.07564238 -0.043669846 -0.077645615 0.109491676 -0.045339458 -0.034383424
-0.07298381 0.08186903 -0.07527686 -0.08795689 -0.073559046 0.07611214 0.0032861459 -0.046440877
0.061628994 -0.06996454 0.033007424 0.032842897 0.009335951 -0.062456984 0.0014169174 0.05361108
-0.019813456 0.04473808 -0.060454812 0.032012697 0.004293299 -0.11380969 0.009840349 -0.00057382305
-0.06269611 0.09067616 -0.044820476 0.033457544 0.084498465 5.23448e-05 -0.05112232 0.064101815
0.05174797 0.07013037 0.10479764 0.06550563 -0.030267606 -0.07411387 -0.0047856756 -0.04033247
0.050675627 -0.010085871 -0.08324497 -0.0750037 -0.0032451737 -0.04260281 0.00978062 0.016849149
0.020997906 -0.070938274 0.034565274 0.06692537 0.037295222 -0.099907674 0.040987566 0.0081796
0.03654777 -0.025087437 0.12024229 0.0054983757 -0.08412552 0.011352037 -0.05602106 -0.025457757
-0.066330805 -0.08799193 0.056573346 0.04339969 -0.10360902 -0.04741544 -0.058076065 -0.010036445

linear3.weight f4 [2, 80]
00000000: 2599 eebc 34d7 28bc 98c8 123d c624 b63d
00000010: 3bac aa3d e7de a73d 0233 7b3d 924b b43b
00000020: 09fa a7bd c795 8f3d a7ec b4bd 345f 14bd
00000030: 34d5 b03d 303c 5a3d 048d 663d 559d bdbd
00000040: 863e a3bd 8fb6 81bd fcaf d93c 3cba 82bb
00000050: 8ddf 8d3d c6d8 27bd b59d a2bd 17e9 23bd
00000060: b669 3dbd 9e2e db3d 8a0d 90bc ac1a cabd
00000070: 6fe3 97ba cc1a 4a3d c9c3 84bd b907 6cbc
00000080: ace0 adbd 7fbf c1bd 2cca 0a3d 68fe 9c3d
00000090: 6993 9b3d 4994 8cbb f4a0 b33d a4c4 c53c
000000a0: 5433 fbbb a18f 943c 9d0a 3b3c bdff e03c
000000b0: 108e 26bd 2948 983d 2b41 483d 503b f23b
000000c0: 91ed 3b3d f1f4 a3bd 62cd 873d 8e7d 0eba
000000d0: dbde 91bb cc85 69bd 9aa1 99bd 7cd0 9d3c
000000e0: cc52 153d aec9 513d e797 983d 3c4a b03d
000000f0: 88d3 c2bd 7c9b 1e3d 9643 be3d dc89 00bd
00000100: 61f2 8fbc 10d8 a63c 4d75 863d f0c3 02bd
00000110: 0eac aabd 0e15 5fbb 6e34 6abd 2d65 3b3d
00000120: 860c b43d 554d 3bbd 0079 85bc d7d8 25bd
00000130: 7a68 3a3d 3703 bb3d c39e 36bb c653 f83c
00000140: 5795 c53c 1561 c9bc ca9d 8f3d 011f c7bd
00000150: 87a8 a4bd 091c 253d 4fba 993b 5926 c73d
00000160: dbde dbbd a239 61bd f322 e33c a298 c43d
00000170: cf85 5abd 5a3e 53bd fbc7 c63c f760 a03d
00000180: b960 df3c 1a71 5d3d 33be d33c 334f 6ebd
00000190: 928d 95bd 4457 493d c6d6 b13d c1a0 d63d
000001a0: 2100 2d3d efc4 783d e20b 323d 5a71 31bd
000001b0: 24a6 093c 4abc bc3d f296 59bb 0089 373d
000001c0: 2d25 19bd d961 d83b 0430 a1bd 70ac 3dbd
000001d0: 3557 2abd b4bc 8d3c 60a6 22bd f57f e5bc
000001e0: 3886 d1ba d62f 363d 0b99 0ebd 0238 debd
000001f0: 9aaf 6f3d cdef ccbd 4e17 aebd 2922 2bbd
00000200: fe9e 9a3d 8d7f 1d3d dc91 c93d bf60 97bd
00000210: f4ec ba3d 7940 b8bd 630b e0bd 6349 4dbd
00000220: 63d3 d73d 6e70 963d 452f 983c 474d 6dbc
00000230: 0c7a 2f3c f856 8dbd 622a d1bd 29e6 9a3d
00000240: 2fe2 b9bd a0a6 7abd 131a d2bd 71a0 c63d
00000250: 4f89 bebd d072 51bd bf88 dbbc ed34 ad3d
00000260: 13c5 92bd 4d19 babc f367 833d 3c72 f4bb
00000270: bfd9 923d 7ed8 303d f306 72bd a332 593d
-0.02912576 -0.010305215 0.035835832 0.08893733 0.083336316 0.08196812 0.06132794 0.0055021727
-0.08201987 0.0701099 -0.088342 -0.036223605 0.08634415 0.053280056 0.056286827 -0.09258524
-0.0797091 -0.063336484 0.026573174 -0.003989486 0.069274046 -0.040978216 -0.079402365 -0.040017214
-0.046243392 0.10702251 -0.01758458 -0.098683685 -0.0011588166 0.04934196 -0.064826556 -0.014406138
-0.084901184 -0.09460353 0.033884212 0.07665712 0.07596476 -0.004290138 0.08770934 0.024141617
-0.007666031 0.018134894 0.011416105 0.027465696 -0.040662825 0.074356385 0.048890274 0.0073923245
0.045880858 -0.08005703 0.066309705 -0.0005435579 -0.0044516153 -0.057012364 -0.07501526 0.019264452
0.036455914 0.051217727 0.07450848 0.08607909 -0.09513003 0.0387225 0.09290235 -0.031381473
-0.01757163 0.020366699 0.06565342 -0.03192514 -0.08333598 -0.003403965 -0.057178907 0.045750786
0.08791451 -0.045728046 -0.016293049 -0.040489998 0.045509793 0.091314726 -0.0027865625 0.030313384
0.024119062 -0.024582425 0.07012518 -0.097227104 -0.080399565 0.04030994 0.004691399 0.09724111
-0.10735866 -0.054986604 0.027726626 0.09599425 -0.053350266 -0.051573135 0.02426528 0.078309946
0.0272678 0.05406294 0.02584753 -0.058181 -0.07302393 0.04915549 0.08683543 0.1047988
0.04223645 0.060734686 0.043468364 -0.04332099 0.008401427 0.09215601 -0.0033201543 0.044808388
-0.03738897 0.006603461 -0.078704864 -0.046307027 -0.041587073 0.017301895 -0.03970945 -0.028015116
-0.0015985435 0.044479214 -0.034813922 -0.108505264 0.058517076 -0.10006676 -0.08500539 -0.041780625
0.075498566 0.03845172 0.098422736 -0.073915 0.091272265 -0.08996672 -0.10939672 -0.050118815
0.10538366 0.07345663 0.018577227 -0.014483756 0.010710251 -0.069013536 -0.10213162 0.07563431
-0.09076344 -0.061194062 -0.102588795 0.096985705 -0.09303533 -0.051134884 -0.026798604 0.084573604
-0.07166495 -0.022717142 0.06416311 -0.007459907 0.07170438 0.043175213 -0.05908866 0.053026807

linear3.bias f4 [2]
00000000: 4052 76bd 874a d1bd
-0.060137033 -0.10219293
