checkpoints/origin/2020-11-16T14-26-21-16-classify/classify_fold0_origin_0.955385.pth (torch, 38373 bytes, 6 tensors)

linear1.weight f4 [100, 6]
000000 6f 2b 8f 3e 9e f1 88 be bf da 84 be 61 16 d1 bd
       0.27962825 -0.2674684 -0.2594814 -0.102093466
000010 d5 7d e2 3e c7 39 6b 3e 07 9c bf 3e 9d 32 8d 3e
       0.44236627 0.22971259 0.37423727 0.27577677
000020 c8 d5 a7 bc bc 9a 72 be 36 a2 96 3e 34 36 4c 3e
       -0.020487681 -0.23691839 0.29420632 0.19942552
000030 47 9c 47 3c 3a b4 f6 3d bc d8 31 3e d9 8d 93 3e
       0.0121832555 0.12046094 0.17367834 0.2881916
000040 23 84 0b 3c 78 83 a2 3d c1 d2 a6 be 08 3f 1d be
       0.008515391 0.07935232 -0.32582667 -0.15356076
000050 df 34 0d be 07 e4 01 3c 75 e3 be 3e 26 97 2f be
       -0.137897 0.007927901 0.3728291 -0.17147502
000060 4e e5 ca bd 88 99 a2 3d d3 5d e3 bd 83 e7 cc 3e
       -0.09907018 0.0793944 -0.1110188 0.4002038
000070 b6 b5 24 3e 49 75 75 be e0 88 e1 bd 94 17 3b be
       0.16084942 -0.23970522 -0.11012435 -0.18270713
000080 ec 55 8a be 50 56 59 3e be 38 b6 be 4a c9 25 be
       -0.27018678 0.21224332 -0.35590166 -0.16190067
000090 a0 ef 53 be 26 ca 8d bd 3e 3d 07 be 01 21 69 3e
       -0.20696878 -0.069233224 -0.13206956 0.22766496
0000a0 af 78 02 bd b9 e2 5a 3e d7 f1 25 3e f5 c0 e4 3d
       -0.031853374 0.2137555 0.16205536 0.11169616
0000b0 1b 90 71 be c6 4b e0 3d a3 da 8c 3e e4 50 8c 3e
       -0.23590128 0.10951953 0.27510557 0.27405465
0000c0 c8 27 47 be ca c5 c5 3e 3b ce 42 be a4 92 b7 be
       -0.19448769 0.38627464 -0.19023983 -0.35854065
0000d0 cb 34 85 3e af 4c 29 3e 5f 66 4f bd a9 7f 73 3d
       0.2601684 0.16533159 -0.050634738 0.059447918
0000e0 32 68 14 3d 1c 60 ad 3e 25 c4 aa 3c 3b 6f 49 3e
       0.03623218 0.33862388 0.020845482 0.19671337
0000f0 1d bf 16 3e da 91 7a 3e 4a c9 77 be 38 68 25 3e
       0.14721341 0.244697 -0.2419788 0.16153038
000100 38 9f ad bd 65 b4 79 3e b5 5e de be 6f 5a 86 3d
       -0.08477634 0.24385221 -0.4343163 0.065602176
000110 7d 7b 47 3b df 2b 2c 3e 67 4e d4 bd 50 88 32 be
       0.0030438595 0.1681361 -0.103665166 -0.17434812
000120 76 2c fc 3e 90 29 02 3e c7 12 03 be e5 37 0c be
       0.4925267 0.12711167 -0.12800132 -0.13693197
000130 fd eb 4c 3e e2 b8 46 3e 53 ad 19 3e 21 28 95 be
       0.20011897 0.19406465 0.15007524 -0.29132178
000140 0c e3 6e 3d 64 21 bb 3c c2 44 ff bd 81 fc c6 be
       0.058321998 0.02284307 -0.124642864 -0.3886452
000150 78 f3 a0 be 4b 26 80 3d 5a 46 4f 3e 1f 44 a6 3d
       -0.31435752 0.06257304 0.2024168 0.08118462
000160 f4 94 8f 3e 45 8a 36 3e 7f a7 a9 3e 50 35 c1 be
       0.2804333 0.17826183 0.33135602 -0.37735987
000170 73 0f df 3d d5 23 1d 3e 89 c1 02 3f eb 16 05 3d
       0.108916186 0.153457 0.5107656 0.03249256
000180 05 cb 0a 3e 84 92 0a 3e 94 10 8e bd 19 72 60 be
       0.13554008 0.13532454 -0.06936756 -0.21918525
000190 39 b9 94 3e bd 68 ac 3e 2f 46 19 be 32 ad c2 3e
       0.29047564 0.3367366 -0.14968179 0.38022763
0001a0 8a 37 82 be f8 37 f6 bd c2 d5 40 3d 5e 23 cb bd
       -0.25432998 -0.12022394 0.047078855 -0.09918855
0001b0 a7 25 27 be 61 d9 ae be d8 de e7 bd c7 eb 3b 3e
       -0.16322957 -0.34150222 -0.11321801 0.1835166
0001c0 59 dd 88 bd 43 74 c4 be 86 bd e9 bd 8e 58 54 3e
       -0.06682844 -0.3836995 -0.11413102 0.20736906
0001d0 17 03 59 3e 0a 71 c3 3e 89 dd a3 be 19 4b ae 3d
       0.21192585 0.3817218 -0.32004955 0.085104175
0001e0 a4 0d 0d be 74 d3 52 be 21 1a 79 3e 84 bc e1 bd
       -0.13774735 -0.20588475 0.24326374 -0.110222846
0001f0 5b 71 f2 be 65 a4 6a be ac 9b 95 3e a5 b5 80 3d
       -0.47352108 -0.22914274 0.2922033 0.06284646
000200 b8 15 c6 be 11 4b c9 be 5a d1 0e 3e 6b 82 5d be
       -0.38688445 -0.39315084 0.13947049 -0.21631782
000210 53 2c 8b 3e 56 bb d9 bd 01 f3 4a be 23 a4 90 be
       0.27182254 -0.106314346 -0.19819261 -0.28250226
000220 9a c8 2e 3e 6e e4 97 3d 4c 3b 62 3c b8 22 70 bd
       0.17068711 0.074166164 0.013808083 -0.05862686
000230 0b 9c bf 3e 1a 9a f2 bd d3 a2 82 bc fa e3 83 3e
       0.3742374 -0.11845799 -0.015946781 0.2575987
000240 27 52 ce 3c 53 53 b3 be 2d d7 b1 3e 05 e4 9a be
       0.025185658 -0.3502451 0.3473448 -0.3025209
000250 3c 13 e3 bc 6d 37 a0 3c 7e 2a 37 be 1e f6 bc 3e
       -0.027719133 0.01955768 -0.17887303 0.36906523
000260 9b 67 bd 3e 8b 72 15 bd a0 e4 32 bd 7e 75 51 be
       0.36993107 -0.03648619 -0.043675065 -0.20454976
000270 06 50 dc bd e7 be b4 be 7d 05 29 3e 3f 40 a0 3e
       -0.10757451 -0.35301897 0.16506 0.31299016
000280 c1 41 55 bd 01 2a 28 be f1 3d 02 be cf e7 35 3e
       -0.05206466 -0.16422273 -0.12718941 0.17764209
000290 74 27 b6 3e 76 74 92 3e ce 82 a7 3e f6 c0 ce be
       0.35576975 0.28604478 0.32716984 -0.40381593
0002a0 ce 70 96 3e fb c7 23 be 98 f7 be 3e ff 1a ee 3e
       0.29382938 -0.15994255 0.37298274 0.4650497
0002b0 8e b9 80 3d dd 4e 36 3e 9d 53 4e be b9 5f 1a 3e
       0.06285392 0.17803521 -0.20149083 0.15075578
0002c0 4b 8b 08 be e4 65 c4 be ce 25 f0 bd be c8 7b bd
       -0.13334386 -0.38358986 -0.11725961 -0.06147074
0002d0 34 e3 97 3e fc 2c a7 3e cb 4c ea bd 60 7b 2a 3e
       0.2966553 0.32651508 -0.11440428 0.16648626
0002e0 9e ce 95 3e bc b1 be 3e 5a 99 6f be 5a 8f 3c be
       0.292592 0.37244976 -0.23398343 -0.1841406
0002f0 15 22 b2 3d 6f b7 05 bf 40 dd d8 bd d6 4b d5 be
       0.08697907 -0.5223302 -0.10589075 -0.4165942
000300 3f 4f a6 bd dd 09 b1 3d be 61 39 be 21 70 31 be
       -0.08120584 0.086444594 -0.18103692 -0.1732793
000310 86 6c 19 3e 21 55 f3 bd 28 aa 39 bd 39 5d 16 3d
       0.14982805 -0.118814714 -0.04532829 0.036709998
000320 d6 33 24 be 22 c6 30 be a0 92 c6 be 06 51 4e 3e
       -0.16035399 -0.17263082 -0.3878374 0.20148095
000330 8e 5b bd 3d 80 55 3a 3e 63 13 05 3d 24 4c 7c 3e
       0.09245978 0.18196678 0.03248919 0.2463842
000340 ec 11 9b bd c8 ca dd be 96 19 5d bc 3a 59 d2 bd
       -0.07571778 -0.43318772 -0.01349487 -0.10270925
000350 ac 43 aa be 6d c7 b3 be 74 35 2e 3e 2f 03 ad be
       -0.33254755 -0.35113087 0.17012578 -0.3379149
000360 80 15 2c be 8d 23 6f be d4 d1 ca be 58 16 15 3e
       -0.16805077 -0.23353405 -0.3961321 0.14559305
000370 7d 3f c7 be 98 df c8 3e e2 96 73 be d1 d8 17 3e
       -0.38915625 0.39233088 -0.23788026 0.14828803
000380 01 27 23 be ee 9b b2 3e da b5 b5 3b 4f 32 bc 3e
       -0.15932848 0.3488459 0.00554536 0.36757132
000390 3c 42 60 3e 35 4d 9b be 2d 6b 8b bd d1 75 92 be
       0.21900266 -0.30332342 -0.068075515 -0.28605512
0003a0 ce 7c 95 3d 90 72 33 be ac 5d 57 3b 38 39 cb 3d
       0.07299195 -0.17524171 0.003286223 0.09923023
0003b0 9d 07 95 3d 6f 77 b6 3e 80 7b ef 3d af ce 0c 3e
       0.07276843 0.35637996 0.11693478 0.13750719
0003c0 cb e8 18 3d 41 d9 cd 3e c7 71 9b be aa 27 f5 be
       0.037331384 0.40204814 -0.30360243 -0.47881824
0003d0 71 9f 5a be ef fb 0c be 78 63 b1 be a1 51 93 be
       -0.21349885 -0.1376798 -0.346462 -0.28773215
0003e0 26 d3 c2 be 46 e0 b0 3d cc 32 f8 3d db c3 25 3e
       -0.38051718 0.08636527 0.12119064 0.16187994
0003f0 83 89 bc be 0c b4 73 3d 0b 03 99 bd 73 81 b3 3c
       -0.36823663 0.059497878 -0.074712835 0.021912312

linear1.bias f4 [100]
000000 56 14 56 be e0 5a 8c be 9d d0 02 3e 64 3d b6 bc
       -0.20906195 -0.27413082 0.12774892 -0.02224607
000010 44 5a 55 3e 35 aa dd 3d 7a 22 c3 be 32 80 d8 3b
       0.20835215 0.1082348 -0.3811224 0.006607079
000020 5c 09 d2 bc 5f 2d 0c be 05 0e d3 3d 43 93 dd be
       -0.025639229 -0.13689183 0.103054084 -0.43276414
000030 ff 93 33 3e ed 6f eb 3e 2f 5c 93 be 0a 18 89 be
       0.17536925 0.4598383 -0.28781268 -0.26776153
000040 98 05 96 3e 00 60 14 be 4b cd 74 3e 93 47 ce 3d
       0.29301143 -0.14489746 0.23906438 0.100722454
000050 f1 2a 6a be f3 48 82 3d 46 f4 5f be ae 75 92 be
       -0.22867943 0.0636157 -0.21870527 -0.28605407
000060 2f ec 66 be 14 54 83 be 9b 17 e8 3c 66 30 89 be
       -0.22551034 -0.25650084 0.028331568 -0.26794738
000070 6b ff 7e 3d cb 8d bf 3d 42 c7 27 be 37 e3 e6 3e
       0.062255304 0.09353217 -0.16384605 0.45095226
000080 71 d2 81 3e 56 62 cb 3e b7 83 2f 3e 82 66 95 3e
       0.25355867 0.39723462 0.17140089 0.2917977
000090 fa 22 1d 3e 4c 0b 27 bd a4 e0 5f be 27 61 cf be
       0.15345374 -0.040782258 -0.21863037 -0.4050381
0000a0 5a 9c b6 bd ae 73 2c be f1 df 62 be 08 e5 8a bd
       -0.089165404 -0.16841003 -0.2215574 -0.067819655
0000b0 a0 d6 76 be 01 30 ac be b6 84 01 3e 4a f6 20 be
       -0.2410531 -0.33630374 0.12648281 -0.15718952
0000c0 1c ec c2 bd b2 d7 ce bd 04 cc 8e be c3 fa c1 be
       -0.095176905 -0.10099734 -0.27890027 -0.37886629
0000d0 32 05 2b 3e a3 d9 0d 3d 39 af c4 3d 14 80 86 3d
       0.167012 0.034631383 0.096037336 0.06567398
0000e0 f5 87 85 3c 79 ca 43 be 25 fd a5 3d 14 54 a4 3e
       0.01630018 -0.19120206 0.08104924 0.32095397
0000f0 e6 4d bb 3c 6b ff 72 be b6 68 07 be df fd 13 3d
       0.022864293 -0.23730247 -0.13223538 0.036130782
000100 b4 15 ef 3e 0e c1 28 3e 27 28 9b 3d c2 52 e3 3e
       0.46696246 0.16479895 0.07576018 0.44399077
000110 7b 89 a7 3d 1b 7c b0 3d 65 28 ba be 69 df 96 be
       0.08180519 0.08617421 -0.36358944 -0.29467323
000120 d1 67 f9 3d fd 6a 17 be 90 cd 06 3e cb 5d c2 be
       0.121780045 -0.14786907 0.13164353 -0.37962183
000130 8d e4 d7 3d e2 44 08 be a5 4b 27 3c 32 0d b0 3e
       0.105416395 -0.13307527 0.010210906 0.34385067
000140 6e fc f4 3c ea 13 a1 3e 33 c9 4f 3e b0 48 bb be
       0.029905524 0.31460506 0.20291595 -0.36578894
000150 88 4d 8c be 6d eb cb 3d fc 5c 80 3e 97 5b 0c bd
       -0.27402902 0.09957013 0.2507094 -0.034267034
000160 25 1d 87 bc cb 9d 2b 3e a8 0c e6 3e 0c ed 1f 3e
       -0.01649339 0.16759412 0.4493153 0.1561777
000170 26 17 6b bd 34 9d 07 bc 49 98 27 be f3 b9 57 3e
       -0.057395123 -0.008277226 -0.16366686 0.21067028
000180 c3 f0 85 be 45 db a9 3e 4c f0 a9 be 81 df 52 3a
       -0.2616025 0.33175102 -0.33191144 0.0008044169

linear2.weight f4 [80, 100]
000000 af 7b 8f 3c 6d 67 12 bd 92 32 c9 3c 90 3c 01 3d
       0.017515032 -0.035743166 0.024560247 0.031551898
000010 50 82 46 3d 80 62 53 3d 37 67 0f 3d e3 a6 68 3d
       0.04846412 0.05160761 0.035010543 0.05679978
000020 33 31 5c bc 0f 2a 2d 3c 91 d7 52 bd cd b0 bb 3b
       -0.013439464 0.01056911 -0.05147511 0.0057278634
000030 0c 3a 95 bd 72 67 8f 3c aa 4f 1b 3d 9c f4 2d 3d
       -0.07286462 0.017505381 0.03791777 0.042469606
000040 b9 8d e4 3b 73 82 78 bd 63 f9 17 3d ad f4 98 bd
       0.0069749025 -0.06067128 0.037103068 -0.07468543
000050 3a 6b 96 3d 3d 5f 40 bd 28 2f 1a 3c 18 e3 51 bc
       0.073446706 -0.046965826 0.009410657 -0.012810491
000060 a8 29 b1 3c c4 6a d2 bc cd ad 4e bc f8 59 b0 bd
       0.021626309 -0.025685675 -0.0126146795 -0.0861091
000070 54 c3 d1 3c ed b2 6a 3d e1 32 23 bd ba 2f d9 bc
       0.025605835 0.057299543 -0.039843444 -0.026512016
000080 a7 aa a2 bd 8d e1 ca 3c cb 35 40 3c 52 fa 97 bd
       -0.079427056 0.024765754 0.011731575 -0.07420792
000090 23 13 9a bd ad b8 90 3c 16 d1 ba bd a1 38 cb bd
       -0.07523181 0.017666185 -0.09121911 -0.099229105
0000a0 d3 cc 65 3d 3a f2 8b bd 47 03 e6 bc 20 8d 51 bd
       0.05610354 -0.068333104 -0.028077735 -0.051159978
0000b0 15 69 71 bb c2 5f 90 3d df 89 90 bd 97 1c 76 3d
       -0.0036836315 0.07049514 -0.07057547 0.06008586
0000c0 91 56 a9 bd f7 cc 95 3d d0 f8 af 3d b6 6d 11 3d
       -0.08268464 0.073144846 0.08592379 0.03550502
0000d0 8e dd 61 3d 08 05 88 bd 22 39 9e bd 69 0e 3f 3d
       0.05514293 -0.06641585 -0.07725741 0.046644602
0000e0 3d 5a 48 bd 0c ea 7b bd 5f 33 ad 3d 21 7e be bc
       -0.048914183 -0.0615025 0.08457064 -0.023253502
0000f0 10 ab 13 3d 27 d1 e0 3b 68 51 cb bd ec a1 de 3c
       0.03605181 0.0068608704 -0.099276364 0.02717682
000100 6c 5f c1 3c d8 2a 99 bd 8d d7 61 3c 63 ff af 3c
       0.023605071 -0.07478875 0.0137843015 0.021484083
000110 a1 04 3f bd 7d 3f ef 3c 97 9b 3c 3d df 74 93 bd
       -0.046635274 0.029205078 0.04604682 -0.07200026
000120 a7 5e cb 3c 30 e7 a9 37 73 fd 79 3c db 93 af bd
       0.024825407 2.0254025e-05 0.015258181 -0.08573123
000130 08 d8 53 3d 00 9d 72 3b 73 45 93 bd 55 fb 86 bd
       0.051719695 0.0037019849 -0.07190981 -0.065909065
000140 42 dd bd 3d 12 c1 c7 bd 34 21 87 3d 81 22 53 3c
       0.09270717 -0.09753622 0.0659813 0.012886644
000150 40 19 08 bd c0 a7 6c bd b8 ce 80 bd 0d cf 85 3d
       -0.033227205 -0.057777166 -0.062894285 0.065336324
000160 20 bb 8a 3c fa fb d3 bc 18 20 75 bd 1a 5c 7d bd
       0.016934931 -0.025876988 -0.05984506 -0.061855413
000170 7a ab c2 bd d2 92 13 3d 27 26 47 3c a1 5c ac bc
       -0.09505363 0.03602869 0.012155092 -0.021040263
000180 41 1f 09 ba 93 43 a6 bd 9a ee 23 bb 74 f5 c7 bd
       -0.00052307924 -0.081183575 -0.0025014044 -0.09763613
000190 69 f5 52 3d fc 3a 8e bd 8b d0 85 3c 67 80 b6 3d
       0.051503573 -0.06944844 0.016334793 0.089112096
0001a0 e7 98 5b 3d 27 83 0c bc da 34 63 3d 00 a7 8d bc
       0.053612616 -0.008576191 0.055470325 -0.017291546
0001b0 8f 94 58 3c 94 93 60 bd 2a 79 be 3d 0e 2f 4b ba
       0.013219013 -0.05482824 0.09300454 -0.0007750847
0001c0 ba 3f 8c 3c 88 31 10 bc 99 ee ab 3d c8 a3 91 3d
       0.017120231 -0.008800872 0.08395118 0.07111317
0001d0 b8 08 cf 3d 55 91 9b bd 0d ca 80 bc c8 9b 01 3d
       0.10109085 -0.07596079 -0.015721345 0.031642705
0001e0 ba a8 4e 3d 73 41 93 bd 0f 2e c6 3c 8f 7e c8 3c
       0.05045388 -0.07190218 0.024191884 0.02447441
0001f0 dc e2 53 3d ed 51 09 bd 0d cc 2d 3d 3e f0 0f bd
       0.05173002 -0.033525396 0.042430926 -0.035141222
000200 1b 05 5b bd f8 7a 9f bd e7 4f c8 3d 64 25 95 bd
       -0.053471666 -0.07787126 0.09780865 -0.07282522
000210 b8 d4 a5 bd f5 6f b4 bd f5 af 2f 3d 5d 9c 99 3d
       -0.080972135 -0.088104166 0.042892415 0.07500527
000220 00 0a a3 bd 63 08 b7 3d 38 0d 9a bd 00 20 73 bd
       -0.07960892 0.089371465 -0.075220525 -0.05935669
000230 47 55 3b bd 12 57 af bd d8 2d b7 3d 87 14 b1 3d
       -0.045735624 -0.08561529 0.08944291 0.086464934
000240 84 73 bc 3c 5e 34 ac 3c d4 b7 2f 3d 6f 77 1c 3a
       0.0230043 0.021021064 0.04289992 0.0005968725
000250 ef e2 96 3d c4 7a 8c ba 4d 06 a9 bc a4 3a 89 bd
       0.07367503 -0.0010717739 -0.020632887 -0.06700638
000260 c0 68 86 bd 87 40 cc bd 42 43 5c 3d 08 1d 3a bc
       -0.06562948 -0.09973245 0.05377508 -0.011359461
000270 d2 75 9d 3d 3d 69 03 bd 0c 00 9a 3d 2d 0e 6b bd
       0.07688488 -0.032082785 0.0751954 -0.057386566
000280 35 9b 07 3d 86 ad ca 3d 3a 48 53 3d 5e 10 d2 bc
       0.033107 0.09896378 0.051582552 -0.02564257
000290 24 0a 44 bd 64 bd 7b bb b6 2a ea bc 51 6b b9 bc
       -0.047861233 -0.0038412446 -0.02858482 -0.02263418
0002a0 fd 87 5c bd 83 1d 25 3d fa d9 29 3d 49 d1 91 bd
       -0.053840626 0.040311348 0.041467644 -0.07119996
0002b0 67 40 6b 3c 4a cb 14 3d 60 e2 8e bc 24 d6 18 bc
       0.014358616 0.036326684 -0.017441928 -0.009328399
0002c0 18 b4 f9 3b 3a d3 ca 3c f6 53 d2 3c 2f 4a ba bd
       0.007620346 0.024758924 0.025674801 -0.09096181
0002d0 2d 54 52 3d 7a 0c 04 bd 7b da 81 bd 7e 9b 29 3d
       0.051349808 -0.03223846 -0.063405 0.041408055
0002e0 95 8e aa bd cb 6f cc bd 2e 6b 27 bd 87 b5 bb bd
       -0.083279766 -0.0998226 -0.0408737 -0.09165483
0002f0 ea da b6 bd 5b 58 c2 bd 2c 43 3f bd 4f cf a9 bd
       -0.08928473 -0.09489509 -0.04669492 -0.08291494
000300 a7 3c 8d bc b8 c3 8f 3a eb ef b9 bc 5d fa 02 3c
       -0.017240835 0.0010968363 -0.02269741 0.007994262
000310 eb d3 dd bd 7e a0 de 3c bd c3 77 bd 8f d2 dc 3b
       -0.10831436 0.027176138 -0.060489405 0.0067389677
000320 f2 a2 92 bd 9e 69 80 bc 88 af 7b 3d 80 43 02 bc
       -0.071599856 -0.015675362 0.061446697 -0.007950664
000330 4d dd 46 bd 80 64 8a bc 10 ff c5 3d 2b 5f a4 bd
       -0.048550893 -0.016893625 0.0966779 -0.08025964
000340 ff b2 be bd fc 8a dd bc 2a 0d 8b 3d a1 99 9b 3d
       -0.093114845 -0.027043812 0.0678962 0.07597662
000350 55 73 9b bd 0f f6 a7 bd 08 dd b1 bd 49 52 8e bd
       -0.07590357 -0.08201229 -0.086847365 -0.069492884
000360 f3 41 07 bc 13 04 a0 3c 40 10 a4 3d 37 a3 92 3c
       -0.00825547 0.019533193 0.08010912 0.017900093
000370 0f 36 76 bd 12 fa 8f bd cd de 8d 3b 53 72 85 3d
       -0.060110148 -0.07030119 0.0043295384 0.06515946
000380 66 8b a7 3d 61 35 f6 3c b4 59 0b bc 07 ce 92 bd
       0.08180885 0.03005475 -0.008505274 -0.07168203
000390 d8 41 c4 bc 80 a7 bb 3d 05 97 8d bc de b4 79 bd
       -0.023957178 0.091628075 -0.017283926 -0.060963504
0003a0 bd f7 63 bd 40 35 06 3d 97 2b 10 3d 80 9e 12 3d
       -0.055656184 0.032765627 0.03519782 0.03579569
0003b0 67 52 54 bb 68 b9 a0 3d 9f ad 84 3d 80 63 21 bd
       -0.0032397748 0.078478634 0.06478428 -0.03940153
0003c0 a0 20 ab bc 22 35 8b 3d da 41 81 bc f3 96 39 3d
       -0.02088958 0.06797244 -0.01577847 0.045309972
0003d0 50 73 70 bc be b9 ba bd a5 39 87 bd 5e 16 5c 3d
       -0.01467593 -0.09117459 -0.06602792 0.05373227
0003e0 10 db 82 3d 5b 0c 76 3d fa 92 c4 3c 9a f9 ee bc
       0.06389439 0.060070377 0.023995865 -0.029171754
0003f0 a3 82 94 bd 22 d8 99 bd 6e 2b 49 bd ad 78 90 bd
       -0.072514795 -0.07511927 -0.049113683 -0.07054267

linear2.bias f4 [80]
000000 ac 53 ae bc 25 99 9e bc 21 7e 9a 3d 27 df 32 bd
       -0.021280132 -0.019360134 0.075435884 -0.043669846
000010 db ba 9c bd 6a 09 14 3e 7f e7 b0 3c a8 02 0f bd
       -0.07652827 0.14456716 0.021594761 -0.034914643
000020 1c 51 b1 bd 33 be 1b 3e ea 61 0f be 00 e6 b4 bd
       -0.086580485 0.15209274 -0.14002195 -0.088329315
000030 6c 12 97 bd af e0 9b 3d 85 24 16 3c 39 9d 07 be
       -0.073765606 0.07611214 0.00916398 -0.1324357
000040 4c 5c a1 bc 92 49 8f bd 80 c6 d4 3c 54 9a b6 3d
       -0.01969733 -0.06996454 0.025973558 0.089161545
000050 59 31 24 3d 09 a2 1d be e6 7a 8c bd 9e 86 84 bc
       0.040086124 -0.15393843 -0.068593785 -0.016177472
000060 9b 33 c4 bd 47 3f 37 3d 77 9f 77 bd 42 e1 01 3d
       -0.095801555 0.04473808 -0.060454812 0.031708963
000070 cd ae 8c 3b e9 e5 1c be 35 e4 0e 3c f1 49 8f bd
       0.004293299 -0.15322079 0.008721401 -0.06996525
000080 3b ff 83 bd d9 2e b9 3d 74 5d fd 3c c7 0a 09 3d
       -0.06445166 0.090421386 0.030928351 0.033457544
000090 29 09 12 3e cd 8c 5b 38 64 6d 23 3d 13 93 82 3d
       0.14261307 5.23448e-05 0.039899245 0.063757084
0000a0 11 4f a3 3c 83 a0 8f 3d c4 7f 2c 3e 68 5b d1 3d
       0.019935163 0.07013037 0.16845614 0.102225125
0000b0 6a bb f8 bd 46 88 5b 3b 4b 7a 80 3d 38 d6 33 3d
       -0.121451214 0.0033497973 0.062733255 0.043905467
0000c0 ca fa 53 3d 01 6c 29 bc 2c ec a8 bd de 28 70 bc
       0.051752843 -0.010340692 -0.08248171 -0.014658181
0000d0 f9 ca 8e bb 8f 69 d1 bc 91 73 9b 3c 9b d8 9c 3d
       -0.0043576923 -0.02556303 0.018976005 0.07658502
0000e0 cd 03 ac 3c 21 f1 91 bd eb 2b 8f 3d f2 d4 09 3e
       0.020997906 -0.0712607 0.069907986 0.13460138
0000f0 e0 c2 18 3d 65 9c cc bd 95 ea e0 3d 5e 1b a0 bd
       0.037295222 -0.099907674 0.10982243 -0.0781772
000100 e7 57 ad 3d df 5b 86 3b 5e 7d 48 3e dc ff 96 bd
       0.08464032 0.0041003074 0.19579074 -0.0737302
000110 76 fe c5 bd 60 02 88 3d 57 76 65 bd 6b 17 4b bd
       -0.09667675 0.06641078 -0.05602106 -0.04958288
000120 72 d8 87 bd 1d 35 b4 bd fb db 39 bc 12 26 ad bc
       -0.066330805 -0.08799193 -0.011343951 -0.021136317
000130 17 fa 17 be b8 cd 75 3c dc 15 0f bc e7 6f 24 bc
       -0.14841495 0.01500266 -0.008733239 -0.010036445

linear3.weight f4 [2, 80]
000000 52 a3 e8 bc 0c 8c 45 bc f6 ef 11 3d c6 24 b6 3d
       -0.02839819 -0.012057316 0.035629235 0.08893733
000010 db c8 d2 3d 0b 49 c4 3d 0a ec 55 3d 8a c5 ae 3b
       0.102922164 0.09584244 0.052227058 0.005333607
000020 8f 23 96 bd 30 42 8f 3d 84 35 97 bd 21 d5 12 bd
       -0.07331001 0.06995046 -0.07383254 -0.035847787
000030 e8 68 b0 3d 30 3c 5a 3d 64 14 69 3d d3 64 b8 bd
       0.08613759 0.053280056 0.05690421 -0.09003606
000040 41 a4 a4 bd 8f b6 81 bd b4 a8 a0 3c 95 e0 85 bb
       -0.080391414 -0.063336484 0.019611694 -0.00408561
000050 21 81 90 3d 7d 5c 5a bd 43 c9 9b bd 07 39 2b bd
       0.070558794 -0.05331086 -0.07606747 -0.041802432
000060 60 4b 24 bd 9e 2e db 3d 8a 0d 90 bc 2b 81 c9 bd
       -0.040110946 0.10702251 -0.01758458 -0.0983909
000070 6f e3 97 ba fc 4d 42 3d 32 26 84 bd c0 89 43 bc
       -0.0011588166 0.047437653 -0.06452598 -0.011934698
000080 00 d4 ab bd ec 39 c1 bd f7 57 3d 3d 68 fe 9c 3d
       -0.08390045 -0.09434876 0.046226468 0.07665712
000090 d8 db 97 3d 49 94 8c bb ca 95 b8 3d 80 74 c1 3c
       0.07414979 -0.004290138 0.09012945 0.023615122
0000a0 a9 a8 6f bb a1 8f 94 3c 68 f5 52 3c 35 3c 17 3d
       -0.0036569035 0.018134894 0.012875892 0.036922652
0000b0 d2 5e 4c bd a6 7b 91 3d a1 9d 51 3d 18 4e a9 3c
       -0.049895115 0.07103662 0.051175717 0.02066712
0000c0 ba 7d 25 3d 64 6f a3 bd 6b d2 89 3d 26 0c 13 3b
       0.040403105 -0.079802305 0.06729587 0.002243766
0000d0 f1 84 7e bb e5 08 65 bd 3d 69 9e bd be eb 60 3c
       -0.0038836563 -0.055916686 -0.07734916 0.01372808
0000e0 cc 52 15 3d 3c a3 53 3d f4 9c 7e 3d b0 d3 a7 3d
       0.036455914 0.051669344 0.0621614 0.08194673
0000f0 88 d3 c2 bd 7c 9b 1e 3d 07 1f c0 3d 16 ad 22 bd
       -0.09513003 0.0387225 0.09380918 -0.03971585
000100 20 44 aa bc bb 6d 4d 3d c7 93 9a 3d 3c e7 20 bd
       -0.020784438 0.050153475 0.075477175 -0.039283022
000110 e8 c6 8e bd e6 5c 73 3b 6e 34 6a bd e5 0e 0c 3d
       -0.06971532 0.003713423 -0.057178907 0.034193892
000120 86 0c b4 3d 55 4d 3b bd 53 70 87 bc 41 04 df bc
       0.08791451 -0.045728046 -0.016533053 -0.027223708
000130 2f b3 01 3d 13 76 b6 3d 41 9e ea bb c6 53 f8 3c
       0.031665023 0.089092396 -0.0071599786 0.030313384
000140 4f e7 c1 3c 88 fe 82 bc d1 9d 8f 3d 01 1f c7 bd
       0.023669867 -0.01599051 0.07012523 -0.097227104
000150 7d 3d a4 bd 76 bb 18 3b c0 1d 68 3a 44 6e c6 3d
       -0.080195405 0.0023305095 0.0008854531 0.09689
000160 c4 db d6 bd 60 4a 60 bd 6f bc 9d 3c bc da c3 3d
       -0.10491136 -0.05475843 0.019254891 0.09563205
000170 ae 85 5a bd 5a 3e 53 bd 8d 0a c1 3c 16 3a a9 3d
       -0.053350143 -0.051573135 0.023564601 0.08263032
000180 3c ba 02 3d 1a 71 5d 3d 0d 0d 9c 3c 40 4e 4b bd
       0.03191589 0.05406294 0.019049192 -0.049635172
000190 fb 7b 87 bd e8 d9 74 3d be 28 aa 3d 37 18 d8 3d
       -0.06615444 0.059778124 0.08308552 0.105514936
0001a0 5e ce 16 3d ef c4 78 3d e2 0b 32 3d 7e 9d 32 bd
       0.0368179 0.060734686 0.043468364 -0.043607228
0001b0 24 a6 09 3c c3 89 ae 3d b5 31 2e bb dc 08 1d 3d
       0.008401427 0.0852237 -0.002657992 0.038338527
0001c0 de 13 19 bd 4e 08 d0 3b d6 40 a6 bd 70 ac 3d bd
       -0.037372462 0.0063486462 -0.08117835 -0.046307027
0001d0 90 e7 34 bd b4 bc 8d 3c 21 5d 6d bd 31 f7 dd bc
       -0.044166148 0.017301895 -0.057950143 -0.02709541
0001e0 34 8d d9 3a d6 2f 36 3d cf 00 07 bd 3a fa ce bd
       0.0016597868 0.044479214 -0.032959756 -0.10106321
0001f0 30 26 83 3d e1 eb b8 bd 5e f2 ac bd 1f d2 2f bd
       0.06403768 -0.09029365 -0.08444665 -0.042924996
000200 a0 bc 9e 3d 6b 74 1c 3d 78 47 c7 3d fd dc 8f bd
       0.07750821 0.038196962 0.097304285 -0.07024572
000210 d6 93 b9 3d 97 0c 9c bd eb ad c0 bd 75 ab 29 bd
       0.090614006 -0.07619589 -0.09408172 -0.04142328
000220 63 d3 d7 3d 7e d4 95 3d 6d f3 b8 3c 38 61 56 bc
       0.10538366 0.0731592 0.022577012 -0.013084702
000230 0c 7a 2f 3c f8 56 8d bd 5e 93 d0 bd c3 8c a2 3d
       0.010710251 -0.069013536 -0.10184358 0.079370044
000240 43 ae a4 bd 82 7b a1 bd dd 88 d0 bd 9b fe c7 3d
       -0.0804105 -0.07884885 -0.101823546 0.09765359
000250 b3 8b d7 bd 4a e5 4d bd bf 88 db bc 0a 9b ad 3d
       -0.105246924 -0.050267495 -0.026798604 0.08476837
000260 13 c5 92 bd 4d 19 ba bc bd 48 7f 3d 89 fa 1c bc
       -0.07166495 -0.022717142 0.062325228 -0.009581217
000270 ee bf 86 3d a3 6c 05 3d 24 e9 29 bd a3 32 59 3d
       0.065795764 0.032574307 -0.041482106 0.053026807

linear3.bias f4 [2]
000000 5d ad 22 3c 22 8d 27 be
       0.009929028 -0.16362432
